episode67190.pt (torch, 867151 bytes, 77 tensors)

fcn_1.weight f4 [128, 140]
000000 aa 19 b0 3f 3f db 6b be 40 da 0b 3f 6e af 41 3e
       1.3757832 -0.23032854 0.546299 0.18914577
000010 9f 01 00 bf 0e d3 9f 3d 04 36 a5 bf cd 00 9d 3d
       -0.50002474 0.07803927 -1.2907109 0.07666168
000020 65 ac 57 be 39 81 cf 3c 33 31 ad 3e b4 19 5f 3f
       -0.21061857 0.025330173 0.338266 0.87148595
000030 64 18 bd be 06 78 e0 3e 7b f1 ec be ea 13 c7 3e
       -0.3693267 0.4384157 -0.46277985 0.3888238
000040 26 5a 72 3f 59 b6 94 3e 93 03 e5 bd 66 93 3d bf
       0.94668806 0.2904537 -0.11182322 -0.7405304
000050 e2 83 4e bf 92 24 a8 3e 83 e8 0a 3d 80 e1 86 bf
       -0.8066999 0.328404 0.033913147 -1.0537567
000060 f1 22 b6 bf 21 e6 56 3f 07 97 78 bf cd b7 f1 bd
       -1.4229413 0.839449 -0.9710545 -0.11802635
000070 08 52 01 c0 8d da d4 3f e7 77 a0 be fc 73 9b 3e
       -2.0206318 1.6629196 -0.31341478 0.30361927
000080 37 2e 01 40 98 9a f2 3f ed 79 95 3d 9c 49 18 be
       2.0184457 1.8953428 0.07298646 -0.1487183
000090 76 d3 55 bf 7c b9 71 bf 28 52 cd 3f 46 c8 e7 3e
       -0.8352579 -0.9442365 1.6040697 0.45269984
0000a0 0b 3c d1 3e 9c f9 64 bd c8 51 1f 3f 02 5d bc 3e
       0.40866122 -0.05590211 0.62234163 0.3678971
0000b0 a3 65 32 bf 28 64 9e bf 44 fd 1d 3f e4 79 aa be
       -0.69686335 -1.2374315 0.6171458 -0.3329612
0000c0 27 61 39 be 5d 95 66 3f 28 f0 11 be c8 ab 23 bf
       -0.18103467 0.9007166 -0.14251769 -0.6393399
0000d0 4f c7 07 3e 61 4f 22 3f a9 d4 cf 3f 54 c3 30 be
       0.13259624 0.6340237 1.6236774 -0.17262012
0000e0 df 41 16 3f 9e c6 8f 3f 16 d5 3e 3c b3 84 41 3f
       0.5869426 1.1232488 0.011647483 0.7559311
0000f0 d2 f0 ba 3e 6c 5c da bf 05 b4 2e 3f 47 b2 9e bf
       0.36511856 -1.7059455 0.6824344 -1.2398156
000100 af b3 c2 3e 40 df 7f 3e f8 c4 92 bd 42 50 d3 3d
       0.38027713 0.24987507 -0.07166475 0.10318042
000110 35 26 df bd a5 58 f0 3d bc df 49 be 80 b3 53 3f
       -0.10895959 0.117356576 -0.19714254 0.8269577
000120 e3 00 ea bc 17 b6 03 40 fd 9d c3 3e 9b df d6 be
       -0.028564876 2.057989 0.38206473 -0.41967472
000130 ea d3 3c bf a3 ed 58 3f 22 6b a9 be 9c 84 d8 3e
       -0.73760855 0.84737605 -0.33089548 0.42288673
000140 89 6c e2 bf f8 82 3a bd 6d 24 ef be a8 2a 7a bf
       -1.7689372 -0.045535058 -0.46707478 -0.9772134
000150 ed 69 a2 bf 11 bf 18 be d6 fe 80 bc 94 05 dc bd
       -1.2688576 -0.14916636 -0.015746515 -0.107432514
000160 a5 0a 9c 3f 92 ac cd be e6 be 5a bf 98 20 ce 3e
       1.2190748 -0.40170723 -0.8544754 0.40259242
000170 0d fd 6d bf 17 2f 93 bf c6 ff 2f be 95 98 40 3f
       -0.9296425 -1.1498746 -0.17187414 0.7523282
000180 51 fd 27 bf 68 ef b9 bf f8 39 88 3d 22 e9 2c bf
       -0.65620905 -1.4526186 0.06651682 -0.6754323
000190 72 4c 0d 3e f6 f7 46 3f 08 ed 00 3f 3c a8 cd be
       0.13798693 0.7772211 0.5036168 -0.40167415
0001a0 82 6a 99 3e 5c ae f5 be 77 0b a1 bf c8 8e ae bf
       0.29964072 -0.47984588 -1.2581624 -1.3637323
0001b0 b0 e2 09 3f 40 86 f6 be de 26 81 bf bb be 35 be
       0.5386152 -0.481493 -1.0089986 -0.17748539
0001c0 1e c9 cf 3e 8f f1 d2 bd b0 65 e0 3f 3c de 4f be
       0.40583128 -0.1029998 1.7531033 -0.2029962
0001d0 72 b7 2d bf 50 d0 cc bf 55 84 6e bf 16 98 2c 3f
       -0.6785804 -1.6001072 -0.9317067 0.67419565
0001e0 0d 67 7a bf 9a e2 37 bf ed f3 e4 be 03 94 97 bf
       -0.97813493 -0.7183014 -0.4471735 -1.1842045
0001f0 58 a5 36 bf 17 70 8f bf ef ab 19 3d 44 5a 04 bd
       -0.71346045 -1.1206082 0.037517484 -0.032312647
000200 ed 32 5e 3b 40 ec 91 be 73 e9 f6 bc d4 bc 0e 3f
       0.0033904866 -0.28500557 -0.030140614 0.5575688
000210 9a 97 89 be ef df 86 bf d6 5c 24 be 15 65 82 3f
       -0.26873475 -1.0537089 -0.16051039 1.0187098
000220 79 ec b6 bd be ab 26 3f 9c 69 ea bc 36 86 20 bf
       -0.08931822 0.6510581 -0.028614812 -0.6270479
000230 46 00 7d be 33 14 f4 be fb 4e d9 bf c9 83 3c 3f
       -0.24707136 -0.4767166 -1.6977228 0.7363859
000240 7f ab 91 3d 86 0b 0f 3e 60 ca 82 3f 02 1e 2d 3f
       0.071127884 0.1396924 1.021801 0.67623913
000250 2d bd 10 be 50 ae 5d 3c ec c7 30 be 80 72 b2 3d
       -0.14134665 0.013530329 -0.17263764 0.087132454
000260 20 f0 24 bf c8 df 53 bf 2b 10 97 bf 63 17 5e bf
       -0.644289 -0.8276334 -1.1801809 -0.86754435
000270 cc 29 28 bf d6 79 f6 bd cd 76 9e bd 87 8c ed bd
       -0.65688777 -0.12034957 -0.07737503 -0.11599069
000280 16 3e 61 3f f3 ad 98 bc ab a6 d1 be 41 56 36 3e
       0.8798536 -0.018637633 -0.4094747 0.17806341
000290 0a c6 e4 bf 7e 3c d2 bf 40 cb ad 3f 37 7f bc bd
       -1.7872937 -1.6424711 1.3577652 -0.09203952
0002a0 1d fd 19 3e e6 98 00 bf 90 82 09 bf fa 20 f0 be
       0.15037961 -0.50233305 -0.5371485 -0.4690016
0002b0 82 b5 cb 3f b4 03 39 bf 47 37 ad 3d 29 ad 1c bf
       1.5914767 -0.72271276 0.08457809 -0.6120172
0002c0 60 21 33 c0 9c 40 78 be f6 0b 53 3e 0f e3 95 3e
       -2.798912 -0.24243397 0.20610031 0.29274794
0002d0 94 44 36 3f ed e7 c6 bd c7 e1 ec 3e 5e ee f0 bf
       0.7119839 -0.09712205 0.46266004 -1.8822744
0002e0 54 1a 14 c0 27 b5 9f 3f 18 0a 6f bf 8a 34 93 bd
       -2.314107 1.2477158 -0.93374777 -0.071877554
0002f0 eb c9 c7 be 12 3a 23 bf 3c 12 49 bf 3f 36 09 c0
       -0.3902124 -0.63760483 -0.7854345 -2.143936
000300 5a 79 66 bd 84 bf 0d bf 29 92 91 be 9d 4c 07 be
       -0.056268074 -0.55370355 -0.28431824 -0.1321282
000310 a5 47 06 c0 16 b4 a6 3e 03 3c d8 3d 4a 9f 0e bf
       -2.0981228 0.3255927 0.10558321 -0.55711806
000320 df 1e 16 c0 63 55 2c bf 01 17 8a 3f c3 d5 08 bf
       -2.3456342 -0.6731779 1.078827 -0.53451174
000330 99 da 8c 3d b0 7d 13 bd a1 79 ef bb bf 06 6a bf
       0.06877632 -0.036008537 -0.0073082005 -0.91416544
000340 78 bd 3d 3d dc b1 72 bf b5 87 d6 bf a0 a4 0f 3e
       0.04632327 -0.9480264 -1.6760164 0.14027643
000350 b1 dd 63 bd 3a 83 8f bd 3e 1e 45 bf e0 d9 8f be
       -0.055631343 -0.07007451 -0.7699927 -0.28095913
000360 1a 1c 00 bf 6b 52 67 be 75 f4 56 bf 3b 2e 82 3f
       -0.5004288 -0.22590034 -0.8396676 1.0170358
000370 a1 d7 3b 3f 0b ba e3 3d 7a 8d cd bf b6 19 3c 3b
       0.733759 0.11119469 -1.60588 0.0028701848
000380 30 7f 5f 3f 3d 7a 80 be 94 bc 82 bf 92 11 f0 3e
       0.8730345 -0.2509326 -1.02138 0.46888405
000390 d8 a7 51 bf 1a 8f 85 bd 43 19 28 3d e3 c5 45 bf
       -0.81896734 -0.06521435 0.041039716 -0.77255076
0003a0 52 2a 96 3f f0 a9 0c 3e 0e f6 d3 be a6 64 6b 3e
       1.1731665 0.13736701 -0.41398662 0.22987613
0003b0 ef 49 c0 3f fc e9 a1 bf fd f5 d7 3e 0f c8 7a 3f
       1.5022563 -1.2649531 0.42179862 0.97961515
0003c0 ea 99 bb 3f 13 65 cf 3f 68 d9 d5 be d1 19 8e 3e
       1.4656346 1.620272 -0.4176743 0.2775407
0003d0 c4 61 01 3f 0f 0f 45 bc cd 7f 00 be 75 6c 39 3f
       0.50539804 -0.012027516 -0.12548752 0.7243112
0003e0 3e 92 16 3e 9a ed f5 3e 53 14 76 bf 06 de 01 c0
       0.14704224 0.48032838 -0.9612476 -2.0291762
0003f0 e4 41 63 be db db 9f 3f 2f f3 19 bf fc b2 2c 3f
       -0.22193104 1.248897 -0.60136694 0.6746061

fcn_1.bias f4 [128]
000000 08 4b b2 3e 60 8f 07 3e bb 1a 05 3e 91 44 85 bf
       0.3482287 0.13238287 0.12998478 -1.041155
000010 56 ea 21 bc 89 33 89 be 16 38 b9 3f 55 07 e7 be
       -0.00988253 -0.2679713 1.4470241 -0.4512278
000020 2d 8a 97 bf 41 62 0e 3e 82 c1 a4 3d 3b 3e 4a 3d
       -1.1839043 0.13904668 0.08044721 0.049375754
000030 84 9c 85 be 65 86 4a bf 4c cd 84 be 27 b4 5c 3f
       -0.26095974 -0.7911132 -0.2593788 0.8621239
000040 d3 1b 49 3e 10 51 ab 3f 21 65 75 bf 22 e0 7a bf
       0.1963952 1.3384113 -0.95857435 -0.9799825
000050 98 56 a9 3d 41 12 74 bd d0 7e 7b be 97 69 90 3f
       0.082684696 -0.05958772 -0.24560094 1.1282223
000060 eb ff bb bf c3 a2 1e bf 8a b0 bf bf 96 9d a8 be
       -1.4687475 -0.61967105 -1.497575 -0.3293273
000070 fc ca 1d c0 50 f5 59 be fa 5e f6 be 0f a8 07 bf
       -2.4655142 -0.21284986 -0.48119336 -0.5299081
000080 da b5 a8 bf dd 7f d5 bf 2c bc 84 bf 4a a6 2c 3d
       -1.3180497 -1.6679646 -1.0369925 0.042150773
000090 68 c4 57 bf 40 48 53 bc 09 43 6b 3f 65 10 c9 bd
       -0.8428407 -0.012895644 0.9189916 -0.0981758
0000a0 44 e6 a1 be 9c bc 4e 3e 8b 91 77 3e b4 07 a4 3e
       -0.3162099 0.20189136 0.24176614 0.32037127
0000b0 3a 4b 17 3f 9f a9 74 3f b5 a8 4d 3c f6 f1 91 bd
       0.5909916 0.9557132 0.01255243 -0.071262285
0000c0 1c f8 77 bf 20 21 4e 3f cc a5 75 be 20 99 6d bf
       -0.9686296 0.80519295 -0.23989028 -0.92811775
0000d0 a3 28 7f bf 0c b3 5b be a6 68 00 3e 60 f9 d9 be
       -0.9967138 -0.2145502 0.1253992 -0.4257307
0000e0 37 9b b0 3f c0 05 e2 bf be 04 10 bf 70 52 ea 3e
       1.3797368 -1.7658005 -0.56257236 0.4576602
0000f0 b5 8f 36 40 23 14 08 3f 07 51 06 bf c2 99 01 bd
       2.8525212 0.53155726 -0.5246739 -0.031640776
000100 78 81 44 bf 82 7b 4e bd ad c0 6f be 4b ea c0 3d
       -0.76760054 -0.050410755 -0.23413344 0.09419688
000110 58 f2 21 3e 5c 21 76 bf af 37 30 bf 49 88 0a bf
       0.15815103 -0.9614465 -0.68834966 -0.54114205
000120 1c 49 01 bf 0d d6 3f bf 6f 0b 86 bf e7 51 ee bc
       -0.5050218 -0.7493599 -1.0472239 -0.029091788
000130 db 21 de 3e a8 c3 bc be 47 75 02 bf 67 7b 12 bf
       0.43385205 -0.36868024 -0.509602 -0.5721955
000140 71 71 f9 be 6f 05 02 bf ed f8 74 bf 62 af 20 bf
       -0.4871936 -0.5078954 -0.9569233 -0.6276761
000150 b5 4c 07 be f4 86 05 c0 48 b0 a2 be 15 e3 7f bf
       -0.13212855 -2.086362 -0.31775117 -0.99955875
000160 94 d5 a4 3e 9c d9 72 3d 08 33 d7 3d 01 fa 18 3e
       0.32194197 0.05928956 0.1050778 0.14939119
000170 86 b1 cd be 47 1a 53 bf 87 32 7f 3e f5 93 8e be
       -0.40174502 -0.8246197 0.24921618 -0.27847257
000180 be 76 89 3e f6 3e 42 bf 27 bb 01 be b0 69 9e 3e
       0.26848406 -0.7587732 -0.12669049 0.30940008
000190 2d 9f c0 bd 2d ed cf be b4 9d 4e bf de cd 24 bf
       -0.0940536 -0.40610638 -0.80709386 -0.6437663
0001a0 41 8f 2f 3e fe 34 c8 bf 6d 0c bf bf 01 13 16 bf
       0.17144491 -1.5641172 -1.4925667 -0.5862275
0001b0 09 1e c9 be d0 76 ac bd 61 72 23 bf ad f1 ae be
       -0.39280728 -0.08421099 -0.63846403 -0.3416876
0001c0 d7 de a4 bd bc a4 85 be 58 6a e3 be 10 4a f0 be
       -0.08050316 -0.26102245 -0.4441707 -0.46931505
0001d0 7c 1e 95 bf ef c3 0f 3e 3c 2c 90 3d eb ec 01 c0
       -1.1649928 0.14039586 0.07039687 -2.0300853
0001e0 82 06 01 bf c2 8e f8 bd a0 c3 37 bf 9d ad 79 3f
       -0.50400555 -0.12136604 -0.71782875 0.9753054
0001f0 1c 86 fe be fa 2f dc bd 21 e6 28 be 5b 92 16 bf
       -0.49711692 -0.10751338 -0.16494037 -0.5881707

fcn_2.weight f4 [64, 128]
000000 b2 b7 46 3e a9 ee 3f 3f 9c 7e ba 3e 08 5c 62 3e
       0.19406012 0.7497354 0.3642472 0.2210542
000010 a9 57 fc be 01 99 50 3f d0 4c 14 3e 88 c1 45 3f
       -0.4928563 0.81483465 0.14482427 0.7724843
000020 cd da 21 3f 62 8c 67 bf 73 81 b2 3d 21 8c a7 be
       0.6322449 -0.9044858 0.08716097 -0.32724097
000030 a0 ba 6f be 1d 5e 05 3f 0b 75 da 3e 6e 89 b4 3e
       -0.23411036 0.5209673 0.42667422 0.352611
000040 6f 7b e2 3e 36 3c da 3e e1 51 b5 3e 40 d9 e4 3e
       0.44234797 0.42624062 0.3541403 0.44697
000050 15 92 e0 be 72 13 2b 3f 98 d1 73 bf 6e 01 9e bf
       -0.43861452 0.66826546 -0.9524169 -1.2344186
000060 16 a4 8b bc 2d 87 fe be 5e 33 2d bf 4e 55 bb bd
       -0.017046016 -0.49712506 -0.67656505 -0.0914713
000070 a3 54 cd 3e 32 17 4c bf 46 c9 b0 3f bf 2a 87 3f
       0.40103635 -0.79722893 1.3811424 1.055992
000080 b0 50 23 bf 55 de f1 bd 4c 27 bc be 3e 20 c6 3d
       -0.63794994 -0.118099846 -0.3674873 0.096741185
000090 3b 59 16 bf 0e f4 93 bf 20 46 7e bf 78 f9 c9 be
       -0.58729905 -1.1558855 -0.9932575 -0.39448142
0000a0 89 12 36 bf 37 59 00 3f ac ef d1 3e aa cb 47 3d
       -0.7112203 0.5013613 0.41003168 0.048778214
0000b0 93 87 52 3e 0c 57 a4 be dc c5 38 3f 54 e9 81 bf
       0.2055953 -0.32097661 0.7217691 -1.0149331
0000c0 1c 6d 9f bf 5d 00 c6 3e a2 d0 02 bf a5 54 1f bf
       -1.2455173 0.38672152 -0.510996 -0.6223853
0000d0 65 2b ee 3e c1 6e bd be 65 51 d0 be 2a 7e ac 3e
       0.46517482 -0.3699856 -0.406871 0.33690006
0000e0 2c 91 b3 3e 0b 3f 86 3e 57 39 d0 3e 95 db 9c be
       0.35071695 0.26219973 0.40668747 -0.30636278
0000f0 8e 00 d1 be 76 0f 9e 3e 19 ef c2 be 74 41 15 bf
       -0.40820736 0.3087117 -0.38073042 -0.58303
000100 14 70 bc 3e e4 c9 f5 be fc 17 61 bf fd ba f1 3e
       0.3680426 -0.48005593 -0.8792722 0.47212973
000110 1e 17 0b bf bf 4b db be f5 c2 9f 3e fc b7 b9 3e
       -0.5433215 -0.42831227 0.31203428 0.3627318
000120 c3 de fc be 39 46 53 bf cc 63 dd be e9 fb 46 bf
       -0.49388704 -0.82529026 -0.432402 -0.77728134
000130 78 6e 52 3f 80 76 4d be 1b 77 38 be 7a d4 90 3d
       0.8219981 -0.20064735 -0.18014185 0.07071777
000140 f7 be 85 3f c6 55 21 bf f0 15 36 bf bf 72 91 bf
       1.0448903 -0.63021505 -0.71127224 -1.1363143
000150 ff d0 85 be 86 1c 94 3e f7 34 a1 3e 2f 80 19 bf
       -0.26136014 0.28928012 0.3148572 -0.5996122
000160 1c 82 e3 3e 7f d7 88 bf ba 66 17 be f6 54 3a bf
       0.44435203 -1.0690764 -0.14785281 -0.7278589
000170 ea 2f e4 3e b8 8f 0f bd 1a 71 24 3e f3 93 3e bf
       0.44567806 -0.03504917 0.1605877 -0.744445
000180 bc 78 86 be 4a 6c ec 3e 41 3c 47 bf 0c f2 4c bf
       -0.26263988 0.46176368 -0.77826315 -0.80056834
000190 0e b7 44 bf 61 d4 7f 3e c5 a6 d0 be 4a ef b8 bf
       -0.7684182 0.2498336 -0.40752235 -1.4448025
0001a0 2e a0 6c 3e e9 a2 bb be 7e 62 9e 3e 8e fe 0b be
       0.23107979 -0.36647728 0.3093452 -0.13671324
0001b0 8f ab 81 bf d9 65 3a 38 9d e8 0a 3e fd 11 01 3d
       -1.013048 4.444071e-05 0.13565297 0.031511296
0001c0 bc 71 80 3d 60 95 1d 3f eb bb b1 3e c1 6e 13 bf
       0.06271693 0.61556053 0.34713683 -0.5759087
0001d0 a9 3a c7 3e f8 de 3b bf fc a9 51 bf fa c6 29 3f
       0.38911942 -0.733871 -0.819 0.6631924
0001e0 dd a5 08 bf 83 22 1b 3e 73 e0 c2 3e ba fb 35 be
       -0.5337809 0.15149884 0.38061866 -0.17771807
0001f0 b3 1e da be 1e e0 f3 3e cc 45 54 bf 31 85 c1 3e
       -0.42601547 0.47631925 -0.82919 0.3779693
000200 79 5c 6f be 46 80 07 3e a9 6b 37 be 38 5e 87 bd
       -0.2337512 0.13232526 -0.17912163 -0.06609768
000210 d6 fe 4c 3e 03 93 a7 3c 5c a2 0a be bf b8 a4 3e
       0.20019087 0.020455843 -0.13538498 0.321722
000220 bc 5a f7 3e 90 71 04 3d 38 16 4a 3e 2b cb 65 bd
       0.48311412 0.032334864 0.19735038 -0.05610196
000230 c9 f9 bb be e5 a2 24 3e a2 83 86 be f8 5f 5b 3d
       -0.36714008 0.16077764 -0.26272303 0.05355832
000240 f9 2c 33 be 50 8e 70 bf 11 f6 a5 bd 98 0b 7c 3e
       -0.17497624 -0.9396715 -0.08103574 0.24613798
000250 44 b2 bb be 1e 68 f8 3c 17 f9 6f 3e db f7 5f be
       -0.36659443 0.030323084 0.23434864 -0.21871893
000260 c7 20 9d be d6 26 49 bd 82 16 08 bf 42 2c bd 3e
       -0.3068907 -0.049109302 -0.53159344 0.3694783
000270 df e4 51 be 19 a9 f5 3d c1 9a bc 3e d2 2b 08 3d
       -0.20497464 0.119951434 0.36836818 0.033244915
000280 d2 8a 4c 3c cb 21 d4 bd b8 8e 3d 3e be ed 0c be
       0.012484269 -0.10358008 0.18511474 -0.13762566
000290 05 4f 8d 3d 74 54 74 be 6c 83 28 bf b3 fa 3b 3d
       0.068998374 -0.23860341 -0.65825534 0.045893382
0002a0 86 be 1a 3e 3f 44 89 3e 59 69 02 3e 75 a3 a0 bd
       0.15111741 0.2680988 0.127355 -0.07843677
0002b0 03 5b 59 be 7e 37 f3 3e 81 21 bb be 81 7c 04 bf
       -0.21226124 0.47503275 -0.36549 -0.5175248
0002c0 48 a7 1f be 2d f4 1f bf d3 59 fe bd a8 a4 78 3e
       -0.15591156 -0.6248196 -0.12419476 0.24281561
0002d0 95 b5 8c 3e a9 97 aa 3e ca 14 49 bd 87 06 a6 be
       0.27482286 0.33318833 -0.04909209 -0.32426855
0002e0 26 06 29 bf 96 4a a1 3d 57 06 ae 3e c3 5e fe bd
       -0.66025007 0.07875554 0.33989212 -0.12420418
0002f0 6d 88 08 be 33 72 6b 3e ea ba 8f 3e 2d 1e 89 bd
       -0.13333292 0.22992782 0.28072292 -0.06695209
000300 e8 4d 00 bd ff bb a0 bc 8b 9c 49 be c5 d4 af 3d
       -0.031324297 -0.019620894 -0.19688623 0.085855044
000310 18 d4 61 3d b0 c6 ba 3e 34 20 a1 3e b7 51 81 3d
       0.05513391 0.36479712 0.31469882 0.06314414
000320 55 37 2d 3d 83 a7 32 3d ef bf 39 be 7c e2 81 be
       0.042289097 0.043616783 -0.18139623 -0.25368106
000330 c4 91 cc 3e 85 5c c4 bd de 7e 7e bd e7 03 42 3e
       0.3995496 -0.09587959 -0.06213271 0.18946801
000340 0b 55 e4 ba a7 16 4c bc 19 fd bc bd 05 c4 11 bd
       -0.0017420364 -0.012456573 -0.09227962 -0.03558733
000350 8f 2f cb 3d 79 24 cc be 0f ff 41 be 9c ba 4a 3d
       0.099211805 -0.39871576 -0.18944953 0.04949437
000360 6b 92 de bc e0 3b 0a be e6 2a 8b 3e 42 fb 94 3e
       -0.027169427 -0.13499403 0.27181166 0.29097944
000370 fe 15 e3 bd 51 41 79 be 0a 13 4a 3d 08 d8 03 3e
       -0.11088179 -0.24341322 0.049334563 0.12875378
000380 76 4b a1 3e ee e8 90 3e ec c6 7e bd 65 54 30 be
       0.31502885 0.2830271 -0.062201425 -0.17219694
000390 94 76 4d be 3d c6 c8 bd 6b 40 48 3e f5 ce cb 3e
       -0.20064765 -0.09803436 0.19555824 0.39806333
0003a0 e8 fd fe 3e df 0f 2e 3f 2c dc 04 3d 1c a4 53 3b
       0.4980309 0.6799297 0.032436535 0.0032293862
0003b0 df ec aa 3d 0e ab 72 be f6 13 4c be 8c 82 c6 3e
       0.08345961 -0.23698065 -0.1992949 0.38771474
0003c0 f5 7e 03 be 35 ef f0 3e 4c eb 6d 3d 3b 72 d9 bd
       -0.12841399 0.470575 0.058085725 -0.10617491
0003d0 0f 58 6d 3e 8a 5f 7c bd 56 2b d7 3d 6c 9f c7 3c
       0.23178123 -0.06161455 0.105063125 0.02436801
0003e0 3d fd 49 bb 07 3d 40 bf df c6 04 bf 2c 37 92 bd
       -0.0030821108 -0.7509312 -0.51865953 -0.071394295
0003f0 13 1b cc 3d bd bd 37 3e 3c 45 1c 3e f3 59 83 3e
       0.099661015 0.17943473 0.15260786 0.25654563

fcn_2.bias f4 [64]
000000 bb de 3f 3f b4 48 04 bf c9 27 72 bc 0b c3 39 bf
       0.74949235 -0.51673436 -0.014779993 -0.72563237
000010 cb d6 da be fe 84 1c bf 98 08 32 bf cf 89 a7 be
       -0.42742 -0.6114043 -0.69544363 -0.32722327
000020 b5 a1 0a bf 6c 8e 2a bf d8 2a d4 be 31 31 dc be
       -0.54152995 -0.6662357 -0.41438937 -0.4300628
000030 27 07 47 be 3d c5 ee bd 6d b6 28 bd 8b 6c 62 bf
       -0.19436322 -0.11658714 -0.0411896 -0.88446873
000040 a0 31 ce be 3a 10 7b be dc 07 ea be 46 0e 13 bf
       -0.40272236 -0.24517909 -0.4570912 -0.57443655
000050 f0 be 0f bf 57 02 33 bf 58 82 d3 bc a7 3a 63 bd
       -0.5615072 -0.69925445 -0.025818989 -0.055475857
000060 78 0b af be 38 8c 72 bf 7e 2f d4 be 29 29 b5 be
       -0.34188437 -0.94745207 -0.41442484 -0.35382965
000070 90 76 f5 bd 5e d8 24 bf dc 3b de be 02 5f c4 be
       -0.119855046 -0.6439265 -0.43405044 -0.38353735
000080 44 46 d2 be f5 a0 2d be 0f 9c 8c be 24 8a da 3d
       -0.41069233 -0.16955931 -0.27462813 0.106708795
000090 6c 85 c5 3d 9a dc 85 be 76 c4 11 bf 49 c4 1d be
       0.09644589 -0.26144868 -0.569404 -0.15406908
0000a0 45 6a 4e bf 87 e5 a7 bc 16 e3 88 3c 4c ad 89 be
       -0.80630904 -0.02049519 0.016709846 -0.26890028
0000b0 91 fb d7 be 9a e5 49 3e b3 95 24 bf ae c9 b8 be
       -0.42184117 0.19716492 -0.6429092 -0.3609137
0000c0 e2 6d e0 be a4 34 32 bf d1 cc 50 bf bc cc 30 bf
       -0.43833834 -0.69611573 -0.81562525 -0.690624
0000d0 cd 01 0d bf e7 c5 62 bf 18 a3 9d bd 77 8c 09 c0
       -0.5508087 -0.88583225 -0.07697123 -2.1491983
0000e0 f2 0b 00 bf a8 ed cc be 98 ee 54 bf cd a2 81 3e
       -0.5001823 -0.40025067 -0.83176565 0.2531952
0000f0 ab a7 b1 bf 14 1b 2b 3d ab ed a0 be 7b ca 16 c0
       -1.3879293 0.04177387 -0.31431326 -2.3561084

fcn_3.weight f4 [32, 64]
000000 b5 1b ee bb 23 08 81 3f 9f f8 9b 3f 5a 48 2c 3f
       -0.0072664865 1.0080608 1.2185248 0.672979
000010 37 b9 7b 3f 1b 8c 89 3f a1 86 4e 3f 75 01 9d 3f
       0.9832949 1.0745882 0.8067418 1.226607
000020 ab 0b 86 3f 20 88 8a 3f 98 87 92 3f 8b 31 02 3e
       1.0472311 1.0822792 1.144763 0.12714212
000030 0f ea 75 3f 60 c5 66 3f 68 9a 7d 3f 4a 6e a2 3f
       0.9606027 0.9014492 0.9906373 1.2689908
000040 32 8f 92 3f 42 bc 86 3f b6 60 8e 3f ee ed 63 3f
       1.144995 1.0526202 1.1123264 0.89034927
000050 a5 3b 8d 3f 23 76 63 3f 3d 6f 85 3f 0f 30 6c 3f
       1.1033827 0.8885214 1.0424572 0.9226083
000060 ca 5e 90 3f ec c5 9c be 2e ea 6a 3f 5c f9 93 3f
       1.1278927 -0.30619752 0.9176358 1.1560473
000070 55 a3 8c 3f 9d 29 78 3f ba 0a 87 3f d1 2e 8f 3f
       1.0987345 0.96938497 1.0550148 1.1186162
000080 5b e9 60 3f 5f 02 72 3f 77 a0 9f 3f ab 52 11 3f
       0.8785607 0.9453487 1.2470845 0.56766766
000090 e2 df 83 3f 93 94 2b 3f f9 ec 95 3f f7 42 80 3f
       1.0302699 0.6702358 1.1712943 1.0020436
0000a0 ea c4 2f 3f 44 fe 69 3f ba e7 57 3f b5 ee 71 3f
       0.6865984 0.91403604 0.8433796 0.94504863
0000b0 34 dc 87 3f 45 57 34 3f f9 9b 90 3f 9f 3f 25 3f
       1.0614076 0.7044566 1.1297599 0.64550203
0000c0 62 66 55 3f 43 34 96 3f 01 e4 59 3f aa 02 62 3f
       0.8335935 1.1734699 0.8511353 0.88285315
0000d0 d5 d0 93 3f 93 f2 9e 3f a0 e7 a7 3f fd a9 9e 3e
       1.1548105 1.2417778 1.3117561 0.30989066
0000e0 ec c4 e8 3e 8c 8c ba 3f 62 57 5f 3f 14 c9 4e 3d
       0.4546274 1.4574142 0.8724271 0.05048473
0000f0 29 c6 67 3f 53 4c 83 3f 08 7c 82 3f f1 41 2c 3f
       0.90536743 1.0257667 1.0194101 0.6728812
000100 82 7d da bc 44 86 b3 3f f9 dd 91 3f 05 b5 4d 3f
       -0.026671175 1.402535 1.1395866 0.8035434
000110 10 9e a8 3f af 3c c2 3f 2f a7 8c 3f 9d e1 b8 3f
       1.3173237 1.5174769 1.098852 1.4443852
000120 20 8d ab 3f e5 b4 c8 3f 2d 05 c7 3f 73 2e f8 3d
       1.3402443 1.5680205 1.5548455 0.121182345
000130 ee 98 b0 3f 71 ca 95 3f 38 b6 af 3f 84 d9 b1 3f
       1.379667 1.1702405 1.3727484 1.3894506
000140 2a 05 d7 3f b7 a2 90 3f cc ec ad 3f 4a be 8a 3f
       1.6798451 1.1299657 1.358789 1.0839322
000150 39 e7 93 3f ee c5 9b 3f d6 5b a8 3f 9d 9a a1 3f
       1.1554939 1.2169778 1.3153026 1.2625309
000160 85 40 c4 3f 4a 1c 9f be f6 11 bb 3f 47 90 af 3f
       1.533219 -0.3107627 1.4614856 1.3715905
000170 8e 96 bf 3f be 9e 6a 3f ef 0b b5 3f 19 96 d3 3f
       1.4967821 0.9164847 1.4144267 1.6530181
000180 cf 7e 93 3f 78 9e be 3f 0f ee ae 3f dc 16 48 3f
       1.1523074 1.4892111 1.36664 0.7815988
000190 4b 1e 9e 3f 84 20 9f 3f 7c 62 af 3f ea fc b1 3f
       1.2352995 1.2431798 1.370193 1.3905308
0001a0 b9 37 66 3f 9f 66 ab 3f 7d 14 98 3f fd aa 8f 3f
       0.89928776 1.3390692 1.1881253 1.1224056
0001b0 fc bf ab 3f 7d 5d 57 3f d1 b9 b8 3f 39 69 2d 3f
       1.3417964 0.84127027 1.4431707 0.6773868
0001c0 b6 c5 69 3f 44 f2 bb 3f 4d 2c 9c 3f 28 be 9e 3f
       0.9131731 1.4683309 1.220102 1.2401781
0001d0 48 5d b1 3f 60 f9 d3 3f 5c 60 a9 3f ef 89 14 3f
       1.3856592 1.6560478 1.3232532 0.5802297
0001e0 c7 4a 39 3f ef c9 d4 3f 60 8d 8e 3f 5f 99 e1 3c
       0.72379726 1.6624125 1.1136894 0.027538953
0001f0 7f bf 5e 3f 8a bf b1 3f e6 34 a1 3f 3c 55 2a 3f
       0.8701095 1.3886578 1.2594268 0.6653631
000200 f1 f5 20 3d 96 ec 53 bf 10 e8 27 bf 6f 59 13 bf
       0.039297048 -0.82782876 -0.65588474 -0.5755834
000210 34 ac 7d bf 6e 91 7f bf 3e 09 5d bf 14 81 4e bf
       -0.99090886 -0.99831283 -0.8634223 -0.8066571
000220 e9 41 5a bf c1 42 5c bf 6b 40 80 bf f9 52 6d be
       -0.8525682 -0.8603936 -1.0019659 -0.23176183
000230 b8 1d 1b bf f8 6c 38 bf d9 b3 56 bf 5c 73 92 bf
       -0.6059222 -0.72041273 -0.83868176 -1.1441455
000240 98 06 57 bf 7e fc 51 bf 03 ae 43 bf cc d1 2b bf
       -0.83994436 -0.820259 -0.76437396 -0.67117
000250 36 53 64 bf a4 6e 69 bf 4d d6 4a bf 11 63 35 bf
       -0.8918947 -0.9118445 -0.7923325 -0.7085429
000260 aa 71 50 bf 6b 9d 26 bd bf 0e 3f bf 0c 92 5a bf
       -0.8142344 -0.04067747 -0.74631876 -0.853791
000270 58 76 4d bf ae 2e 27 bf 3d df 5c bf d2 4d 7c bf
       -0.80258703 -0.653056 -0.86278135 -0.98556244
000280 d0 b7 3b bf 35 f0 3b bf ac 31 4e bf 37 bd 16 bf
       -0.7332735 -0.734134 -0.80544543 -0.5888247
000290 a3 39 43 bf 70 45 22 bf ad e2 91 bf 50 3a 4e bf
       -0.7625982 -0.63387203 -1.1397301 -0.8055773
0002a0 cf 46 2b bf 87 7b 4c bf dd 2e 31 bf 9c 8b 3d bf
       -0.6690492 -0.7987599 -0.6921213 -0.7404115
0002b0 2d 32 40 bf ab 57 27 bf 31 c9 46 bf d0 99 28 bf
       -0.7507656 -0.65368146 -0.77650744 -0.658597
0002c0 97 8d 2d bf 25 6e 5f bf 8d b0 53 bf 3d 2d 2c bf
       -0.67794174 -0.8727744 -0.8269127 -0.6725653
0002d0 b3 c8 46 bf 87 67 ac bf d5 d9 44 bf 99 1f d9 be
       -0.7764999 -1.3469094 -0.76894885 -0.4240692
0002e0 f4 fd 28 bf 1f dc 97 bf 23 29 72 bf 92 55 90 bd
       -0.660125 -1.1864051 -0.9459402 -0.07047571
0002f0 c1 09 18 bf d9 c8 33 bf 54 3f 26 bf bf 19 0e bf
       -0.59389883 -0.70228344 -0.6494038 -0.55508035
000300 af bd 01 bd f9 96 d7 3f 7c 1a bd 3f 80 2f 69 3f
       -0.031675037 1.6842948 1.4773707 0.91088104
000310 0d 7b df 3f e8 ca e2 3f d1 19 c1 3f 17 cd e3 3f
       1.7459427 1.7718172 1.5086004 1.7796963
000320 78 c8 c9 3f b5 b2 c7 3f fc ec f7 3f a4 ec 76 3e
       1.5764303 1.5601412 1.9369197 0.24113709
000330 e2 7a e7 3f 36 98 d2 3f 41 5c d2 3f 18 db e5 3f
       1.8084376 1.6452701 1.6434404 1.7957487
000340 55 7c e0 3f 68 7c c8 3f 07 40 e4 3f 86 70 b5 3f
       1.7537943 1.5662966 1.783204 1.4174964
000350 4c e9 cc 3f be 52 dc 3f 8a 31 d9 3f e6 a6 df 3f
       1.6008697 1.7212751 1.6968243 1.7472808
000360 66 32 ce 3f 9f 0e e3 be e1 a2 d8 3f f2 ff dc 3f
       1.610913 -0.44347093 1.6924707 1.7265608
000370 1c 8b c2 3f d9 9c b2 3f 53 14 d3 3f 37 64 cc 3f
       1.5198703 1.3954116 1.6490577 1.5968083
000380 8f 7c db 3f 5c ea c0 3f 17 de ea 3f eb 6b 5c 3f
       1.7147387 1.5071521 1.8349026 0.8610217
000390 5c 63 c4 3f b5 d3 c9 3f 4d fc f1 3f 51 36 e0 3f
       1.5342822 1.5767733 1.8905121 1.7516576
0003a0 aa 26 82 3f 83 b4 e1 3f ae e8 c4 3f 91 50 d0 3f
       1.0168049 1.7633213 1.5383508 1.6274587
0003b0 de 05 de 3f cd 4d 89 3f 44 f4 d7 3f 0b 20 77 3f
       1.734554 1.0726868 1.6871419 0.9653327
0003c0 d9 60 a7 3f 38 a1 da 3f d1 80 bf 3f ac 31 c6 3f
       1.307643 1.708045 1.4961187 1.5483909
0003d0 07 38 e2 3f b6 a3 01 40 00 24 ea 3f 89 a0 13 3f
       1.7673348 2.0256171 1.8292236 0.5766683
0003e0 56 75 20 3f 76 01 ec 3f 9f 24 8e 3f 51 7a 73 3d
       0.6267904 1.8437946 1.1104926 0.059442822
0003f0 46 e2 94 3f 70 d3 b7 3f 84 1a ce 3f bb 32 50 3f
       1.1631553 1.4361401 1.6101842 0.8132741

fcn_3.bias f4 [32]
000000 2e d8 ac bf f6 fb bd bf 6d f3 8f 3f 17 1b f5 bf
       -1.3503473 -1.4842517 1.1246163 -1.9148892
000010 e5 ee 80 bf e4 99 0a c0 29 8b b7 bf 17 7c 1b bf
       -1.0072905 -2.1656427 -1.4339343 -0.6073622
000020 08 26 f2 bf a2 1e 7a bf 2a b6 da bf 32 c0 87 c0
       -1.8917856 -0.9770299 -1.7086842 -4.2422113
000030 1d 20 87 bf ed 1b 92 c0 b7 15 53 bf 01 d2 63 bf
       -1.0556675 -4.565909 -0.8245501 -0.88992316
000040 cf bf c8 bf fb 96 16 bf ae b3 24 c0 e0 4e 96 c0
       -1.5683535 -0.5882413 -2.5734668 -4.6971283
000050 5c 90 f0 bf 20 8a 9d bf 22 7e ef c0 93 33 4d bf
       -1.8794055 -1.2307777 -7.484147 -0.8015682
000060 0b 70 62 c0 2a 73 ac c0 ad 35 1f bf e3 54 25 c0
       -3.5380886 -5.389058 -0.6219128 -2.583306
000070 a6 04 b0 c0 eb 07 7c bf 10 63 2b bf db f8 b3 be
       -5.5005674 -0.9844958 -0.6694803 -0.351508

fcn_4.weight f4 [16, 32]
000000 bb 7b 65 3d a4 df 74 3d 70 3b 73 bb 96 03 68 bd
       0.0560262 0.059783593 -0.0037114285 -0.056644045
000010 9f b1 5a 3d e4 4d 8b bd 71 63 82 bb 42 fc ed 3c
       0.05339205 -0.06801966 -0.0039791395 0.02905095
000020 d3 d7 6a bd e0 7d ae 3d 3c 08 5b bd 8f 66 82 bd
       -0.057334732 0.085201025 -0.05347465 -0.06367218
000030 a2 51 30 bd 16 94 39 3d 69 02 a2 bd 9c f7 74 bb
       -0.0430466 0.04530724 -0.07910616 -0.0037379032
000040 88 ba 14 be 16 00 22 3d e7 bc 60 be 79 e0 a3 be
       -0.14524281 0.039550863 -0.2194706 -0.32007197
000050 ed 5e 6d bd e1 22 1a 3e dc ce af 3d d9 23 cb 3d
       -0.057951856 0.15052368 0.08584377 0.09918947
000060 33 2b 0c be 4a 3e 56 bd 31 36 9b 3c 43 a1 10 be
       -0.13688354 -0.052305497 0.018946739 -0.14124016
000070 0b cf df bb 3c fd d1 3d 94 aa 14 be 73 c9 8f 3c
       -0.0068301014 0.10253379 -0.14518195 0.017552113
000080 8e 76 ba bd 9b 14 9c 3d f2 64 85 bb 1f c7 72 3d
       -0.09104644 0.07621118 -0.0040708715 0.059271928
000090 09 00 ab bc 21 92 73 bd 07 f8 56 bb b7 56 f2 bd
       -0.02087404 -0.05946553 -0.0032801644 -0.11832946
0000a0 3e 77 95 bd b9 08 75 3c e8 03 b0 bc c9 25 32 be
       -0.07298134 0.014955693 -0.021486238 -0.17397226
0000b0 b0 6f 79 bd de e5 6e bc 68 f4 04 3e 2e 36 31 bd
       -0.06089753 -0.014581172 0.12983859 -0.04326456
0000c0 2a 83 0c bd 4b f6 c0 bc 7a 81 1b be af 17 4a ba
       -0.034304775 -0.023554942 -0.1518611 -0.00077092176
0000d0 ef 74 9f bd f5 3e 03 3e 20 85 07 3d 30 89 f7 3d
       -0.07785975 0.12816985 0.033085942 0.12086713
0000e0 11 6a 35 bd f1 90 36 bc 13 d2 5c bc c4 45 40 3d
       -0.044290606 -0.011142955 -0.01347782 0.046941534
0000f0 98 4a 67 3d 0b 60 7d 3c bd d8 32 be e7 32 cb 3c
       0.056467623 0.015464793 -0.17465492 0.024804546
000100 06 8f 62 3e 88 5e 89 3e 50 41 cc bd b4 33 80 3e
       0.22124872 0.26829934 -0.09973395 0.25039446
000110 d3 e5 ed 3e 51 9d 1b 3e 9f a9 78 be 04 ad c6 3e
       0.46464404 0.1519673 -0.24283455 0.38803875
000120 dd 1f 18 3e 2b 01 47 3e f2 0b 73 3d 1f 88 ad bd
       0.14855905 0.1943404 0.059337564 -0.08473229
000130 ec ab 86 3e 4c 92 c2 3e 23 1b 07 3f b7 99 16 3d
       0.2630304 0.3800224 0.5277578 0.036767688
000140 7d d2 44 3c 09 a4 17 3e ad c7 b2 3c 9f d8 c7 3d
       0.012013075 0.14808668 0.021823728 0.09758114
000150 e9 18 90 3d 1d 6a 8e 3e b7 89 8e 3e 2c eb a5 3e
       0.07036001 0.27815333 0.27839443 0.32405984
000160 ff 32 d6 3d 13 4c cd 3e 81 ae 06 3e e4 2d 27 bc
       0.104589455 0.40097103 0.13152505 -0.010203812
000170 d8 30 50 3e 40 de d5 3e 39 14 d5 bd 71 11 7c 3e
       0.20331132 0.41771126 -0.10404248 0.24616028
000180 cd 51 52 bf cc 26 94 bf f8 4c 88 3d d4 36 93 bf
       -0.8215607 -1.157434 0.066553056 -1.1501107
000190 ac f5 52 bf 5f fa 2b bf 48 16 05 bd 2b 23 52 bf
       -0.82406116 -0.6717891 -0.032491952 -0.8208491
0001a0 97 a0 a8 bf ca b2 63 bf 38 27 5b bf 99 ae 9a bf
       -1.3174008 -0.88944685 -0.8560672 -1.2084533
0001b0 f1 e6 4f bf c3 b2 10 c0 82 a1 23 bf 78 c9 8b bf
       -0.81211764 -2.2609107 -0.63918316 -1.0920858
0001c0 71 a9 85 bf 25 90 46 bf a8 9e 8a bf 8b 91 aa bf
       -1.0442334 -0.775637 -1.0829668 -1.3325666
0001d0 d4 f7 8b bf 6a 10 77 bf 34 36 0e c0 67 43 87 bf
       -1.0935006 -0.9650942 -2.2220583 -1.0567445
0001e0 4b 20 d6 bf 7c 26 f5 bf 25 ec 47 bf 72 96 b2 bf
       -1.6728605 -1.915237 -0.780947 -1.3952162
0001f0 82 2a 10 c0 24 5b 43 bf 4d c9 5a bf 3d 3e 65 bf
       -2.2525945 -0.76310945 -0.8546341 -0.89548093
000200 ab 00 0a 3e ac 04 ce 3d 43 1d 4a bb f9 cc 5f be
       0.13476817 0.10059485 -0.0030840195 -0.21855535
000210 94 00 b6 3d 19 4b b1 3d e8 f4 51 bb 27 70 02 3e
       0.08886829 0.08656902 -0.0032036845 0.12738095
000220 cb 22 9b be 82 79 73 be dc ed 63 be 5e 08 8d 3e
       -0.30299982 -0.2377682 -0.22258705 0.27545446
000230 fa e2 a6 3e 5a 37 bd 3d 18 a4 2d bc 11 bd 46 3d
       0.32595044 0.09239073 -0.010598205 0.04852015
000240 34 b7 bd be 58 15 ba 3d 6f 7d eb be f5 97 58 bb
       -0.37053835 0.09086102 -0.45994136 -0.0033049558
000250 c4 bd b0 be c3 82 08 be 8f bc 44 bd 4f 4d 6d 3d
       -0.3451978 -0.13331132 -0.048031386 0.057935055
000260 17 77 33 bf 27 0d 2f 3f d9 e6 09 3e 64 64 83 3c
       -0.7010359 0.68379444 0.13466968 0.01603908
000270 5a a1 13 be bc 17 d3 3d ce f6 91 be 54 e0 9a 3d
       -0.1441702 0.10307261 -0.2850861 0.075623184
000280 fe 27 ca bd ea d8 36 bd ce 5e f6 bd ca f2 1b be
       -0.09870909 -0.04464046 -0.12029801 -0.15229335
000290 17 b8 76 bc ce ee 4c be a4 8f 8c bd 4b 6d 58 be
       -0.015058539 -0.20012972 -0.06863335 -0.21135442
0002a0 ee 1e 1c be 4e 31 8a bd 26 ce 87 bd dc bd 81 be
       -0.15246174 -0.067476854 -0.066311166 -0.25340164
0002b0 0d 8a 6b be 5c f4 d8 bc 54 d6 1e be 8b 59 fd bd
       -0.23001881 -0.026483707 -0.15511447 -0.123705946
0002c0 30 06 f9 bd fc fc 08 be 07 74 c8 be 14 24 36 be
       -0.12159383 -0.13377756 -0.39151022 -0.177872
0002d0 41 54 8c be bc 86 2a bd 13 cc 33 be 8f 03 11 bd
       -0.2740803 -0.0416324 -0.17558317 -0.035403784
0002e0 6f 01 6e be 55 74 a5 bc ea 00 5c bd 18 a2 79 be
       -0.23242734 -0.020197073 -0.05371181 -0.2437824
0002f0 1e 61 a8 bd 8f 10 8a bd 7f aa a7 be 8a 15 41 bd
       -0.08221649 -0.067414396 -0.32747266 -0.047139682
000300 4e 82 03 bf 2d b2 2c be 36 31 fb bb cc 89 e1 3d
       -0.51370704 -0.16864844 -0.0076657785 0.11012611
000310 5a 95 52 bf 8e 25 c5 be 31 1a 71 bf 45 7e d2 bf
       -0.8225914 -0.38505214 -0.9418059 -1.6444784
000320 37 51 8c 3e db 2b 1a bf f2 b6 5f be a1 fe f3 3f
       0.27405712 -0.6022317 -0.21847132 1.9062082
000330 78 d6 1e bf ec 99 a8 3f 61 aa af bf 5d 65 66 3e
       -0.62046003 1.3171973 -1.372387 0.22499605
000340 69 86 be be ea e0 95 be 2d 94 18 bf e5 de d9 3d
       -0.37211922 -0.29273158 -0.596011 0.10638217
000350 49 e5 10 3f 25 09 5d 3e 59 d7 a2 3f 05 8d 0b 3e
       0.5659986 0.2158552 1.2721969 0.13628013
000360 dd d2 d5 be d8 d9 19 40 63 2f 63 bf 35 c4 b5 be
       -0.41762438 2.4039211 -0.8874418 -0.35501257
000370 56 8c 62 3f 72 0e 53 bf bf e7 bc bf 60 f9 a8 bf
       0.88495386 -0.82443917 -1.4758223 -1.3201103
000380 3f d3 1f 3e 0e 5d 5a 3e 0a 5e b0 bd 75 1b 15 3d
       0.15607928 0.2132456 -0.086116865 0.03640314
000390 5c 3b 2b bd b7 13 66 3e e8 ac a5 bf 60 97 bf 3d
       -0.041804656 0.22468458 -1.2943392 0.09355044
0003a0 12 67 7c 3e db d2 3d be d2 30 32 3e 19 a8 4c 3f
       0.24648693 -0.18537466 0.17401436 0.79943997
0003b0 96 17 c5 be e6 15 c1 be 3d 5c de 3d fd 92 b5 3c
       -0.38494557 -0.3771202 0.10857437 0.022164816
0003c0 50 7d 87 3f 0c 48 6d be 7b 54 8a 3e 80 fd 0a bf
       1.0585117 -0.23172015 0.27017578 -0.5429306
0003d0 de b2 56 3f 8f cc d9 3e c1 ba 64 3d 10 04 48 be
       0.8386668 0.42538878 0.055842165 -0.195328
0003e0 6b d8 c8 bd 6a 1b 27 3d c9 d0 1b be 15 6d 01 3f
       -0.098069035 0.04079763 -0.15216364 0.5055707
0003f0 df eb 42 be b2 6f 52 bc fe 0e 91 3e 50 36 82 3e
       -0.1903529 -0.012844013 0.2833175 0.25432062

fcn_4.bias f4 [16]
000000 27 9f 02 bf 31 56 79 be 96 3a a9 bd c3 3e 03 40
       -0.510241 -0.24349286 -0.082631275 2.0507057
000010 f4 1a 53 bf 55 01 19 bd aa 30 27 c0 0c dc 28 3f
       -0.82463 -0.037354786 -2.6123452 0.65960765
000020 75 3b e7 3c f4 39 66 3f f4 3c da c0 ce 22 f5 bd
       0.028226594 0.8993218 -6.8199406 -0.11969529
000030 09 8f a2 bd d9 3a 2b be d6 e1 30 3f 15 ed 9c 3e
       -0.07937438 -0.16721667 0.690946 0.3064963

fcn_5.weight f4 [1, 16]
000000 a5 51 67 3b 7c fe 7d 3b 7f 38 4e 3e ec f0 76 3e
       0.0035296467 0.003875642 0.20138739 0.24115342
000010 64 64 2a 3b 08 6b 36 3c 6f 28 74 3b 29 c5 80 3e
       0.002599978 0.011133917 0.0037255546 0.2515042
000020 90 da b9 3a ed 12 fc 3a 9a f2 05 bd 99 c5 fb 3a
       0.0014179517 0.0019231715 -0.032702066 0.0019208669
000030 f7 9b 69 3b 5a ba 70 3b 66 c4 4b 3a ab f3 26 3d
       0.003564594 0.0036732168 0.0007773101 0.040759724

fcn_1.weight f4 [128, 140]
000000 b9 d3 ac 3f 4f 0f 73 be 20 fd 12 3f 8a df 0f 3e
       1.3502113 -0.23736309 0.5741749 0.14050117
000010 0c c4 fe be 20 a8 9f 3d f6 5d a7 bf 6a 58 64 3d
       -0.49758947 0.07795739 -1.307555 0.05574838
000020 a1 7e 57 be a9 68 cf 3c 54 b8 ab 3e 9f 85 54 3f
       -0.21044399 0.02531846 0.3353907 0.8301639
000030 d9 08 c9 be 7f 89 d7 3e 47 cc e6 be 06 d1 be 3e
       -0.39264563 0.4209709 -0.45077726 0.37268847
000040 a9 13 70 3f 3a a7 8b 3e 9c 12 e5 bd 41 bf 3a bf
       0.9378 0.2727602 -0.1118519 -0.7294808
000050 64 c6 58 bf c7 9d 9d 3e 82 80 e1 3c 99 23 88 bf
       -0.8467772 0.30784437 0.027527098 -1.0635864
000060 cc bc ba bf fe 85 57 3f 46 3a 79 bf 59 e3 08 be
       -1.4588866 0.8418883 -0.97354543 -0.13367976
000070 c2 9b 01 c0 4b 30 d5 3f 0a 58 99 be 44 b8 98 3e
       -2.0251317 1.6655363 -0.2994998 0.29828084
000080 9b ff 00 40 a8 20 ef 3f 5f 6f 95 3d 1d 76 2b be
       2.015601 1.8681841 0.07296633 -0.16744275
000090 88 3e 55 bf d7 9b 72 bf dc ac cb 3f 9e d1 e7 3e
       -0.8329854 -0.9476904 1.5912127 0.45277113
0000a0 54 3d d1 3e 8f eb 64 bd 48 a6 11 3f 54 85 b4 3e
       0.40867102 -0.05588871 0.5689435 0.3525797
0000b0 88 43 3b bf f8 dd 9e bf f6 89 1a 3f 19 7d aa be
       -0.7314992 -1.241149 0.6036676 -0.33298567
0000c0 da 29 4e be c4 d7 62 3f 7a 10 22 be de 8a 1d bf
       -0.20133153 0.8861048 -0.15826598 -0.6154002
0000d0 62 db 07 3e 7b e2 25 3f 64 e2 cb 3f 58 97 30 be
       0.13267282 0.64798707 1.5928464 -0.17245233
0000e0 d0 0c 18 3f 00 e5 8c 3f 9b ee 3e 3c 16 21 41 3f
       0.5939455 1.1007385 0.011653568 0.7544111
0000f0 95 43 c9 3e 3e e1 d5 bf 85 99 32 3f fa 0f a4 bf
       0.39309373 -1.6709363 0.697655 -1.2817376
000100 f4 3d be 3e f1 a9 a0 3e 83 a4 c0 bd f6 34 d8 3d
       0.3715664 0.31379655 -0.09406378 0.105569765
000110 b7 41 f7 bd 70 69 bb 3d f9 ba 45 be 6c 28 55 3f
       -0.12073081 0.0915097 -0.19309606 0.83264804
000120 b3 5b 5a bd 3c 96 03 40 96 ca b5 3e b5 28 e5 be
       -0.053310107 2.0560446 0.35506123 -0.4475762
000130 98 14 3d bf d3 f6 54 3f 51 70 a6 be e9 da da 3e
       -0.7385955 0.83189124 -0.32507566 0.4274514
000140 6f 67 e6 bf ee 5a 3a bd 41 af e0 be 0b 26 81 bf
       -1.8000315 -0.045496874 -0.43883708 -1.0089735
000150 fc 24 a4 bf 8f 3f 0f be ca 92 44 3c 66 65 eb bd
       -1.2823787 -0.1398909 0.011997888 -0.114939496
000160 4e 99 9e 3f 50 63 d0 be 00 6b 56 bf 6a e0 d2 3e
       1.2390535 -0.4070077 -0.8375702 0.4118684
000170 bb 1b 6d bf 26 b5 92 bf 65 9d 24 be 83 de 3e 3f
       -0.9262044 -1.1461532 -0.16075666 0.74558276
000180 57 f1 2b bf 0e 9e ba bf 2f e9 b3 3d bf bd 2d bf
       -0.6716513 -1.4579484 0.087847106 -0.67867655
000190 18 02 ed 3d 53 22 52 3f ff ff 02 3f 58 79 c7 be
       0.11572665 0.82083625 0.5117187 -0.38959765
0001a0 a5 54 97 3e f8 77 ef be 42 7b 9e bf 1e ba ad bf
       0.29556766 -0.46771216 -1.2381365 -1.3572423
0001b0 10 4b 09 3f c5 b3 f1 be fb 7f 84 bf 2b be 49 be
       0.5363016 -0.47207466 -1.0351557 -0.1970145
0001c0 db 87 db 3e f1 70 bc bd 40 9f e3 3f 78 8f 3e be
       0.42877087 -0.09201229 1.7782974 -0.18609416
0001d0 a1 86 2d bf a3 91 cc bf 42 af 70 bf 08 f3 2f 3f
       -0.6778355 -1.5981945 -0.9401742 0.6873021
0001e0 3a 1e 7b bf e6 78 36 bf 76 bf ea be 08 e1 96 bf
       -0.98093 -0.71278226 -0.45849198 -1.1787424
0001f0 2b 16 37 bf a6 54 91 bf 10 ca 83 3d b8 84 06 bd
       -0.715182 -1.1353958 0.06435025 -0.032841414
000200 48 81 cf bb da 0b 8d be 4b cd 03 bc 97 61 09 3f
       -0.00633255 -0.27548105 -0.008044551 0.53664535
000210 1f d3 8d be 95 7c 85 bf f2 85 2e be 2d 75 7f 3f
       -0.27700135 -1.0428644 -0.17043284 0.9978817
000220 58 b9 8c bd 78 94 30 3f 81 01 b9 bc 74 8c 1d bf
       -0.06871289 0.68976545 -0.022583725 -0.6154244
000230 b5 40 67 be fe 31 f4 be 48 6f cf bf a6 f3 3b 3f
       -0.22583278 -0.4769439 -1.6205835 0.73418653
000240 63 2a 91 3d f7 df 0e 3e b4 8d 88 3f bd 05 2a 3f
       0.07088163 0.13952623 1.0668244 0.66415006
000250 b0 db 10 be df 98 5d 3c 25 83 20 be de 39 89 3d
       -0.14146304 0.013525217 -0.15675028 0.067004904
000260 4f 00 33 bf 74 ec 5f bf 10 13 9b bf b7 cc 56 bf
       -0.69922346 -0.87470174 -1.2115192 -0.8390612
000270 79 23 2b bf 2a df ed bd ae 6f 9e bd cc 1f d9 bd
       -0.66851 -0.11614831 -0.07736145 -0.10601768
000280 f0 3b 66 3f 1e a0 55 bc 13 b1 c6 be 7d 3a 2e 3e
       0.8993521 -0.013038663 -0.38806972 0.17014499
000290 da 64 e7 bf f8 56 d0 bf a2 bd ad 3f 86 fd cc bd
       -1.8077652 -1.6276541 1.3573496 -0.10009293
0002a0 ad d1 19 3e ed 1d 01 bf 63 9c 10 bf 55 04 f4 be
       0.15021391 -0.5043629 -0.5648863 -0.47659555
0002b0 84 dc c7 3f ae c5 31 bf 1c 3c ad 3d 36 e8 23 bf
       1.5614171 -0.6944226 0.084587306 -0.640262
0002c0 67 94 2f c0 e8 13 60 be 9c 1a 4a 3e 7c bd 95 3e
       -2.7434328 -0.21882594 0.19736713 0.29246128
0002d0 8d 46 36 3f 93 04 c7 bd a5 f4 e3 3e 4b 6c ef bf
       0.712014 -0.09717669 0.44522586 -1.8704923
0002e0 b5 cb 14 c0 14 65 9f 3f a2 c6 71 bf 96 4c 93 bd
       -2.3249333 1.2452722 -0.94443715 -0.07192342
0002f0 4a fc a2 be 01 dc 21 bf 77 f8 44 bf 8e ea 06 c0
       -0.31833106 -0.63226324 -0.7694163 -2.108066
000300 1d 72 66 bd 2d 6a 0d bf b5 ed 6a be 2a 3f 07 be
       -0.05626117 -0.55240136 -0.2294224 -0.13207689
000310 b4 27 07 c0 25 53 a0 3e e8 41 d8 3d 05 bc 07 bf
       -2.1117983 0.31313434 0.105594456 -0.5302127
000320 9d e8 13 c0 f5 f5 2e bf 00 68 82 3f 80 34 eb be
       -2.3110726 -0.6834405 1.0187988 -0.45938492
000330 08 ba 61 3d ea 1a eb bc 25 6b 95 bb ae 7a 69 bf
       0.055109054 -0.028699357 -0.0045598918 -0.9120282
000340 9f fc 18 3d dd a5 72 bf ad 9e d4 bf 91 b5 2d 3e
       0.037350293 -0.9478434 -1.6610924 0.16963793
000350 bf 77 44 bd 99 ca 3a bd 6b 6f 48 bf eb 35 78 be
       -0.04796576 -0.04560337 -0.7829501 -0.24239318
000360 02 ff ea be 3c 40 8d be 49 5a 52 bf 2c 74 80 3f
       -0.4589768 -0.2758807 -0.82169014 1.0035453
000370 0b 17 3e 3f 0e 8c e3 3d 11 48 cf bf db 60 69 3b
       0.7425391 0.11110698 -1.6193868 0.003561071
000380 b3 8c 62 3f d6 4a 75 be 0b 0a 82 bf 89 25 eb 3e
       0.8849594 -0.23954329 -1.0159315 0.45927075
000390 a7 a2 4e bf f4 83 99 bd 27 d2 50 3d 76 28 49 bf
       -0.8071694 -0.07495871 0.050981667 -0.78577363
0003a0 97 2c 94 3f dc 85 e7 3d 30 3b c8 be d9 ec 65 3e
       1.1576108 0.113048285 -0.39107656 0.22453631
0003b0 26 1e c0 3f dd 9c a1 bf b3 d6 e3 3e cf 8c 7a 3f
       1.50092 -1.2625996 0.4449974 0.97871107
0003c0 9a 37 ba 3f b3 de cb 3f e6 27 d4 be 0b d4 93 3e
       1.4548218 1.5927337 -0.4143669 0.28872713
0003d0 af e9 fc 3e 7a 1c be 3a 6e d0 3b be a2 29 34 3f
       0.49397036 0.0014504336 -0.18341228 0.70376027
0003e0 cb dc 02 3e 2c ec f4 3e 4d c4 7a bf fc a6 02 c0
       0.12779538 0.47836435 -0.9795578 -2.041442
0003f0 57 d8 53 be 78 de a0 3f 89 61 18 bf 67 44 32 3f
       -0.20687996 1.2567892 -0.59523827 0.69635624

fcn_1.bias f4 [128]
000000 67 bd ab 3e 37 27 f3 3d 63 f7 f9 3d fc 33 86 bf
       0.3354294 0.11872714 0.122053884 -1.0484614
000010 cb 2c 56 38 99 c7 8c be 16 11 b9 3f 45 d9 e6 be
       5.1063293e-05 -0.2749603 1.4458339 -0.45087638
000020 42 72 96 bf fe 7b 0c 3e 37 4e ba 3d c7 3f 40 3d
       -1.1753619 0.13719174 0.090969495 0.046935823
000030 73 1a 81 be d4 34 49 bf 50 76 85 be 77 53 5b 3f
       -0.25215492 -0.78596234 -0.26066828 0.8567423
000040 42 bd 47 3e 01 d5 aa 3f 95 bf 76 bf 78 b6 74 bf
       0.1950579 1.3346254 -0.9638608 -0.95590925
000050 fc 15 9a 3d 0a e1 a4 bd ba 28 7e be 04 df 8e 3f
       0.075237244 -0.08050735 -0.24820223 1.1161809
000060 6e 22 bb bf e8 4e 1b bf 6e 2f c0 bf f1 52 a8 be
       -1.4619882 -0.60667276 -1.5014474 -0.3287578
000070 27 7f 1d c0 78 c8 59 be ec 3f f4 be 92 43 0a bf
       -2.4608858 -0.21267879 -0.4770502 -0.54009354
000080 23 4c a9 bf 59 30 d4 bf 61 03 84 bf 33 b6 42 3d
       -1.322636 -1.6577255 -1.0313531 0.04753704
000090 af a5 57 bf 7f 3c 90 bc de 18 6b 3f 97 ff c8 bd
       -0.8423719 -0.017606972 0.9183482 -0.09814375
0000a0 67 c5 9d be c1 65 37 3e 16 4e 7c 3e c2 b4 9e 3e
       -0.3081467 0.1790991 0.24639162 0.30997282
0000b0 b6 d1 1f 3f 00 18 73 3f d1 02 05 3c 07 c6 91 bd
       0.6242937 0.94958496 0.008118347 -0.07117849
0000c0 95 32 75 bf 19 cb 4a 3f 9a ae 72 be b2 76 6d bf
       -0.9578031 0.7921615 -0.23699418 -0.9275924
0000d0 7e 43 7d bf dc 74 50 be 0e 92 ee 3d 48 1f d7 be
       -0.9893111 -0.20357078 0.116489515 -0.42016053
0000e0 3e ba af 3f 0a 32 e3 bf 68 b0 0f bf dd 29 e5 3e
       1.3728712 -1.7749646 -0.5612855 0.44758502
0000f0 37 09 37 40 5e d0 03 3f c5 2d 06 bf 48 7e 1d bd
       2.8599374 0.5148982 -0.5241359 -0.03845051
000100 a7 36 45 bf 03 03 5a bd 1c 09 7d be 57 ed a7 3d
       -0.7703652 -0.05322553 -0.24710506 0.08199566
000110 f6 f1 21 3e d5 01 76 bf dd 06 32 bf 0f 6f 09 bf
       0.15814957 -0.96096545 -0.6954172 -0.53685087
000120 8e 95 01 bf 89 49 3e bf d1 65 87 bf 3a be ac bc
       -0.5061883 -0.74330956 -1.0577947 -0.0210868
000130 d5 c1 db 3e f2 85 b7 be 0c 4e 04 bf 4c 61 13 bf
       0.4292132 -0.3584438 -0.5168159 -0.5757034
000140 be 2b f9 be 64 10 03 bf cb 58 73 bf b2 0a 1e bf
       -0.48666185 -0.51196885 -0.9505736 -0.6173507
000150 2a 3f 07 be 8f a4 05 c0 3c 2a a2 be cf 2b 80 bf
       -0.13207689 -2.0881689 -0.31672847 -1.0013369
000160 f7 da 9d 3e ea 78 86 3d 75 1a 08 3e 07 fa 1f 3e
       0.3083112 0.06566031 0.13291343 0.15622722
000170 60 96 d0 be f3 ea 52 bf fe 46 8a 3e 27 4d 8b be
       -0.40739727 -0.82389754 0.27007288 -0.272073
000180 c1 6c 87 3e 67 e8 3f bf 90 fd e6 bd 14 78 9d 3e
       0.2645016 -0.7496399 -0.11278832 0.30755675
000190 03 f2 95 bd 12 92 cf be 73 ff 50 bf 02 e3 23 bf
       -0.07321551 -0.4054113 -0.81639785 -0.6401826
0001a0 25 e7 2a 3e f9 15 c8 bf 85 ef be bf 0f 95 13 bf
       0.16689737 -1.5631706 -1.4916846 -0.5764932
0001b0 e3 a2 c6 be c7 51 ac bd 0c 8f 27 bf ce 7f b0 be
       -0.38796148 -0.08414035 -0.6545265 -0.34472507
0001c0 73 9c 8f bd b4 56 86 be 8b b6 ea be d1 f7 e8 be
       -0.07012262 -0.26238024 -0.45842394 -0.4550157
0001d0 2f ee 95 bf 7b 03 ed 3d 69 18 90 3d 12 a1 01 c0
       -1.1713313 0.115729295 0.07035906 -2.025456
0001e0 de fd 00 bf c8 99 f8 bd 99 81 34 bf d3 0e 7b 3f
       -0.5038737 -0.121387064 -0.7051025 0.98069495
0001f0 ea 65 fe be 1a 6c 8e bd 7d cf 28 be 61 e0 17 bf
       -0.4968713 -0.069542125 -0.164854 -0.5932675
