episode92952.pt (torch, 867151 bytes, 77 tensors)

fcn_1.weight f4 [128, 140]
-1.3563665 0.10924017 -0.30269063 0.9326995 0.12705977 0.45683348 0.73716754 -0.16427948
-1.0861601 -1.5977031 0.91118586 0.30528447 -1.2576226 -1.3601198 1.5115691 -0.5597074
-0.19969478 -1.9755919 -1.4762871 -0.4289206 0.8368317 0.49305737 -0.9315256 0.42667735
-0.83066654 -0.19463292 -0.039593168 -1.5426779 -0.29561707 1.3150259 0.9041208 0.24430616
-0.32395804 -0.5409544 -0.6566685 -0.018548999 0.37720215 -0.024122167 -0.05050553 1.2547941
1.5213379 0.42095852 0.38454902 0.3336551 -0.30210766 0.39093783 1.0593983 0.5448872
-0.38415354 -1.141987 -0.6279938 -1.0390311 -0.053004827 -0.93862444 -0.23834719 -2.725268
2.020447 2.2611613 -1.0857477 1.1772848 -1.1706003 1.2411143 1.442383 -0.404481
-0.4257193 0.94174284 -1.4562688 0.056163494 -0.7612198 -0.5166763 -0.24453028 1.6742389
0.10401047 -0.4417303 1.1030763 0.73768264 1.3938371 -0.57005286 0.35368767 0.34652415
0.29786682 -0.46183038 0.9852302 -0.040499594 -1.2528489 -1.0458084 0.7430889 -0.90916777
0.9399279 -1.1616268 -0.2382636 -2.0432022 -0.22712883 -1.2034459 -0.802114 -0.32362702
2.377902 -0.3063205 0.6424244 0.2977231 -0.109973826 0.36474806 -0.60481054 0.0685842
-0.635376 -0.08705818 -1.1629407 -1.1682819 0.08292216 -0.5930211 1.2455242 -0.692027
0.039837558 1.5102304 1.2088523 -0.56358224 0.53390855 -0.12540972 -0.680067 -1.3478758
-0.46923235 -0.60619015 -0.7055331 2.1960783 -2.1595526 -0.6561708 -0.4311238 0.335404
-0.19079402 -0.25304794 -1.0717782 -0.5616773 0.416801 0.05442989 0.1290796 -0.9652371
-0.41328403 -0.25191075 -0.009146536 0.054604422 -0.5198407 -1.0191411 -0.66243345 -3.5251644
0.72555935 -1.126984 -0.5754546 0.5106317 -0.1392806 -0.52459925 0.85026765 -1.5333669
-2.9409502 -1.1497577 0.0905611 -0.03225657 -2.0797992 0.3975937 0.7088634 -1.0719564
0.27830645 1.648024 -0.6188761 0.49569923 -1.7568225 0.06800528 -1.7244022 -1.9352638
-2.733743 -0.2594982 -0.24857937 1.2969679 -1.1039119 0.64453226 2.100728 1.3818185
-0.9109747 -1.3350457 0.9018852 1.9411535 -0.22010505 2.0840116 0.13897428 0.67055464
-0.11378981 -0.46007046 -2.161667 -2.0026164 -2.0366452 0.398325 1.1576905 -2.4370189
-0.46689555 0.2084113 -0.34191486 -0.85132456 -6.0364995 -3.4550915 1.1187057 -0.363344
-2.1474636 0.011259791 -2.173635 -0.43172106 -0.5200909 -0.92916715 0.056456156 -0.6814446
0.41327918 -1.3461366 2.1664796 -3.2161899 1.2041903 0.6729197 -3.4043362 -3.5030267
0.47997856 2.0146267 0.03271716 -2.5250077 1.249479 -1.7064866 0.41115364 -0.996874
0.5032199 -0.059905387 0.62910277 -0.11500735 -0.90449256 2.2959728 -2.179466 0.6396781
-1.4741117 -0.0894381 2.5782304 1.9336343 1.0723702 1.5586451 -1.6634653 1.6257309
-1.8182013 2.368642 0.6972275 0.43127015 0.8793706 2.237721 0.45505136 0.6947385
-0.1854019 0.9964305 -0.4518971 1.1681235 -0.088797815 0.3217462 -0.58485645 -0.43887895
00000000: 6b9d adbf 4fb9 df3d 44fa 9abe 65c5 6e3f
00000010: f51b 023e 14e6 e93e 03b7 3c3f e138 28be
00000020: 4b07 8bbf 8981 ccbf 7a43 693f 3f4e 9c3e
00000030: c7f9 a0bf 6818 aebf 197b c13f fc48 0fbf
00000040: ca7c 4cbe 32e0 fcbf faf6 bcbf 7b9b dbbe
00000050: 9a3a 563f 0472 fc3e 7678 6ebf 7475 da3e
00000060: 90a6 54bf da4d 47be 722c 22bd 7876 c5bf
00000070: 1f5b 97be c552 a83f 7674 673f 652b 7a3e
00000080: d4dd a5be fd7b 0abf 6d1b 28bf 12f4 97bc
00000090: a420 c13e da9b c5bc e3de 4ebd 189d a03f
000000a0: 33bb c23f e087 d73e 9ce3 c43e d7d4 aa3e
000000b0: dbad 9abe 0129 c83e 5d9a 873f ba7d 0b3f
000000c0: c6af c4be a12c 92bf 34c4 20bf f9fe 84bf
000000d0: 971b 59bd b149 70bf 4911 74be ca6a 2ec0
000000e0: 014f 0140 deb6 1040 c8f9 8abf 45b1 963f
000000f0: 3bd6 95bf d5dc 9e3f 02a0 b83f 2218 cfbe
00000100: e1f7 d9be 0f16 713f 0467 babf b10b 663d
00000110: 4ddf 42bf e644 04bf 2566 7abe 764d d63f
00000120: 7103 d53d 792a e2be 9b31 8d3f c5d8 3c3f
00000130: 4169 b23f fcee 11bf 8d16 b53e 9d6b b13e
00000140: 0082 983e 0875 ecbe 0c38 7c3f e7e2 25bd
00000150: 5a5d a0bf 0ddd 85bf 133b 3e3f 38bf 68bf
00000160: 1d9f 703f 30b0 94bf 60fb 73be d3c3 02c0
00000170: 7694 68be 840a 9abf 5857 4dbf 71b2 a5be
00000180: 8c2f 1840 0ad6 9cbe ed75 243f 2a6f 983e
00000190: f539 e1bd 42c0 ba3e ddd4 1abf e075 8c3d
000001a0: 00a8 22bf 8f4b b2bd 3edb 94bf 438a 95bf
000001b0: 18d3 a93d 3bd0 17bf 566d 9f3f ae28 31bf
000001c0: b52c 233d 3b4f c13f acbb 9a3f ed46 10bf
000001d0: 3bae 083f 686b 00be df18 2ebf 3287 acbf
000001e0: 393f f0be 472f 1bbf d19d 34bf 8c8c 0c40
000001f0: 1c36 0ac0 cffa 27bf 42bc dcbe 13ba ab3e
00000200: 825f 43be 808f 81be 0730 89bf 15ca 0fbf
00000210: f166 d53e e0f1 5e3d 712d 043e c719 77bf
00000220: f799 d3be 72fa 80be 5adb 15bc e3a8 5f3d
00000230: 4814 05bf 3773 82bf 3d95 29bf 4b9c 61c0
00000240: 42be 393f 0341 90bf fe50 13bf c2b8 023f
00000250: 939f 0ebe 234c 06bf 24ab 593f 5e45 c4bf
00000260: 8738 3cc0 432b 93bf 1978 b93d 771f 04bd
00000270: 6e1b 05c0 6791 cb3e 1278 353f de35 89bf
00000280: 2f7e 8e3e 73f2 d23f aa6e 1ebf 4acc fd3e
00000290: 8fdf e0bf 5a46 8b3d 36b9 dcbf b9b6 f7bf
000002a0: a5f5 2ec0 f3dc 84be 978b 7ebe 0b03 a63f
000002b0: fc4c 8dbf 1100 253f 5472 0640 6edf b03f
000002c0: a335 69bf c7e2 aabf f3e1 663f b877 f83f
000002d0: 3863 61be 7260 0540 464f 0e3e 78a9 2b3f
000002e0: a20a e9bd 5b8e ebbe c158 0ac0 de2a 00c0
000002f0: 6558 02c0 41f1 cb3e 342f 943f 1ef8 1bc0
00000300: ef0c efbe c669 553e 770f afbe 68f0 59bf
00000310: 012b c1c0 3820 5dc0 c031 8f3f 3a08 babe
00000320: 0b70 09c0 fd7a 383c d61c 0bc0 8b0a ddbe
00000330: ad24 05bf e6dd 6dbf 923e 673d 2773 2ebf
00000340: 5499 d33e 344e acbf 9aa7 0a40 0ed6 4dc0
00000350: e822 9a3f 7744 2c3f a5e0 59c0 9731 60c0
00000360: c0bf f53e a5ef 0040 6e02 063d ba99 21c0
00000370: eeee 9f3f 276e dabf bb82 d23e 2233 7fbf
00000380: 05d3 003f 5a5f 75bd e10c 213f f988 ebbd
00000390: d38c 67bf 38f1 1240 5f7c 0bc0 f2c1 233f
000003a0: b1af bcbf 532b b7bd ba01 2540 5481 f73f
000003b0: 6d43 893f af81 c73f 6eec d4bf f317 d03f
000003c0: d2ba e8bf d597 1740 807d 323f 71cf dc3e
000003d0: 6f1e 613f d236 0f40 7efc e83e 62da 313f
000003e0: ffd9 3dbe 1216 7f3f 0f5f e7be 1285 953f
000003f0: a1db b5bd ebbb a43e 27b9 15bf beb4 e0be

fcn_1.bias f4 [128]
-1.3134094 -0.42810446 -4.031484 -0.41137463 1.152814 0.5980275 -0.3611837 -0.34488696
-0.33713502 -2.4775674 -1.0939773 -0.36862487 -1.3853576 -1.9331542 -3.1184447 -2.0149488
-0.23276287 2.4040701 -0.10836919 1.1394597 1.2200432 -4.3843403 0.5765374 -0.2513854
-0.2723092 -0.8220031 -2.125855 0.8981828 0.18386118 -1.5823835 -0.16989984 0.4169471
-1.0474266 -0.90366334 -1.9161336 -1.0592179 -0.31254208 0.22220689 4.026641 0.8122416
-0.9491778 1.101661 1.4839953 -0.49180758 -0.29544428 1.117874 0.696844 0.37368944
-0.0748908 -0.6729942 -0.17766987 -2.8597715 1.1543713 -3.167968 0.043707415 -0.042784523
3.081476 0.2584621 0.6223467 -0.041340593 -0.50336504 -0.034856997 -0.26153407 -0.5667407
-0.775833 1.2616912 0.710276 0.8775437 2.294641 -0.77191615 -0.23940578 0.060620595
-0.08810426 0.037043214 -2.8510644 -1.186013 0.27944398 0.5600487 -0.49357057 1.074496
1.1183255 -0.5989555 0.11812594 -0.38579097 -0.8449983 -1.0105476 -2.3199635 -0.7177817
-0.57894474 0.88970256 -0.46355286 -2.2714431 0.607257 -0.6980894 0.6926025 -0.11685239
-0.3532499 -2.8674421 -2.4067032 0.6775595 0.57875353 -0.74299985 0.10677102 -0.20580785
-0.7760348 0.28531227 -0.48627758 -0.13464765 0.40663558 1.9137425 -0.03692612 1.0752027
0.47038656 -0.6166511 0.008259463 -1.8393135 1.419982 0.52698374 -0.51782954 -1.5149871
-1.0000798 -1.3227409 0.7539789 -1.0434406 0.6622078 -0.21945453 -0.31449115 0.36365277
00000000: cd1d a8bf 8230 dbbe eb01 81c0 b29f d2be
00000010: 698f 933f 5518 193f 12ed b8be 0695 b0be
00000020: f69c acbe 7790 1ec0 7307 8cbf 66bc bcbe
00000030: 6653 b1bf 9971 f7bf 9994 47c0 ecf4 00c0
00000040: 6459 6ebe 49dc 1940 aaf0 ddbd d1d9 913f
00000050: 602a 9c3f 844c 8cc0 f497 133f 96b5 80be
00000060: 1d6c 8bbe cc6e 52bf 020e 08c0 4fef 653f
00000070: 1b46 3c3e 8b8b cabf 39fa 2dbe 177a d53e
00000080: 1312 86bf 7b56 67bf de43 f5bf 7494 87bf
00000090: 8405 a0be 348a 633e 3eda 8040 11ef 4f3f
000000a0: 51fd 72bf 3a03 8d3f 8ff3 bd3f 34ce fbbe
000000b0: 7944 97be 7f16 8f3f 5e64 323f 3954 bf3e
000000c0: 5960 99bd 5949 2cbf 17ef 35be 7f06 37c0
000000d0: 70c2 933f fdbf 4ac0 8c06 333d d33e 2fbd
000000e0: e736 4540 2555 843e 1d52 1f3f c154 29bd
000000f0: 88dc 00bf 36c6 0ebd cbe7 85be eb15 11bf
00000100: fe9c 46bf 197f a13f a6d4 353f b4a6 603f
00000110: 66db 1240 4c9c 45bf ca26 75be 4d4d 783d
00000120: 0270 b4bd a0ba 173d d777 36c0 46cf 97bf
00000130: 4813 8f3e 5a5f 0f3f 48b5 fcbe 1689 893f
00000140: 4a25 8f3f 2655 19bf 03ec f13d 6586 c5be
00000150: cf51 58bf a059 81bf 487a 14c0 8bc0 37bf
00000160: b935 14bf 8cc3 633f cd56 edbe 535f 11c0
00000170: 3275 1b3f fdb5 32bf 664e 313f 4e50 efbd
00000180: 2cdd b4be 2c84 37c0 6d07 1ac0 8a74 2d3f
00000190: 3129 143f 3d35 3ebf c4aa da3d 4bbf 52be
000001a0: 37aa 46bf 7314 923e 60f9 f8be 13e1 09be
000001b0: 8a32 d03e 84f5 f43f d83f 17bd 3ea0 893f
000001c0: 82d6 f03e d9dc 1dbf b352 073c a06e ebbf
000001d0: f8c1 b53f 68e8 063f 7a90 04bf 19eb c1bf
000001e0: 9d02 80bf 934f a9bf c304 413f 768f 85bf
000001f0: 7386 293f b0b8 60be fc04 a1be b230 ba3e

fcn_2.weight f4 [64, 128]
-1.5361333 -0.17645025 -0.6648278 4.0624123 -1.0136199 -2.108857 0.52523917 0.76167315
-2.5369587 -1.2202599 -3.125103 0.9278033 -3.7708342 1.0167494 0.7855895 1.0769712
-0.64964503 0.22095026 -3.1390011 -1.84011 -0.6415017 -0.8431398 -1.0407231 -1.9070609
-2.4981759 -0.8219144 1.1284629 -2.6927948 -2.1678295 0.44743872 -2.0873256 1.2451876
-2.1889675 0.99806327 0.018369915 2.7279894 -0.4497809 -2.2109284 0.4760748 -2.7779424
-2.34172 -1.5710206 0.3486336 -0.65828675 -1.6875472 -0.7406862 1.2703496 -1.4612349
1.0800091 -1.7260313 -1.6042848 -0.6238689 0.99452317 -1.0023547 -2.3543131 -2.1097465
-0.1401981 2.2580285 -1.8541439 0.029222593 -2.3687994 -1.5160717 -1.3720273 2.08345
1.0373021 3.4807336 1.3126307 2.1731544 -1.1636785 -1.3970275 0.23046726 1.4180809
-2.2983196 -2.031793 0.82291293 0.86312973 -0.5008458 -2.039125 -0.8122208 -2.6124642
1.2147945 2.795389 -3.0489213 -1.4471276 0.85470295 0.07528399 -0.2723415 -2.264895
-1.4786857 -0.68435663 1.7155582 -0.6226564 0.7479925 2.5327182 1.1160074 -2.4824
-2.30026 -0.9262 -0.31905854 -2.5874045 -0.51651555 1.5421778 0.37865135 1.1548063
0.5328265 -1.3790747 0.96482575 0.6147128 1.2225437 0.4370216 -1.3619823 0.91031736
1.1683217 -2.1513345 -4.426552 0.7813661 0.44424254 1.3919933 -0.9780353 0.077907324
-0.8046918 -2.5605888 -2.4572225 -0.72466516 0.03261016 0.68658376 1.5012332 -3.570066
0.5490423 0.61801165 -0.076796725 0.11554267 0.239531 0.9338015 0.085657924 0.22308643
0.9724009 -0.09183881 0.23520283 0.08890374 0.7702207 0.5893468 -0.029594624 0.498647
-0.02994645 -0.67213696 0.3647602 -0.0076315072 0.05534519 0.259776 0.31130823 0.5515477
0.68960494 0.5211584 0.076752044 0.7797311 0.93952423 -0.12858573 0.3619194 0.30747518
0.937466 0.38992703 -0.16388741 0.18466732 0.09056467 0.06304039 -0.19772403 0.87205863
0.68072426 0.3617452 0.31288216 -0.9072726 0.88497436 0.5904874 -0.16613035 0.52945113
0.3318709 0.1893837 0.5995509 0.5331284 0.42389405 0.5163357 0.28206763 0.17944823
-1.1086283 -0.024622334 0.62126243 0.07772671 0.20267232 0.5030923 -0.4102417 0.55841553
0.45346928 0.17315064 0.4771501 0.755372 0.8337792 0.5918014 0.4974233 0.42112237
0.6469934 0.61035955 0.5674243 0.30139306 0.26582623 0.23569651 0.5831086 0.83682126
0.07143316 0.79484075 0.62922204 0.9182074 0.45598498 0.16103902 -0.6920078 1.1238332
0.62017715 0.45823213 0.30695346 0.21870495 0.35524255 0.32015288 0.48835182 0.43925336
1.2210528 0.19734618 0.36343428 0.49334303 0.64012367 0.13506348 0.23872317 1.1570387
-0.44800153 0.19379231 0.11519449 0.17703305 0.5497963 -0.112647936 0.9319322 0.11610805
0.29018575 1.1193808 0.60185355 0.14481519 -0.032658126 0.42475906 0.4521033 -0.021562478
0.98955196 0.3157094 0.6051904 -0.32916802 -0.17781077 0.44316846 -0.060515776 0.60851526
00000000: 04a0 c4bf 60af 34be 2832 2abf 48ff 8140
00000010: 4cbe 81bf 83f7 06c0 1376 063f 03fd 423f
00000020: 885d 22c0 7a31 9cbf b001 48c0 8484 6d3f
00000030: 5955 71c0 d824 823f 651c 493f 31da 893f
00000040: 234f 26bf c940 623e 65e5 48c0 b988 ebbf
00000050: 7539 24bf 03d8 57bf 6a36 85bf 921a f4bf
00000060: 1de2 1fc0 fb68 52bf 7971 903f c056 2cc0
00000070: b8bd 0ac0 b016 e53e be96 05c0 4f62 9f3f
00000080: 0b18 0cc0 1381 7f3f 817c 963c 6197 2e40
00000090: af49 e6be da7f 0dc0 14c0 f33e cfc9 31c0
000000a0: bede 15c0 3417 c9bf 1a80 b23e 7b85 28bf
000000b0: 8c01 d8bf 9c9d 3dbf d19a a23f bf09 bbbf
000000c0: bd3d 8a3f 98ee dcbf 3459 cdbf dfb5 1fbf
000000d0: 1299 7e3f 294d 80bf 11ad 16c0 1606 07c0
000000e0: 1790 0fbe 8a83 1040 9654 edbf 3864 ef3c
000000f0: 699a 17c0 a30e c2bf 979e afbf 3f57 0540
00000100: 51c6 843f 57c4 5e40 4804 a83f f614 0b40
00000110: 6bf3 94bf ccd1 b2bf 9cff 6b3e ad83 b53f
00000120: ab17 13c0 e608 02c0 6caa 523f 12f6 5c3f
00000130: 6e37 00bf 0681 02c0 b4ed 4fbf 9d32 27c0
00000140: 637e 9b3f a7e7 3240 8721 43c0 7a3b b9bf
00000150: d0cd 5a3f 7e2e 9a3d 5870 8bbe 0af4 10c0
00000160: 9345 bdbf ff31 2fbf 6997 db3f 6966 1fbf
00000170: 707c 3f3f 0e18 2240 55d9 8e3f a4df 1ec0
00000180: 7637 13c0 711b 6dbf a45b a3be 0998 25c0
00000190: 5d3a 04bf 1566 c53f 97de c13e b1d0 933f
000001a0: 5167 083f 8585 b0bf d2fe 763f d15d 1d3f
000001b0: 507c 9c3f 4cc1 df3e 7055 aebf 8f0a 693f
000001c0: 918b 953f 77af 09c0 50a6 8dc0 9c07 483f
000001d0: c273 e33e d62c b23f 8560 7abf e08d 9f3d
000001e0: 4800 4ebf b0e0 23c0 2243 1dc0 a883 39bf
000001f0: 3b92 053d f4c3 2f3f 6928 c03f f67b 64c0
00000200: 098e 0c3f 0336 1e3f 9a47 9dbd a3a1 ec3d
00000210: 9d47 753e 9d0d 6f3f 6c6d af3d c570 643e
00000220: 44ef 783f fc15 bcbd 03d9 703e 2a13 b63d
00000230: 2f2d 453f 6fdf 163f 6d70 f2bc a94e ff3e
00000240: 4252 f5bc 2b11 2cbf d9c1 ba3e b911 fabb
00000250: a3b1 623d 5c01 853e cb63 9f3e 3b32 0d3f
00000260: f389 303f a36a 053f 2d30 9d3d 759c 473f
00000270: a984 703f faab 03be 804d b93e 636d 9d3e
00000280: c6fd 6f3f 84a4 c73e 1ad2 27be 6e19 3d3e
00000290: f879 b93d 521b 813d 2b78 4abe 3c3f 5f3f
000002a0: f243 2e3f ab36 b93e 1732 a03e 0443 68bf
000002b0: ae8d 623f 2f2a 173f 131e 2abe 1c8a 073f
000002c0: fcea a93e cded 413e 2b7c 193f 1a7b 083f
000002d0: a408 d93e 942e 043f 2b6b 903e 47c1 373e
000002e0: 88e7 8dbf c7b4 c9bc 0e0b 1f3f 2e2f 9f3d
000002f0: 5589 4f3e a8ca 003f 330b d2be 52f4 0e3f
00000300: 202d e83e 674e 313e 054d f43e 0f60 413f
00000310: 8e72 553f 4c80 173f 44ae fe3e 5a9d d73e
00000320: 5ca1 253f 8640 1c3f b842 113f 3150 9a3e
00000330: 601a 883e 6d5a 713e 9b46 153f eb39 563f
00000340: 8c4b 923d af7a 4b3f b214 213f a40f 6b3f
00000350: dd76 e93e 6ae7 243e 6c27 31bf c4d9 8f3f
00000360: eec3 1e3f 679d ea3e 0129 9d3e 31f4 5f3e
00000370: 5ae2 b53e 14eb a33e 4009 fa3e d1e5 e03e
00000380: 754b 9c3f 1e15 4a3e 0f14 ba3e 7597 fc3e
00000390: 25df 233f 154e 0a3e d973 743e d819 943f
000003a0: 7560 e5be 7e71 463e 17eb eb3d 2748 353e
000003b0: 73bf 0c3f f6b3 e6bd 1c93 6e3f 0fca ed3d
000003c0: 3a93 943e df47 8f3f 1313 1a3f 6f4a 143e
000003d0: 87c4 05bd 057a d93e 157a e73e cba3 b0bc
000003e0: 4753 7d3f aaa4 a13e c2ed 1a3f b688 a8be
000003f0: 0714 36be fae6 e23e 64df 77bd a8c7 1b3f

fcn_2.bias f4 [64]
2.5756514 -1.3092985 -1.3128972 -0.020892859 -1.2581137 -1.7126138 -0.5702919 -3.3322275
-2.490301 -0.8036322 -0.4430376 0.102240205 -0.072691455 -3.1450803 0.5145871 -1.3416202
-1.2913022 -1.5917143 -0.7272253 -0.8561518 -0.45141572 -0.8222269 -0.4010443 -0.7043516
-0.10519752 0.12558052 -1.2268811 -1.2320119 -0.7293469 -1.6263437 -0.22860566 -1.5639042
0.37946683 -0.22229905 -1.0743662 0.043318093 -0.3956821 -0.55128 -0.6095465 -0.5424947
-1.1044474 -3.5737305 -0.6262147 -2.753494 -0.287408 -0.22672366 -1.1116184 -0.57546896
-0.93912363 -1.1286751 -1.0301826 -2.624088 -0.21972013 -0.92133343 -1.2854887 -6.233631
-0.6042319 -1.0422344 -4.0273495 -0.85977364 -0.32058653 -1.0021527 -0.4894698 -0.30372235
00000000: 79d7 2440 1897 a7bf 040d a8bf 8027 abbc
00000010: df09 a1bf ee36 dbbf a6fe 11bf 3743 55c0
00000020: 1761 1fc0 d7ba 4dbf d3d5 e2be 5063 d13d
00000030: 42df 94bd ff48 49c0 fbbb 033f 36ba abbf
00000040: 6449 a5bf 4bbd cbbf 702b 3abf c42c 5bbf
00000050: f61f e7be 767d 52bf ae55 cdbe 6350 34bf
00000060: cc71 d7bd 2e98 003e 710a 9dbf 91b2 9dbf
00000070: 7ab6 3abf 082c d0bf 9a17 6abe 032e c8bf
00000080: 7a49 c23e 5da2 63be d584 89bf 506e 313d
00000090: d896 cabe b020 0dbf 3d0b 1cbf efe0 0abf
000000a0: 885e 8dbf 00b8 64c0 9b4f 20bf 3f39 30c0
000000b0: 2427 93be 3f2a 68be 8349 8ebf ef51 13bf
000000c0: 686a 70bf 6d78 90bf 06dd 83bf 0ff1 27c0
000000d0: 50fe 60be 82dc 6bbf e58a a4bf e879 c7c0
000000e0: f1ae 1abf f067 85bf 0ce0 80c0 201a 5cbf
000000f0: eb23 a4be 8a46 80bf c99b fabe 7f81 9bbe

fcn_3.weight f4 [32, 64]
-1.511416 2.8964567 2.368816 2.909929 0.8291539 2.6412458 3.0164003 0.93612117
2.328575 2.8688252 2.996982 2.8512034 3.0153353 1.9350687 2.7268689 3.1465137
1.1031076 0.94767356 3.0279007 3.0720634 2.9069183 2.896027 3.1653316 2.7514377
2.710676 1.125997 2.4742222 3.0625293 2.4981391 2.3613663 2.8550732 2.8691878
2.735648 2.583887 2.8328655 2.9250867 2.672435 2.997336 2.807461 2.8796635
2.7628982 0.83074975 2.881045 1.9510407 2.5569694 0.7450986 3.2007096 2.8164961
2.7166014 3.008706 2.458196 1.8620396 3.2655308 3.127968 2.8638253 0.41836315
2.5549002 3.278038 -0.18092096 2.8586729 2.874313 3.1018755 1.8385476 -0.36333853
-1.3588964 1.8324009 1.4005216 1.3749686 0.24799076 1.7141824 1.7226636 0.32642707
1.0826725 1.8042791 2.1748276 1.4844017 1.9093018 0.8659755 1.421979 2.0043771
1.0224314 -0.22592849 1.9751627 2.3486462 1.8765332 1.9480624 1.9942144 2.094203
2.3056521 0.80057997 1.5108279 2.1303742 1.6781504 1.272975 1.8264172 1.9016734
1.6614438 1.2262901 1.459116 1.6390182 1.5975971 1.8864561 1.8929942 1.6242182
2.041842 0.15900497 2.0132341 1.2594244 1.4244908 0.7205032 1.9165771 1.9050598
1.5079339 1.4682494 1.5108386 1.276471 1.7510808 2.3806121 1.8627676 0.50417733
1.5539637 2.2231703 0.1278421 1.7382574 1.5276688 2.304024 0.38814977 -0.363745
0.02651984 -0.6213278 -0.55115634 -0.553954 -0.58472663 -0.5888645 -0.710547 -0.6517371
-0.79966056 -0.8411603 -0.8864927 -0.64388704 -0.67580545 -0.60549945 -0.669212 -0.9882991
-0.47538668 -0.58277166 -0.8109974 -1.1018388 -0.579834 -0.85591185 -0.49369305 -0.63753587
-0.7560309 -0.27803072 -0.7045505 -0.9705217 -0.57703525 -0.528761 -0.49001145 -0.70425403
-0.798008 -0.4966538 -0.62586176 -0.3931361 -0.67043066 -0.6099056 -0.68388057 -0.56254137
-0.41446856 -0.5207036 -0.6209103 -0.6169842 -0.79521525 0.04624188 -1.0694039 -0.66323185
-0.7721542 -0.55911106 -0.60410595 -0.6719931 -0.599901 -1.2173828 -0.67876405 -0.705289
-0.5960596 -1.1127125 -0.18537113 -0.59886676 -0.615396 -0.7539644 -0.6674605 -0.32586864
-0.7311699 1.2038585 1.2573733 1.2147852 0.31228942 1.3677851 1.7601866 0.3974161
1.0517964 1.6553144 1.6989249 1.4446303 1.6716996 1.009847 1.7254021 2.0600607
0.9590781 0.5120924 1.9387823 2.2627866 1.7944264 1.80022 1.6740329 1.6929523
2.00551 0.76346815 1.6175196 2.0424962 1.530475 0.8695458 1.4818606 1.1878577
1.633463 2.0327873 1.5782151 1.1282132 1.5908244 2.2298267 2.0714703 1.7717491
1.3752604 0.37625298 1.8529681 0.76895255 1.5684302 0.75741935 1.9376267 1.6615134
1.3640616 1.5944039 1.1183398 1.125398 1.5668104 2.3273277 1.2359916 0.5219746
1.2512131 1.9975352 0.21845652 1.3713495 1.8281796 1.9375556 0.16501431 -0.48128068
00000000: 1476 c1bf 8c5f 3940 ae9a 1740 473c 3a40
00000010: 6e43 543f 2c0a 2940 b40c 4140 a3a5 6f3f
00000020: 5f07 1540 d59a 3740 8ece 3f40 1e7a 3640
00000030: 41fb 4040 55b0 f73f 0585 2e40 7b60 4940
00000040: a132 8d3f bc9a 723f 20c9 4140 b09c 4440
00000050: f30a 3a40 8258 3940 cb94 4a40 8e17 3040
00000060: b77b 2d40 ab20 903f a859 1e40 7b00 4440
00000070: 83e1 1f40 a020 1740 85b9 3640 c6a0 3740
00000080: db14 2f40 685e 2540 ab4d 3540 9f34 3b40
00000090: 2d09 2b40 5ad4 3f40 71ad 3340 684c 3840
000000a0: 53d3 3040 04ac 543f 0b63 3840 b4bb f93f
000000b0: 63a5 2340 c8be 3e3f 6dd8 4c40 7941 3440
000000c0: ccdc 2d40 a48e 4040 1553 1d40 5057 ee3f
000000d0: 75fe 5040 a130 4840 ea48 3740 b233 d63e
000000e0: 7c83 2340 60cb 5140 5843 39be 7ff4 3640
000000f0: bff4 3740 2185 4640 8755 eb3f 8207 babe
00000100: 51f0 adbf 1d8c ea3f 4b44 b33f f9fe af3f
00000110: 4af1 7d3e 546a db3f 3e80 dc3f 7321 a73e
00000120: 0395 8a3f 9ef2 e63f 6030 0b40 e000 be3f
00000130: 0064 f43f 92b0 5d3f 6803 b63f b747 0040
00000140: 08df 823f cc59 67be 22d2 fc3f 3850 1640
00000150: 3d32 f03f 1c5a f93f 6b42 ff3f 6c07 0640
00000160: ce8f 1340 cff2 4c3f cf62 c13f 0d58 0840
00000170: a2cd d63f d8f0 a23f 0ac8 e93f 096a f33f
00000180: 31aa d43f 13f7 9c3f 50c4 ba3f 59cb d13f
00000190: 107e cc3f 6577 f13f a24d f23f 62e6 cf3f
000001a0: 8aad 0240 33d2 223e d4d8 0040 d234 a13f
000001b0: b755 b63f e672 383f 6652 f53f 00d9 f33f
000001c0: fa03 c13f 99ef bb3f 2963 c13f 6763 a33f
000001d0: 6a23 e03f f35b 1840 2b6f ee3f c411 013f
000001e0: 48e8 c63f 6c48 0e40 0ae9 023e 387f de3f
000001f0: a78a c33f 2175 1340 91bb c63e c93c babe
00000200: 2340 d93c 570f 1fbf 9518 0dbf eecf 0dbf
00000210: a5b0 15bf d3bf 16bf 68e6 35bf 3ed8 26bf
00000220: 8eb6 4cbf 4856 57bf 30f1 62bf c8d5 24bf
00000230: 9601 2dbf 0302 1bbf 7a51 2bbf 2b01 7dbf
00000240: e265 f3be 8630 15bf 879d 4fbf 0e09 8dbf
00000250: 0070 14bf 0a1d 5bbf 56c5 fcbe 8d35 23bf
00000260: 3e8b 41bf 0b5a 8ebe 6c5d 34bf 1c74 78bf
00000270: 95b8 13bf e25c 07bf c8e2 fabe fe49 34bf
00000280: 414a 4cbf 6849 febe 7a38 20bf 2349 c9be
00000290: 58a1 2bbf c622 1cbf cc12 2fbf b602 10bf
000002a0: 3935 d4be d54c 05bf faf3 1ebf adf2 1dbf
000002b0: 3a93 4bbf 2068 3d3d 3ae2 88bf 90c9 29bf
000002c0: e6ab 45bf e721 0fbf b0a6 1abf bd07 2cbf
000002d0: 1d93 19bf 33d3 9bbf 7bc3 2dbf d28d 34bf
000002e0: 5d97 18bf 5d6d 8ebf eed1 3dbe 554f 19bf
000002f0: 988a 1dbf d003 41bf b1de 2abf 41d8 a6be
00000300: f32d 3bbf 0918 9a3f 9cf1 a03f 157e 9b3f
00000310: 66e4 9f3e 9513 af3f cb4d e13f 207a cb3e
00000320: 44a1 863f 58e1 d33f 5f76 d93f a5e9 b83f
00000330: 41fa d53f ab42 813f fad9 dc3f 09d8 0340
00000340: 2486 753f 7d18 033f 052a f83f 7fd1 1040
00000350: c4af e53f 9c6d e63f b646 d63f a9b2 d83f
00000360: 475a 0040 a672 433f e20a cf3f 42b8 0240
00000370: 9be6 c33f 8e9a 5e3f 9cad bd3f b90b 983f
00000380: 5115 d13f 3019 0240 f402 ca3f 4a69 903f
00000390: 22a0 cb3f 7bb5 0e40 f892 0440 adc8 e23f
000003a0: 8808 b03f 3ba4 c03e 0f2e ed3f 13da 443f
000003b0: 52c2 c83f 3ce6 413f 2704 f83f 79ac d43f
000003c0: 9299 ae3f 6d15 cc3f c225 8f3f 0b0d 903f
000003d0: 3e8d c83f f0f2 1440 f934 9e3f 21a0 053f
000003e0: c027 a03f 3caf ff3f 11b3 5f3e 6188 af3f
000003f0: ca01 ea3f d201 f83f 83f9 283e 6c6a f6be

fcn_3.bias f4 [32]
-3.2399018 -2.1912522 0.9951782 -2.2460272 -3.265501 -4.5620556 0.09214537 -4.967105
-4.367729 -7.3163385 -5.5412984 -7.943836 -1.0322269 -2.768205 -4.7945633 -3.4413755
-1.7726352 -4.2218995 -2.0666416 -5.7831645 -7.251641 -3.9806714 -2.545414 -6.019161
-1.5161953 -2.7772431 -3.1247294 -2.897612 -1.5413018 -4.880148 -3.2949333 -1.9655646
00000000: 8d5a 4fc0 7a3d 0cc0 00c4 7e3f e9be 0fc0
00000010: f8fd 50c0 5cfc 91c0 b6b6 bc3d 86f2 9ec0
00000020: 70c4 8bc0 721f eac0 5152 b1c0 e833 fec0
00000030: 0320 84bf 452a 31c0 106d 99c0 7f3f 5cc0
00000040: b6e5 e2bf cd19 87c0 db43 04c0 af0f b9c0
00000050: 710d e8c0 52c3 7ec0 10e8 22c0 f89c c0c0
00000060: b012 c2bf 5abe 31c0 91fb 47c0 7a72 39c0
00000070: 6149 c5bf 2c2a 9cc0 30e0 52c0 9f97 fbbf

fcn_4.weight f4 [16, 32]
-0.1136093 -0.18555778 -0.014433206 -0.19991484 -0.2089474 -0.25844696 -0.01588639 -0.0882148
-0.23002994 -0.05566253 -0.12227494 0.21377312 -0.13223918 -0.03405414 -0.10651618 -0.09960701
-0.6428837 -0.16576847 -0.14498483 0.008077946 -0.095572025 -0.017433263 0.1877226 -0.075261705
0.06559201 0.0018341948 0.08533316 -0.099774405 -0.123899475 -0.06470782 -0.14975938 -0.08770498
-0.1215975 -0.107784055 -0.014505049 0.05722318 -0.0874431 -0.10717004 -0.01603138 -0.15204413
0.22640203 -0.0011650686 -0.1442428 -0.2966361 -0.033374716 0.028838243 -0.024914086 -0.08092028
-0.08686252 -0.25735438 -0.17327213 -0.069898725 -0.08519039 -0.07171836 0.011556061 -0.09310581
-0.13421142 -0.2311225 -0.06833674 0.07531593 -0.0997584 -0.14729762 -0.16767152 -0.12139619
-0.07614917 -0.14313062 -0.017240278 -0.07665126 -0.10999997 -0.21530423 -0.020084532 -0.101066016
-0.112177044 -0.06867229 -0.049709916 -0.20853397 -0.0030062993 -0.07138399 -0.19678244 -0.08368685
-0.20242804 -0.13676271 -0.08602906 -0.15843603 -0.06396139 -0.02044668 0.1098817 -0.08311175
-0.09358933 0.16971722 -0.15344632 -0.23974702 -0.0691397 -0.30444664 -0.16660999 0.017857272
0.4631969 0.09011532 -0.014023431 -0.48288566 0.065594405 0.83643335 -0.015061086 0.035094492
-0.59858924 0.28108704 0.32807815 -0.39747286 0.3838604 -1.0481987 0.4165396 0.069656484
-0.32490113 0.053234026 0.22299866 -0.30408385 -0.2452145 0.11668777 0.33899057 -0.05081604
-0.6611008 -0.67451155 -0.40538803 -0.10013568 -0.94462675 0.2415595 0.1491352 0.41471115
-0.11149091 -0.21424209 -0.2454317 -0.023520393 0.2344394 -0.3241253 -0.9196511 0.12493332
0.6696999 0.21881796 0.10641337 0.25699386 0.19002078 0.33121806 0.085190445 0.17205891
-0.42939448 0.32021606 0.08198561 0.4008534 0.1761372 0.29710597 0.34704107 0.10318218
-0.089044385 0.63663155 0.104403764 0.14463812 0.26607057 0.26489288 -0.25295088 0.18701695
-0.115404725 -0.18839282 -0.015286633 -0.16003002 -0.14059459 -0.22192197 -0.017467275 -0.047529522
-0.16193354 0.04230659 -0.012580052 -0.115208924 -0.052163705 -0.23567334 -0.09631316 -0.17914565
-0.03765831 -0.2536824 -0.21492667 -0.034092218 -0.03822787 -0.029153563 0.3673166 -0.16073905
-0.17342313 0.11505341 -0.05162614 -0.061554663 0.010693506 -0.2761721 -0.06473318 -0.18448962
4.783421 5.590412 -1.3944944 7.599119 3.171445 3.0756297 -0.30741602 4.4507737
6.7804904 4.7862945 4.275537 6.675402 10.463807 6.277795 2.7071486 5.2640576
6.7986417 3.717984 4.598394 5.9885263 4.5337954 4.634159 3.4007783 4.2089963
7.8175535 9.063403 5.0423064 5.5001 7.6733017 3.4729633 4.1439457 5.834376
-2.1597064 -2.4267383 0.028484937 -3.1198058 -2.4081523 -1.7024262 -0.02926154 -2.2315655
-2.8205466 -2.5559285 -2.2626057 -2.6236153 -2.368307 -3.2386658 -1.905226 -2.0726755
-2.1438801 -2.2713084 -2.3756099 -3.0974736 -2.3844972 -2.1612813 -1.606773 -2.4196322
-3.0291739 -2.661191 -3.3428526 -2.2682245 -2.668656 -2.1432307 -2.4544895 -2.2365348
00000000: feab e8bd dc02 3ebe 4179 6cbc 7ab6 4cbe
00000010: 4ff6 55be 2953 84be 2d24 82bc f6a9 b4bd
00000020: f88c 6bbe 65fe 63bd 496b fabd 57e7 5a3e
00000030: b569 07be 5b7c 0bbd 2825 dabd c3fe cbbd
00000040: 0794 24bf 36bf 29be e776 14be 5c59 043c
00000050: 44bb c3bd 34d0 8ebc 5a3a 403e cf22 9abd
00000060: 1b55 863d 5d69 f03a 27c3 ae3d 8656 ccbd
00000070: 02bf fdbd 8985 84bd 865a 19be ab9e b3bd
00000080: 1c08 f9bd e3bd dcbd 96a6 6dbc da62 6a3d
00000090: 5e15 b3bd f77b dbbd 3e54 83bc 75b1 1bbe
000000a0: efd5 673e 37b5 98ba 62b4 13be b0e0 97be
000000b0: edb3 08bd 2e3e ec3c a018 ccbc 88b9 a5bd
000000c0: fae4 b1bd f4c3 83be 406e 31be 1027 8fbd
000000d0: 4d78 aebd 13e1 92bd a255 3d3c 42ae bebd
000000e0: b86e 09be 60ab 6cbe 22f4 8bbd 3d3f 9a3d
000000f0: 224e ccbd 30d5 16be 15b2 2bbe 919e f8bd
00000100: 19f4 9bbd d590 12be 7c3b 8dbc 56fb 9cbd
00000110: aa47 e1bd b678 5cbe 5188 a4bc b3fb cebd
00000120: 14bd e5bd 0fa4 8cbd a09c 4bbd ee89 55be
00000130: 5505 45bb c531 92bd 5681 49be 0364 abbd
00000140: 4c49 4fbe 860b 0cbe 0130 b0bd 0e3d 22be
00000150: 30fe 82bd cc7f a7bc a809 e13d 7e36 aabd
00000160: c3ab bfbd 5aca 2d3e 0821 1dbe 3e80 75be
00000170: 1d99 8dbd 6ee0 9bbe cf9b 2abe 6a49 923c
00000180: 2528 ed3e 628e b83d 88c2 65bc ca3c f7be
00000190: 5c56 863d 7f20 563f c6c2 76bc 3ebf 0f3d
000001a0: 253d 19bf a4ea 8f3e dcf9 a73e 9081 cbbe
000001b0: 5a89 c43e 602b 86bf ae44 d53e 0fa8 8e3d
000001c0: 7159 a6be ec0b 5a3d c359 643e e1b0 9bbe
000001d0: 8319 7bbe fff9 ee3d 2c90 ad3e 7b24 50bd
000001e0: e73d 29bf caac 2cbf 058f cfbe ef13 cdbd
000001f0: 0fd3 71bf 605b 773e e6b6 183e 0555 d43e
00000200: 5955 e4bd 4762 5bbe 7352 7bbe d7ad c0bc
00000210: e210 703e c0f3 a5be 416e 6bbf 0add ff3d
00000220: 7471 2b3f d111 603e 41ef d93d b394 833e
00000230: cf94 423e 6a95 a93e 5478 ae3d 3630 303e
00000240: 98d9 dbbe 5cf3 a33e 12e8 a73d a83c cd3e
00000250: 4f5d 343e 461e 983e 5eaf b13e 2e51 d33d
00000260: e75c b6bd 49fa 223f a4d1 d53d 041c 143e
00000270: 673a 883e 0aa0 873e c782 81be 5f81 3f3e
00000280: 5059 ecbd 0cea 40be c974 7abc e9de 23be
00000290: 07f8 0fbe 833f 63be 8817 8fbc 51ae 42bd
000002a0: e8d1 25be ad49 2d3d 901c 4ebc a8f2 ebbd
000002b0: 9ca9 55bd 5a54 71be d63f c5bd f571 37be
000002c0: 9a3f 1abd a9e2 81be bd15 5cbe 48a4 0bbd
000002d0: d494 1cbd 74d3 eebc ec10 bc3e c798 24be
000002e0: d595 31be 1fa1 eb3d ee75 53bd be20 7cbd
000002f0: d133 2f3c 6e66 8dbe d492 84bd d9ea 3cbe
00000300: c911 9940 a8e4 b240 cb7e b2bf fc2b f340
00000310: f4f8 4a40 1ed7 4440 a265 9dbe bd6c 8e40
00000320: c7f9 d840 5329 9940 33d1 8840 e59c d540
00000330: c16b 2741 b2e3 c840 ec41 2d40 2973 a840
00000340: 798e d940 73f3 6d40 0b26 9340 02a2 bf40
00000350: da14 9140 084b 9440 5aa6 5940 19b0 8640
00000360: 6629 fa40 b303 1141 935a a140 d200 b040
00000370: b08b f540 0845 5e40 349b 8440 35b3 ba40
00000380: a138 0ac0 ae4f 1bc0 3e59 e93c e6aa 47c0
00000390: 2b1f 1ac0 1ae9 d9bf e6b5 efbc f8d1 0ec0
000003a0: d683 34c0 5594 23c0 88ce 10c0 50e9 27c0
000003b0: 5892 17c0 4d46 4fc0 72de f3bf b7a6 04c0
000003c0: 5535 09c0 1e5d 11c0 fe09 18c0 023d 46c0
000003d0: 9a9b 18c0 6f52 0ac0 bdaa cdbf 41db 1ac0
000003e0: fcdd 41c0 f450 2ac0 4cf1 55c0 972a 11c0
000003f0: 43cb 2ac0 b12a 09c0 5b16 1dc0 6323 0fc0

fcn_4.bias f4 [16]
-0.35647884 0.036360398 0.12584804 0.755626 -0.8352039 0.004274397 -13.613108 3.1168327
0.26702914 1.1957214 0.2498783 0.2896348 -0.41292256 -0.016696433 0.39937988 -0.28471422
00000000: 6584 b6be a4ee 143d 4fde 003e b570 413f
00000010: eccf 55bf 3e10 8c3b 4acf 59c1 307a 4740
00000020: 0bb8 883e 660d 993f 19e0 7f3e 034b 943e
00000030: 966a d3be f5c6 88bc 857b cc3e 10c6 91be

fcn_5.weight f4 [1, 16]
-0.0030289737 -0.0030236836 -0.003146854 -0.0030518132 0.22881374 -0.0030042736 -0.0089043155 0.14980966
0.09085741 -0.0030163308 -0.0030036252 -0.01515903 0.19512342 -0.0030027407 -0.0030570254 -0.009399216
00000000: bf81 46bb fe28 46bb 733b 4ebb ee00 48bb
00000010: 264e 6a3e 59e3 44bb 68e3 11bc b467 193e
00000020: 7313 ba3d a2ad 45bb 78d8 44bb 955d 78bc
00000030: 6fce 473e a1c9 44bb 6058 48bb 2bff 19bc

fcn_1.weight f4 [128, 140]
-1.333808 0.10051703 -0.30910936 0.94702667 0.12781097 0.46721792 0.73810697 -0.16872677
-1.0891818 -1.6081395 0.8747125 0.2939891 -1.2494311 -1.3610566 1.52693 -0.59455526
-0.20919363 -1.968895 -1.4903508 -0.42764112 0.8157207 0.48535287 -0.9271471 0.45163095
-0.88294125 -0.19283152 -0.046142165 -1.5251368 -0.29178125 1.3108046 0.9034651 0.22377127
-0.33447313 -0.5124468 -0.6427787 -0.020270677 0.37904787 -0.02835515 -0.10523857 1.2487164
1.5480322 0.41825843 0.37379697 0.3257164 -0.22727205 0.37455323 1.0544196 0.5565766
-0.35210276 -1.1284442 -0.66454494 -1.061049 -0.063283466 -0.9726108 -0.23632331 -2.7370114
2.0213907 2.255914 -1.0768625 1.182037 -1.1480587 1.2432611 1.4307278 -0.40174094
-0.42732278 0.94515973 -1.3994768 0.066141605 -0.7290706 -0.53378195 -0.26425168 1.6833763
0.07687403 -0.4376826 1.1124958 0.71523064 1.3430147 -0.51268893 0.35045525 0.34704417
0.33882326 -0.453321 0.95847106 -0.044996105 -1.2080127 -1.0568559 0.77365714 -0.8860864
0.9249227 -1.1587833 -0.2340926 -1.9605007 -0.1903498 -1.1348176 -0.79227936 -0.349137
2.3378708 -0.31358582 0.65821224 0.29595658 -0.080754064 0.32546902 -0.5413564 0.05319182
-0.62195814 -0.14447553 -1.1332638 -1.1206973 0.08253606 -0.5528997 1.1535541 -0.6678579
0.040534858 1.46643 1.2176718 -0.5639509 0.5159572 -0.13306062 -0.6781045 -1.3903694
-0.44493097 -0.6034474 -0.72851336 2.1801708 -2.1609044 -0.70026195 -0.43484518 0.33729428
-0.12158864 -0.2617532 -1.038745 -0.57162994 0.43227944 0.037087195 0.1175477 -0.9352181
-0.42002565 -0.2919608 -0.047486052 0.04827781 -0.5045679 -0.99651754 -0.65097934 -3.5388618
0.7260981 -1.1100875 -0.57085305 0.52360404 -0.1280083 -0.44199204 0.8255647 -1.5209256
-2.9046998 -1.1319971 0.057485867 -0.063342966 -2.0669456 0.38456336 0.72290283 -1.1020651
0.27764666 1.6290143 -0.63655573 0.53490573 -1.7868067 0.07788974 -1.684779 -1.9233207
-2.7640193 -0.23931323 -0.26238486 1.2953733 -1.1277817 0.68720496 2.1025336 1.3772409
-0.8850059 -1.3330106 0.8869622 1.9621224 -0.18766436 2.0803044 0.14698847 0.6764283
-0.10806832 -0.4680465 -2.1122863 -2.039232 -2.0810826 0.4282002 1.1497136 -2.4335577
-0.4305567 0.1675074 -0.35048115 -0.86129063 -5.9979286 -3.414158 1.1502721 -0.3569128
-2.1999032 0.040200856 -2.142581 -0.45202908 -0.45185137 -0.87978315 0.08715387 -0.6809154
0.44269675 -1.3574969 2.1424649 -3.1977873 1.2230967 0.68042874 -3.353649 -3.5464978
0.48345405 2.0607324 0.018989826 -2.4776437 1.2189114 -1.6718704 0.3979448 -1.0082788
0.47842404 -0.06889022 0.611443 -0.11375771 -0.89382267 2.3374205 -2.1609626 0.6575876
-1.4300908 -0.09349643 2.5921848 1.9417061 1.079904 1.5694386 -1.6810365 1.6008385
-1.8220088 2.3313255 0.72924465 0.4210192 0.9113687 2.254902 0.43043083 0.7034445
-0.17233829 0.9949714 -0.47148252 1.1939149 -0.08101692 0.30023405 -0.5931162 -0.45396286
00000000: 38ba aabf dfdb cd3d 9543 9ebe 5770 723f
00000010: e1e0 023e 3037 ef3e 94f4 3c3f b6c6 2cbe
00000020: 4f6a 8bbf 84d7 cdbf 29ed 5f3f bd85 963e
00000030: 5ced 9fbf 1a37 aebf 7172 c33f c634 18bf
00000040: db36 56be c004 fcbf d1c3 bebf c7f3 dabe
00000050: 12d3 503f 2c80 f83e 8359 6dbf 2c3c e73e
00000060: 7008 62bf a075 45be 91ff 3cbd af37 c3bf
00000070: 5a64 95be 72c8 a73f 7d49 673f 4c24 653e
00000080: 1040 abbe b72f 03bf 258d 24bf b10e a6bc
00000090: 9012 c23e 0f49 e8bc 5287 d7bd f0d5 9f3f
000000a0: eb25 c63f f825 d63e 5162 bf3e 4dc4 a63e
000000b0: 01ba 68be 71c5 bf3e 39f7 863f ce7b 0e3f
000000c0: d046 b4be dc70 90bf 9e1f 2abf 74d0 87bf
000000d0: c39a 81bd 05fd 78bf bdfe 71be 322b 2fc0
000000e0: 775e 0140 e560 1040 a1d6 89bf fd4c 973f
000000f0: 96f3 92bf 2e23 9f3f 1722 b73f fdb0 cdbe
00000100: 0dca dabe fdf5 713f 0e22 b3bf 4075 873d
00000110: 5fa4 3abf efa5 08bf ff4b 87be e078 d73f
00000120: 2270 9d3d ef17 e0be 4366 8e3f 5b19 373f
00000130: e8e7 ab3f 953f 03bf df6e b33e c6af b13e
00000140: 3e7a ad3e b119 e8be 5c5e 753f d64d 38bd
00000150: 29a0 9abf 0e47 87bf 650e 463f 8fd6 62bf
00000160: bcc7 6c3f 0353 94bf f8b5 6fbe b0f1 fabf
00000170: 0feb 42be b441 91bf d2d2 4abf 16c2 b2be
00000180: ad9f 1540 528e a0be 9980 283f 9f87 973e
00000190: 6362 a5bd e0a3 a63e 5596 0abf aadf 593d
000001a0: a638 1fbf 65f1 13be ca0e 91bf 0273 8fbf
000001b0: aa08 a93d d68a 0dbf a9a7 933f bcf8 2abf
000001c0: e107 263d fab3 bb3f abdc 9b3f 165f 10bf
000001d0: c515 043f 0b41 08be 4298 2dbf a0f7 b1bf
000001e0: fecd e3be 877b 1abf da7f 3abf eb87 0b40
000001f0: 424c 0ac0 5e44 33bf 07a4 debe d6b1 ac3e
00000200: 7703 f9bd 8404 86be 99f5 84bf 5756 12bf
00000210: bb53 dd3e bee8 173d d9bc f03d 746a 6fbf
00000220: 9a0d d7be e37b 95be bc80 42bd f4be 453d
00000230: 5d2b 01bf c61b 7fbf 95a6 26bf b67c 62c0
00000240: 91e1 393f 5917 8ebf 6d23 12bf ea0a 063f
00000250: 9c14 03be c84c e2be 3558 533f b1ad c2bf
00000260: 9ae6 39c0 48e5 90bf 4d76 6b3d f5b9 81bd
00000270: d648 04c0 7de5 c43e 2910 393f 7810 8dbf
00000280: b427 8e3e 8a83 d03f 51f5 22bf 95ef 083f
00000290: 15b6 e4bf a884 9f3d d7a6 d7bf 5f2f f6bf
000002a0: b1e5 30c0 870e 75be 4f57 86be cbce a53f
000002b0: 275b 90bf aaec 2f3f e98f 0640 6e49 b03f
000002c0: bf8f 62bf 17a0 aabf f40f 633f d426 fb3f
000002d0: 162b 40be b523 0540 2584 163e 682a 2d3f
000002e0: ec52 ddbd caa3 efbe b32f 07c0 c782 02c0
000002f0: 7530 05c0 0e3d db3e d129 933f 69bf 1bc0
00000300: ee71 dcbe 0f87 2b3e 4472 b3be 8b7d 5cbf
00000310: 08ef bfc0 9181 5ac0 1e3c 933f 46bd b6be
00000320: 37cb 0cc0 a7a9 243d 0c20 09c0 5b70 e7be
00000330: 1059 e7be 7839 61bf ba7d b23d 7950 2ebf
00000340: 26a9 e23e 75c2 adbf 251e 0940 8ca8 4cc0
00000350: 6f8e 9c3f 9430 2e3f 2fa2 56c0 d2f9 62c0
00000360: 4a87 f73e 0ae3 0340 8d90 9b3c b791 1ec0
00000370: 4a05 9c3f d9ff d5bf 6cbf cb3e 480f 81bf
00000380: fff3 f43e 5116 8dbd 8787 1c3f cdf9 e8bd
00000390: 90d1 64bf 4c98 1540 364d 0ac0 a957 283f
000003a0: 370d b7bf 0e7b bfbd 5be6 2540 d389 f83f
000003b0: 4b3a 8a3f 5de3 c83f 342c d7bf 47e8 cc3f
000003c0: 9637 e9bf 7034 1540 c7af 3a3f d48f d73e
000003d0: 764f 693f 5050 1040 6e61 dc3e f014 343f
000003e0: 7379 30be 72b6 7e3f 2866 f1be 34d2 983f
000003f0: 33ec a5bd 47b8 993e 77d6 17bf d26d e8be

fcn_1.bias f4 [128]
-1.3127542 -0.438384 -4.0247197 -0.4145995 1.1577437 0.60230744 -0.3670349 -0.33089405
-0.3371573 -2.4869976 -1.0935638 -0.356382 -1.377882 -1.923956 -3.1096935 -1.9977126
-0.21897581 2.430891 -0.10835072 1.1438786 1.1834536 -4.374527 0.5996193 -0.2513409
-0.27219906 -0.85666037 -2.110292 0.89578116 0.17408474 -1.5808204 -0.16114882 0.40091065
-1.0470799 -0.90370184 -1.9417057 -1.0445702 -0.31111866 0.20596349 4.018448 0.8291445
-0.94845057 1.1034703 1.4759084 -0.48158765 -0.28819358 1.1020546 0.6872628 0.38320246
-0.07279922 -0.6905958 -0.17418295 -2.8444753 1.1401467 -3.1553845 0.043671783 -0.042740617
3.0768538 0.262398 0.62746423 -0.048160333 -0.50275636 -0.03484431 -0.26703918 -0.54993975
-0.77465206 1.2674038 0.7023907 0.8942987 2.287449 -0.7586795 -0.26482102 0.06394756
-0.088088505 0.041176386 -2.8479702 -1.1965032 0.27061245 0.5710386 -0.4984262 1.0797855
1.1249353 -0.58150846 0.119953625 -0.37960213 -0.83124584 -1.0218667 -2.3264146 -0.7172229
-0.5783671 0.888746 -0.45349848 -2.2719896 0.5934046 -0.6819105 0.6833463 -0.10132296
-0.35294995 -2.8758636 -2.4012969 0.6569655 0.59492016 -0.7277837 0.10235156 -0.22138341
-0.77347445 0.26984325 -0.48038748 -0.13598473 0.4065287 1.9015006 -0.035805695 1.0663704
0.46780446 -0.6170395 -0.0045584897 -1.8205934 1.4304588 0.52566653 -0.53904575 -1.5383613
-1.0113876 -1.3228586 0.75468534 -1.0358391 0.6341411 -0.22671019 -0.31858703 0.37361357
00000000: 5408 a8bf de73 e0be 81ca 80c0 6346 d4be
00000010: f230 943f d230 1a3f 00ec bbbe f26a a9be
00000020: e29f acbe f82a 1fc0 e6f9 8bbf b477 b6be
00000030: 705e b0bf 3144 f6bf 3805 47c0 0cb5 ffbf
00000040: 323b 60be b893 1b40 fbe6 ddbd 9d6a 923f
00000050: 687b 973f 20fc 8bc0 a780 193f c1af 80be
00000060: ad5d 8bbe 184e 5bbf 060f 07c0 ea51 653f
00000070: 4543 323e 5358 cabf 3204 25be 2944 cd3e
00000080: b706 86bf 0159 67bf d089 f8bf 7ab4 85bf
00000090: f24a 9fbe 18e8 523e 2097 8040 d042 543f
000000a0: a8cd 72bf 843e 8d3f 91ea bc3f a892 f6be
000000b0: 1c8e 93be 2010 8d3f 74f0 2f3f 1d33 c43e
000000c0: c217 95bd e3ca 30bf 045d 32be e20b 36c0
000000d0: 54f0 913f d2f1 49c0 2fe1 323d c910 2fbd
000000e0: 2ceb 4440 0859 863e 7fa1 203f c543 45bd
000000f0: a4b4 00bf e8b8 0ebd 5cb9 88be dac8 0cbf
00000100: 994f 46bf 4a3a a23f e0cf 333f c2f0 643f
00000110: 9065 1240 d238 42bf 9f96 87be f0f6 823d
00000120: bf67 b4bd 92a8 283d 2545 36c0 0427 99bf
00000130: b78d 8a3e 962f 123f b831 ffbe 6936 8a3f
00000140: e1fd 8f3f bddd 14bf 3faa f53d 365b c2be
00000150: 87cc 54bf 87cc 82bf fae3 14c0 ec9b 37bf
00000160: de0f 14bf dc84 633f f430 e8be 4768 11c0
00000170: 5de9 173f b091 2ebf c8ef 2e3f 6982 cfbd
00000180: dbb5 b4be 260e 38c0 d9ae 19c0 e42e 283f
00000190: b04c 183f 0850 3abf b29d d13d 55b2 62be
000001a0: 6c02 46bf e528 8a3e 59f5 f5be 953f 0bbe
000001b0: 8824 d03e 5f64 f33f fea8 12bd d37e 883f
000001c0: 1184 ef3e 4df6 1dbf 625f 95bb 3409 e9bf
000001d0: 4619 b73f 1592 063f e7fe 09bf 06e9 c4bf
000001e0: 2675 81bf 6e53 a9bf 0f33 413f 6096 84bf
000001f0: 1257 223f b726 68be d71d a3be 474a bf3e

fcn_2.weight f4 [64, 128]
-1.4981045 -0.21280666 -0.65858227 4.1150694 -0.99830556 -2.144701 0.5140039 0.7411192
-2.525753 -1.1951194 -3.113779 0.9029213 -3.7772663 1.010857 0.7807887 1.0785148
-0.6513395 0.19189715 -3.1276765 -1.8538246 -0.6252368 -0.8557199 -1.0578096 -1.8959848
-2.4869695 -0.82722104 1.0822057 -2.6405458 -2.1750467 0.4523883 -2.1561248 1.2456927
-2.1778138 0.9779716 0.0063716746 2.729036 -0.43252066 -2.1441524 0.47087687 -2.8072624
-2.3305283 -1.5944247 0.3448557 -0.6679784 -1.6875224 -0.73847824 1.2616725 -1.4405292
1.0267401 -1.7481513 -1.589733 -0.63547844 1.0153846 -0.96351194 -2.343081 -2.098604
-0.14250292 2.2745748 -1.8395824 0.02886455 -2.3654406 -1.5050594 -1.3496635 2.0441244
1.019087 3.4778423 1.3310995 2.17682 -1.1757476 -1.3801239 0.22695462 1.429322
-2.2871609 -2.0387983 0.8144264 0.87546355 -0.516458 -2.0107296 -0.83289886 -2.6012285
1.2017481 2.8046772 -3.0367038 -1.445005 0.8325438 0.063004196 -0.27200398 -2.2537389
-1.467671 -0.68325657 1.7193558 -0.6476915 0.72986174 2.535101 1.1170689 -2.5005856
-2.2890804 -0.93665475 -0.30224976 -2.6017368 -0.5323185 1.503756 0.37034705 1.1507603
0.5016582 -1.4018677 0.9665373 0.60302573 1.2058464 0.42663127 -1.3265201 0.9063224
1.1627439 -2.140132 -4.411249 0.79724234 0.44192597 1.4339046 -0.9642226 0.07696602
-0.822448 -2.5828066 -2.4835615 -0.7241936 0.028498132 0.67994714 1.5043654 -3.5591834
0.54916567 0.6176997 -0.07683998 0.11557657 0.23934744 0.93355185 0.085630216 0.22310786
0.9716925 -0.09181318 0.23502682 0.08890792 0.7702622 0.5896901 -0.02958321 0.4986591
-0.029937053 -0.6719309 0.36457095 -0.0076332497 0.05533001 0.2599821 0.31123364 0.55095357
0.6892134 0.5205602 0.07676549 0.77920145 0.93891543 -0.1285012 0.3615912 0.30735996
0.9371276 0.38960072 -0.16381109 0.18466924 0.09062127 0.06298421 -0.19763112 0.8715733
0.6802742 0.3615912 0.3127235 -0.9067342 0.8846842 0.5902861 -0.16619487 0.5289035
0.3317938 0.18943682 0.5992253 0.53247917 0.42356974 0.51579267 0.28173423 0.17930573
-1.1078665 -0.024629394 0.62067944 0.077733904 0.20254768 0.5026818 -0.41016093 0.55810493
0.45366505 0.17304827 0.47690704 0.7547676 0.8334327 0.591478 0.49716926 0.42088798
0.64630514 0.60995233 0.56764 0.30110252 0.26564363 0.23562278 0.5825388 0.83641243
0.07147646 0.7946961 0.62902266 0.9174613 0.4557509 0.16098034 -0.69159716 1.1233612
0.6194875 0.4581347 0.306764 0.21878724 0.35533372 0.32017282 0.48852798 0.43906438
1.2199047 0.19718416 0.363379 0.49299762 0.6397497 0.13490763 0.23875149 1.1567342
-0.44800356 0.19375746 0.11520411 0.17707092 0.5491657 -0.11267133 0.931764 0.11609803
0.29007748 1.1185936 0.6016091 0.14488974 -0.032684 0.4247616 0.45187724 -0.021556541
0.9895709 0.3157032 0.6045888 -0.32911205 -0.17766687 0.44293803 -0.060470056 0.6081645
00000000: e3c1 bfbf fde9 59be d998 28bf a6ae 8340
00000010: f490 7fbf c842 09c0 c295 033f fdb9 3d3f
00000020: f0a5 21c0 acf9 98bf 2848 47c0 da25 673f
00000030: bbbe 71c0 c363 813f c5e1 473f c60c 8a3f
00000040: 2fbe 26bf b080 443e da2b 48c0 204a edbf
00000050: 850f 20bf 7610 5bbf 4e66 87bf a1af f2bf
00000060: 822a 1fc0 c2c4 53bf b785 8a3f b4fe 28c0
00000070: f733 0bc0 709f e73e f3fd 09c0 dc72 9f3f
00000080: 4d61 0bc0 595c 7a3f 7bc9 d03b 87a8 2e40
00000090: 5973 ddbe cb39 09c0 c616 f13e 30aa 33c0
000000a0: 6027 15c0 1c16 ccbf ed90 b03e a200 2bbf
000000b0: bc00 d8bf e90c 3dbf 7c7e a13f 4363 b8bf
000000c0: 386c 833f 6cc3 dfbf 5f7c cbbf b7ae 22bf
000000d0: 1ff8 813f b8a8 76bf 0af5 15c0 874f 06c0
000000e0: 49ec 11be a292 1140 7077 ebbf 5975 ec3c
000000f0: 6163 17c0 c9a5 c0bf c6c1 acbf efd2 0240
00000100: 7171 823f f894 5e40 7861 aa3f 0551 0b40
00000110: e67e 96bf e6a7 b0bf cb66 683e 06f4 b63f
00000120: d860 12c0 ac7b 02c0 407e 503f 611e 603f
00000130: 9736 04bf cbaf 00c0 dc38 55bf 877a 26c0
00000140: e2d2 993f d57f 3340 5b59 42c0 edf5 b8bf
00000150: 9721 553f 5808 813d 1b44 8bbe 423d 10c0
00000160: a5dc bbbf e7e9 2ebf da13 dc3f 1ccf 25bf
00000170: 38d8 3a3f 183f 2240 1dfc 8e3f 9809 20c0
00000180: 4b80 12c0 9bc8 6fbf 7bc0 9abe db82 26c0
00000190: 0646 08bf 147b c03f 219e bd3e 1d4c 933f
000001a0: ac6c 003f 6770 b3bf fd6e 773f e55f 1a3f
000001b0: 2d59 9a3f 6a6f da3e 69cb a9bf bf04 683f
000001c0: cbd4 943f ecf7 08c0 f428 8dc0 1318 4c3f
000001d0: 1f44 e23e 308a b73f 4bd7 76bf 5ca0 9d3d
000001e0: f48b 52bf b44c 25c0 acf2 1ec0 c064 39bf
000001f0: ea74 e93c 0411 2e3f 0c8f c03f a9c9 63c0
00000200: 1f96 0c3f 9121 1e3f 485e 9dbd 69b3 ec3d
00000210: 7f17 753e 41fd 6e3f e55e af3d 6376 643e
00000220: d7c0 783f 8c08 bcbd dfaa 703e 5b15 b63d
00000230: e72f 453f eef5 163f 7d58 f2bc 3f50 ff3e
00000240: 8d3e f5bc aa03 2cbf 0ba9 ba3e 5720 fabb
00000250: b8a1 623d 601c 853e 045a 9f3e 4b0b 0d3f
00000260: 4a70 303f 6f43 053f 3a37 9d3d bf79 473f
00000270: c35c 703f d295 03be 7b22 b93e 495e 9d3e
00000280: 98e7 6f3f bf79 c73e 18be 27be ef19 3d3e
00000290: a597 b93d defd 803d d05f 4abe 6e1f 5f3f
000002a0: 7326 2e3f 7b22 b93e 4b1d a03e bc1f 68bf
000002b0: aa7a 623f fd1c 173f fd2e 2abe 3866 073f
000002c0: e1e0 a93e bafb 413e d466 193f 8e50 083f
000002d0: 22de d83e fd0a 043f 783f 903e ec9b 373e
000002e0: 92ce 8dbf 95c3 c9bc d9e4 1e3f f432 9f3d
000002f0: a968 4f3e c1af 003f 9d00 d2be f7df 0e3f
00000300: c946 e83e 9133 313e 292d f43e 7338 413f
00000310: d85b 553f 1a6b 173f f88c fe3e a17e d73e
00000320: 4174 253f d625 1c3f db50 113f 1c2a 9a3e
00000330: 7102 883e 1947 713e 4321 153f 201f 563f
00000340: 4062 923d 3471 4b3f a107 213f bede 6a3f
00000350: 2f58 e93e 08d8 243e 830c 31bf 4dca 8f3f
00000360: bc96 1e3f a290 ea3e 2c10 9d3e c309 603e
00000370: 4dee b53e b1ed a33e 5720 fa3e 0ccd e03e
00000380: d625 9c3f a5ea 493e d00c ba3e 2f6a fc3e
00000390: a3c6 233f 3a25 0a3e 457b 743e de0f 943f
000003a0: b960 e5be 5b68 463e 22f0 eb3d 1452 353e
000003b0: 2096 0c3f 3ac0 e6bd 1688 6e3f cec4 ed3d
000003c0: 0985 943e 132e 8f3f 0e03 1a3f fa5d 143e
000003d0: a8df 05bd 5a7a d93e 745c e73e 5897 b0bc
000003e0: 8554 7d3f daa3 a13e 55c6 1a3f 6081 a8be
000003f0: 4eee 35be c6c8 e23e 73af 77bd abb0 1b3f

fcn_2.bias f4 [64]
2.5643857 -1.308105 -1.3116807 -0.0208861 -1.2568535 -1.7121574 -0.5700239 -3.331347
-2.489869 -0.80105186 -0.44293803 0.102242246 -0.07266836 -3.1430275 0.5146007 -1.3402861
-1.2902266 -1.590584 -0.72675806 -0.85548276 -0.4512813 -0.8215137 -0.40092373 -0.70411205
-0.1051475 0.12567043 -1.2197686 -1.2306317 -0.7291419 -1.625149 -0.2284714 -1.5631706
0.3794696 -0.22236292 -1.0733016 0.04531718 -0.3955602 -0.55095357 -0.6093564 -0.54201436
-1.1028873 -3.5721097 -0.62604296 -2.752086 -0.28709775 -0.23182482 -1.1102504 -0.5744903
-0.93891543 -1.1281288 -1.0292015 -2.6233613 -0.21968117 -0.92103696 -1.2842671 -6.228844
-0.6039929 -1.0411204 -4.0229373 -0.85905844 -0.3204708 -1.0017879 -0.48813593 -0.3031758
00000000: e51e 2440 fc6f a7bf 27e5 a7bf 5419 abbc
00000010: 93e0 a0bf f927 dbbf 16ed 11bf ca34 55c0
00000020: 045a 1fc0 bc11 4dbf c6c8 e2be 6264 d13d
00000030: 26d3 94bd 5d27 49c0 dfbc 033f 7f8e abbf
00000040: 2526 a5bf 4298 cbbf d10c 3abf eb00 5bbf
00000050: 580e e7be b94e 52bf e045 cdbe b040 34bf
00000060: 9357 d7bd c0af 003e 6121 9cbf 5785 9dbf
00000070: 0ba9 3abf e204 d0bf 68f4 69be f915 c8bf
00000080: d749 c23e 1bb3 63be f261 89bf 829e 393d
00000090: de86 cabe 4b0b 0dbf c8fe 1bbf 74c1 0abf
000000a0: 692b 8dbf 729d 64c0 5a44 20bf 2d22 30c0
000000b0: 7afe 92be 7c63 6dbe af1c 8ebf cc11 13bf
000000c0: c35c 70bf 8666 90bf e0bc 83bf 27e5 27c0
000000d0: 1af4 60be 14c9 6bbf dd62 a4bf b152 c7c0
000000e0: 479f 1abf 6f43 85bf e7bb 80c0 41eb 5bbf
000000f0: c014 a4be 963a 80bf f4ec f9be dc39 9bbe
