episode7376_t_305009_win_0.84375.pt (torch, 869495 bytes, 77 tensors)

fcn_1.weight f4 [128, 140]
0	0x3ffe1eee	1.9853189
1	0xbf0f2b16	-0.5592512
2	0x3f3b670a	0.732041
3	0x3ee393ee	0.444488
4	0xbf21bda5	-0.6318
5	0x3d9fd30e	0.07803927
6	0xbfd4496f	-1.658491
7	0x3eb552e8	0.35414815
8	0xbe57ac65	-0.21061857
9	0x3ccf8139	0.025330173
10	0x3e88266a	0.26591808
11	0x3eaeac68	0.3411591
12	0xbf08c789	-0.53429466
13	0x3f15c487	0.58503
14	0xbcf87090	-0.030327111
15	0x3edf8f34	0.43663943
16	0x3f99485b	1.1975206
17	0x3e8507a5	0.25982395
18	0xbde50393	-0.11182322
19	0xbf33495f	-0.7003383
20	0xbef9839e	-0.48733228
21	0x3dcdbd9a	0.10045929
22	0xbc842a1a	-0.016133357
23	0xbf7d01e2	-0.98831
24	0xbfa09207	-1.2544564
25	0x3fa74872	1.3068984
26	0xbfba8a10	-1.4573383
27	0xbea62fb3	-0.32458267
28	0xc0017767	-2.0229127
29	0x3fcfc3c2	1.6231616
30	0xbebff4c3	-0.37491426
31	0x3e8776ba	0.2645777
32	0x3fd3576f	1.6511058
33	0x3ff12858	1.8840437
34	0x3d9579ed	0.07298646
35	0x3d553b6c	0.052058622
36	0xbfd76575	-1.6827837
37	0xbed832f4	-0.42226374
38	0x3fd7c1b3	1.6855987
39	0x3ee7c846	0.45269984
40	0x3ed13c0b	0.40866122
41	0xbd64f99c	-0.05590211
42	0x3ed32cbb	0.41245064
43	0x3e46e40e	0.19422933
44	0xbf2647f0	-0.6495352
45	0xbfcaf7a5	-1.5856825
46	0x3ecad2de	0.39614004
47	0xbeaa79e4	-0.3329612
48	0x3ce301c9	0.027710812
49	0x3f1026ae	0.5630902
50	0xbdbe4ed1	-0.09292377
51	0xbf92ec9b	-1.1478456
52	0x3e07c74f	0.13259624
53	0x3eeeec13	0.46664485
54	0x3fef2c29	1.8685352
55	0xbe30c354	-0.17262012
56	0x3ee9f582	0.4569512
57	0x3fb7b744	1.4352803
58	0x3c3ed516	0.011647483
59	0x3f4a334b	0.78984517
60	0xbe0b3865	-0.13595732
61	0xc00d6409	-2.2092307
62	0x3f8c1748	1.0944605
63	0xbf2976ac	-0.66196704
64	0x3f459546	0.771809
65	0xbf3b4283	-0.73148364
66	0xbc90f0c8	-0.017692938
67	0xbefb6ea2	-0.49107844
68	0xbd61f1e6	-0.055162333
69	0x3ecf10d0	0.40442514
70	0xbeae1887	-0.34003088
71	0x3f26b938	0.6512637
72	0xbcc9ae87	-0.024619354
73	0x400b69f3	2.1783416
74	0x3e96d3d0	0.29458475
75	0xbdb3a1cf	-0.08771097
76	0xbf171a13	-0.5902416
77	0x3f33cef3	0.70237654
78	0x3e1b5d4f	0.15172313
79	0x3ec830d2	0.39099747
80	0xbfcf0782	-1.6174166
81	0xbd3a82f8	-0.045535058
82	0xbf000491	-0.5000697
83	0xbf6cc8f8	-0.92494154
84	0xbf9279e3	-1.1443447
85	0xbe06bd81	-0.13158228
86	0xbe7aea65	-0.24503477
87	0xbc9ff7b3	-0.019527292
88	0x3fce5084	1.6118321
89	0xbeb48460	-0.35257244
90	0xbf92961d	-1.1452061
91	0x3f3eec80	0.7457962
92	0xbf9fba98	-1.2478819
93	0xc017568f	-2.364658
94	0x3f1946d6	0.5987371
95	0x3f1e876b	0.6192538
96	0xbf7ce932	-0.9879333
97	0xbf925896	-1.1433284
98	0x3ebca696	0.36845845
99	0xbf414215	-0.7549146
100	0xbe771fd2	-0.24133232
101	0xbde21c86	-0.11040597
102	0xbe5c0c54	-0.21489078
103	0xbefddc30	-0.49582052
104	0x3e2851ec	0.164375
105	0xbef6fbe6	-0.48239058
106	0xbfe3d4b4	-1.7799287
107	0xbfd54178	-1.6660604
108	0x3f1d98e3	0.6156141
109	0xbefd715d	-0.49500552
110	0xbf2e24b5	-0.6802476
111	0x3e42ea93	0.19034795
112	0xbf0d9b8a	-0.5531546
113	0xbd2d91b4	-0.04237528
114	0x3fc4a6d4	1.5363412
115	0x3bad4711	0.005288013
116	0xbf50e301	-0.8159638
117	0xc005d89c	-2.0913458
118	0xbf88810a	-1.066438
119	0x3f3a857a	0.7285992
120	0xbf8d9592	-1.106127
121	0xbf0f458b	-0.5596549
122	0x3e20115b	0.1563162
123	0xbf6cd615	-0.92514163
124	0xbebbda46	-0.36689967
125	0xbf82e93d	-1.0227429
126	0xbe5c89c4	-0.21536928
127	0x3d6cadde	0.057783
128	0xbc43b78b	-0.0119456155
129	0xbf25fc3e	-0.64838016
130	0x3e532875	0.20620902
131	0x3f697f72	0.9121009
132	0xbe4860ae	-0.1956813
133	0xbf89e9e3	-1.0774502
134	0xbeefe407	-0.4685366
135	0x3fb4b10c	1.411653
136	0xbef39736	-0.47576302
137	0x3f44fff9	0.76953083
138	0xbdef3094	-0.116791874
139	0xbf1bd50d	-0.60871965
140	0x3d95be6a	0.07311709
141	0xbed8b19b	-0.42323002
142	0xc00fa67c	-2.2445364
143	0x3f11a6ce	0.5689515
144	0x3de973e8	0.113990605
145	0x3e0f0b86	0.1396924
146	0x3f63e380	0.8901901
147	0x3f77c4a0	0.967844
148	0xbe10bd2d	-0.14134665
149	0x3c5dae50	0.013530329
150	0xbc57a853	-0.01316269
151	0x3eedcdb3	0.46446
152	0xbfc8e7c4	-1.5695729
153	0xbeff196b	-0.4982408
154	0xbf229961	-0.6351529
155	0xbe8a74d9	-0.27042273
156	0xbf1bcc79	-0.60858876
157	0xbeb5659e	-0.3542909
158	0xbd9e76cd	-0.07737503
159	0xbdebcd0a	-0.115137175
160	0x3fb5a051	1.418955
161	0xbe57bd57	-0.21068321
162	0xbf015644	-0.50522256
163	0x3d97e7ae	0.07417236
164	0xbfebdb8c	-1.8426375
165	0xbfce4711	-1.6115438
166	0x3fb5fea0	1.421833
167	0xbd447390	-0.04796177
168	0xbd854d7e	-0.06508921
169	0xbe94c422	-0.29055887
170	0xbf2f82cf	-0.68558973
171	0xbf26972b	-0.65074414
172	0x400dd788	2.21628
173	0xbf6b26b2	-0.9185592
174	0x3dad3747	0.08457809
175	0xbf3ed44a	-0.7454268
176	0xc05cee7b	-3.4520557
177	0xbed0d2b3	-0.4078575
178	0x3e7ee97c	0.24893755
179	0x3e95e30f	0.29274794
180	0x3f364494	0.7119839
181	0xbdc6e7ed	-0.09712205
182	0x3eee076f	0.46490046
183	0xbfe672e6	-1.8003814
184	0xbfeaf173	-1.8354934
185	0x3fa530eb	1.2905554
186	0xbf704b9a	-0.9386536
187	0xbd93348a	-0.071877554
188	0xbfa08fb3	-1.2543854
189	0x3ebaf1a3	0.3651248
190	0xbf5fb932	-0.8739196
191	0xc0669266	-3.6026855
192	0xbd66795a	-0.056268074
193	0xbf1acec4	-0.6047175
194	0xbef644f2	-0.48099476
195	0xbe074c9d	-0.1321282
196	0xc0102761	-2.2524035
197	0x3f3bb3ec	0.73321414
198	0x3dd83c03	0.10558321
199	0xbf05801f	-0.5214862
200	0xc0397059	-2.8974822
201	0xbf41a768	-0.75646067
202	0x3f674b87	0.9034962
203	0xbf79592d	-0.97401696
204	0x3eaa2e79	0.3323858
205	0xbdb1606e	-0.08660971
206	0xbe10b091	-0.14129855
207	0xbf4e0294	-0.80472684
208	0x3d94fd9a	0.07274933
209	0xbf20e6b3	-0.6285202
210	0xbfa69155	-1.3013102
211	0x3f2f31c4	0.6843531
212	0xbdc744f6	-0.0972995
213	0xbeda1c2d	-0.4259962
214	0xbec8bfee	-0.3920893
215	0xbf1284d7	-0.5723395
216	0xbf32d021	-0.6984883
217	0x3f4bdf65	0.7963775
218	0xbfe67145	-1.8003317
219	0x3f8dd620	1.1080971
220	0x3f22bf92	0.63573563
221	0x3de3ba0b	0.11119469
222	0xbfee9acf	-1.8640994
223	0xbc439e0a	-0.011939535
224	0x3f8e543e	1.1119459
225	0xbe72c49f	-0.23707817
226	0xbf363fff	-0.711914
227	0x3f02d375	0.5110391
228	0xbf6f4840	-0.9346962
229	0x3883b8b1	6.280968e-05
230	0x3dcbc001	0.09948731
231	0xbe86dc98	-0.26340175
232	0x3fad03f2	1.3516829
233	0x3c63b711	0.013898627
234	0xbf2cdb80	-0.6752243
235	0x3d8f9fd0	0.07012904
236	0x3fa99d31	1.3251096
237	0xbf76330b	-0.96171635
238	0x3f17797a	0.59169734
239	0x3f85bd9d	1.044849
240	0x3fbd8778	1.4806967
241	0x3fae2b96	1.3607051
242	0xbee23a0b	-0.44184908
243	0x3e8f62e9	0.2800515
244	0x3ef2625e	0.47340673
245	0x3cf6e62c	0.030139051
246	0xbea0b4d5	-0.31387964
247	0x3f11e270	0.5698614
248	0xbe657dd8	-0.22411287
249	0x3f2ff9e1	0.6874066
250	0xbf947019	-1.159671
251	0xc005659f	-2.0843275
252	0xbe8c0c39	-0.27353075
253	0x3fb770ff	1.4331359
254	0xbf264611	-0.6495066
255	0x3f178e83	0.5920183

fcn_1.bias f4 [128]
0	0x3ebca312	0.36843163
1	0x3e00b245	0.12568004
2	0x3e128e5e	0.14312121
3	0xbf673ed5	-0.9033025
4	0xbe396b39	-0.18107308
5	0xbe7a2234	-0.2442711
6	0x3fbec52d	1.4903923
7	0xbf03730f	-0.5134744
8	0xbfa49fa5	-1.286122
9	0x3e21b824	0.157929
10	0x3d905afa	0.070486024
11	0x3d4a3e3b	0.049375754
12	0xbdd8e786	-0.105910346
13	0xbf30eb89	-0.691094
14	0xbe3a15c2	-0.18172362
15	0x3f71ef55	0.94505817
16	0x3ea00d76	0.3126027
17	0x3fbc1dfe	1.4696653
18	0xbf847bbd	-1.0350262
19	0xbf76b86c	-0.96375155
20	0x3dcee764	0.10102728
21	0x3d3403b8	0.04394886
22	0xbe8ae764	-0.27129662
23	0x3f920060	1.1406364
24	0xbfb81c8e	-1.4383714
25	0xbf3d3dda	-0.73922503
26	0xbfbf62b4	-1.4951997
27	0xbe47db35	-0.19517215
28	0xc019f078	-2.405302
29	0xbe59f550	-0.21284986
30	0xbee8c323	-0.45461378
31	0xbee8c92c	-0.45465982
32	0xbfaae69f	-1.335163
33	0xbfc64203	-1.5488895
34	0xbf835e2d	-1.0263115
35	0x3d8cc6d7	0.06873863
36	0xbf57c468	-0.8428407
37	0xbe072080	-0.13195992
38	0x3f6e8b05	0.93180877
39	0xbdc91065	-0.0981758
40	0xbe9d36db	-0.30705914
41	0x3e7aa64f	0.24477504
42	0x3ea0ae8a	0.31383163
43	0x3e8ae2e1	0.2712622
44	0x3ee93e8b	0.4555553
45	0x3f78362d	0.96957666
46	0xbdaa1bb7	-0.083060674
47	0xbd91f1f6	-0.071262285
48	0xbf72e26f	-0.9487676
49	0x3f2dc978	0.6788554
50	0xbe4fd49f	-0.20295952
51	0xbf6d9920	-0.92811775
52	0xbf94377c	-1.1579432
53	0xbe68c98f	-0.22733139
54	0x3d5f2a8e	0.054483943
55	0xbec8c4b0	-0.3921256
56	0x3fbca032	1.4736388
57	0xbfcd9981	-1.6062471
58	0xbee84a24	-0.45369065
59	0x3ef50d58	0.47861743
60	0x4027baf7	2.6207864
61	0x3ef8be9e	0.4858293
62	0xbf07b097	-0.5300383
63	0xbd2c9d05	-0.042141933
64	0xbf3e6f30	-0.7438841
65	0xbc162af7	-0.009165517
66	0xbe7b15d5	-0.24520047
67	0x3df64f3f	0.12026834
68	0x3e21f258	0.15815103
69	0xbf776719	-0.9664169
70	0xbf18b210	-0.596467
71	0xbf22496b	-0.63393277
72	0xbf26ad67	-0.6510834
73	0xbf3e007b	-0.74219483
74	0xbf87f610	-1.0621967
75	0x3bfce8a0	0.0077181607
76	0x3ee46359	0.44607046
77	0xbed6e39e	-0.41970533
78	0xbefbc590	-0.49174166
79	0xbf109f13	-0.5649273
80	0xbefbc4e4	-0.49173653
81	0xbefb2b21	-0.49056342
82	0xbf60e49e	-0.8784884
83	0xbf195ecc	-0.59910274
84	0xbe074cb5	-0.13212855
85	0xc002bda6	-2.0428252
86	0xbecb2b16	-0.3968131
87	0xbf87b82f	-1.0603083
88	0x3ee0d028	0.4390881
89	0x3d07ca66	0.033152007
90	0x3de68a83	0.11256888
91	0x3e3d9722	0.18514684
92	0xbee2ca29	-0.4429486
93	0xbf531a47	-0.8246197
94	0x3e6084b6	0.21925625
95	0xbe9de0f6	-0.30835694
96	0x3e9573cf	0.29189917
97	0xbf3eb177	-0.7448954
98	0xbce9a1c1	-0.028519513
99	0x3e90d179	0.28284815
100	0xbd0be622	-0.03415502
101	0xbea6eaa0	-0.3260088
102	0xbf6b6f96	-0.9196714
103	0xbf2c6016	-0.67334116
104	0x3d658b98	0.05604133
105	0xbfc834fe	-1.5641172
106	0xbfbb02f0	-1.4610271
107	0xbf0bfe2e	-0.5468472
108	0xbeb9aa59	-0.36262777
109	0xbdac76d0	-0.08421099
110	0xbf1c8a46	-0.6114849
111	0xbe65d154	-0.22443134
112	0x3cef80fa	0.029236306
113	0xbeaf6514	-0.34256804
114	0xbef9958f	-0.48746917
115	0xbef3f035	-0.476442
116	0xbf8db8b3	-1.1071991
117	0x3dc53200	0.09628677
118	0x3d902c3c	0.07039687
119	0xbff0095c	-1.8752856
120	0xbf010682	-0.50400555
121	0xbdf88ec2	-0.12136604
122	0xbf5042f2	-0.8135215
123	0x3f64e8da	0.89417803
124	0xbefe861c	-0.49711692
125	0xbd07be0a	-0.03314022
126	0xbe28e621	-0.16494037
127	0xbf13285d	-0.57483464

fcn_2.weight f4 [64, 128]
0	0x3e861f2a	0.2619565
1	0x3f75a8b1	0.9596053
2	0x3ed2a06a	0.4113801
3	0x3e33ed10	0.17570901
4	0xbed2106a	-0.41028148
5	0x3f75108a	0.9572836
6	0x3e3ea474	0.18617421
7	0x3f604aa9	0.8761392
8	0x3f391156	0.7229208
9	0xbf9b35bc	-1.2125773
10	0x3e87b8e2	0.26508242
11	0xbf0f4b5d	-0.5597437
12	0xbea1afdb	-0.3157948
13	0x3f3b7970	0.73232174
14	0x3ed5e54b	0.417765
15	0x3eaf63c4	0.34255803
16	0x3f12f78b	0.5740897
17	0x3ecb4800	0.3970337
18	0x3eb5b819	0.35492018
19	0x3f1ae9b6	0.60512865
20	0xbe8fa63d	-0.28056517
21	0x3f41de71	0.75730044
22	0xbf49e722	-0.78868306
23	0xbfa21ce6	-1.2665069
24	0xbcfcc215	-0.030854264
25	0xbf4a022b	-0.7890956
26	0xbf57bc8d	-0.8427208
27	0xbf05f869	-0.5233217
28	0x3e7e2956	0.24820456
29	0xbf83ce83	-1.0297397
30	0x3fe63f4c	1.7988067
31	0x3f5140f8	0.8173976
32	0xbf413d90	-0.7548456
33	0x3f07755b	0.52913445
34	0xbf1a685e	-0.603155
35	0x3e085334	0.1331299
36	0xbf51dee5	-0.81980735
37	0xbee083ca	-0.43850547
38	0xbfbcfbfc	-1.47644
39	0xbf2081fa	-0.6269833
40	0xbf5aa335	-0.85405284
41	0x3ebb1c2f	0.3654494
42	0x3ed7d9d3	0.42158374
43	0xbce067e6	-0.027393293
44	0x3ea6917d	0.32532874
45	0x3f4e89f8	0.80679274
46	0x3f21c87c	0.6319654
47	0xbf9faba0	-1.2474251
48	0xbf9bff8e	-1.2187364
49	0x3e7caab9	0.246745
50	0xbf4a26e0	-0.7896557
51	0xbf5ada4f	-0.8548936
52	0x3e83c0fc	0.25733173
53	0xbf76401d	-0.9619158
54	0xbec3138b	-0.38100848
55	0x3f1e9e00	0.6195984
56	0x3e9f36c3	0.31096467
57	0x3e002f7a	0.12518111
58	0x3ea0f4b3	0.3143669
59	0xbde97c2a	-0.114006355
60	0xbe9cbcda	-0.30612832
61	0x3e02d709	0.12777342
62	0xbf1cfcc7	-0.6132321
63	0xbf0549de	-0.5206584
64	0x3e83fc91	0.2577863
65	0xbf809158	-1.0044355
66	0xbf40ab1f	-0.7526111
67	0x3f14718c	0.5798576
68	0xbf469cc8	-0.7758298
69	0xbf292afd	-0.6608122
70	0x3f2c95ef	0.6741628
71	0x3ef3d4f5	0.4762341
72	0xbf0654d9	-0.5247322
73	0xbf62a92e	-0.885394
74	0xbf115eb5	-0.56785136
75	0xbf2bb191	-0.6706782
76	0x3f8c2bcc	1.0950866
77	0x3db0f703	0.08640864
78	0xbea3556b	-0.31901106
79	0x3e803b82	0.250454
80	0x3f40d03c	0.7531774
81	0xbef6c794	-0.4819914
82	0xbf305117	-0.68873733
83	0xbfbfb059	-1.4975692
84	0xbefcdb48	-0.49386048
85	0x3e841355	0.25796
86	0x3e9bee89	0.30455425
87	0xbf191f37	-0.59813255
88	0x3ee1ed1e	0.4412622
89	0xbf9c0ea8	-1.2191973
90	0xbe8fa177	-0.28052875
91	0xbf349fb9	-0.7055622
92	0x3f035738	0.5130496
93	0xbe88fc89	-0.2675517
94	0x3eabf441	0.33584788
95	0xbee44ea9	-0.44591263
96	0xbf12d55d	-0.57356817
97	0x3f358c81	0.70917517
98	0xbf9bb3c3	-1.2164234
99	0xbf8aa0c2	-1.0830309
100	0xbfa1bdd4	-1.2636056
101	0x3ee8fa2f	0.45503375
102	0xbecc1776	-0.3986165
103	0xbfb8cab9	-1.4436866
104	0x3ef965d3	0.48710498
105	0xbf1956ba	-0.5989796
106	0x3e0ed616	0.13948855
107	0xbdc86bed	-0.0978621
108	0xbf787ba3	-0.97063655
109	0xbe6e09c8	-0.23245919
110	0x3e9c4d5e	0.30527776
111	0x3d52ac90	0.0514341
112	0xbedc03c2	-0.42971617
113	0x3f3ae76b	0.73009366
114	0x3f3ff394	0.74981046
115	0xbf27b2f3	-0.6550743
116	0x3ea4119e	0.3204469
117	0xbf728eea	-0.9474932
118	0xbf8697ce	-1.0515077
119	0x3ef2b5df	0.47404382
120	0xbf442b87	-0.7662892
121	0xbda5e48a	-0.08100231
122	0x3e326de1	0.17424728
123	0x3dc1432b	0.094366394
124	0xbf289450	-0.65851307
125	0x3e37d192	0.17951038
126	0xbf87e5a1	-1.0616952
127	0x3ed2af15	0.41149202
128	0xbe6f5c79	-0.2337512
129	0x3e078046	0.13232526
130	0xbe376ba9	-0.17912163
131	0xbd875e38	-0.06609768
132	0x3e4cfed6	0.20019087
133	0x3ca79303	0.020455843
134	0xbe0aa25c	-0.13538498
135	0x3ea4b8bf	0.321722
136	0x3ef75abc	0.48311412
137	0x3d047190	0.032334864
138	0x3e4a1638	0.19735038
139	0xbd65cb2b	-0.05610196
140	0xbebbf9c9	-0.36714008
141	0x3e24a2e5	0.16077764
142	0xbe8683a2	-0.26272303
143	0x3d5b5ff8	0.05355832
144	0xbe332cf9	-0.17497624
145	0xbf708e50	-0.9396715
146	0xbda5f611	-0.08103574
147	0x3e7c0b98	0.24613798
148	0xbebbb244	-0.36659443
149	0x3cf8681e	0.030323084
150	0x3e6ff917	0.23434864
151	0xbe5ff7db	-0.21871893
152	0xbe9d20c7	-0.3068907
153	0xbd4926d6	-0.049109302
154	0xbf081682	-0.53159344
155	0x3ebd2c42	0.3694783
156	0xbe51e4df	-0.20497464
157	0x3df5a919	0.119951434
158	0x3ebc9ac1	0.36836818
159	0x3d082bd2	0.033244915
160	0x3c4c8ad2	0.012484269
161	0xbdd421cb	-0.10358008
162	0x3e3d8eb8	0.18511474
163	0xbe0cedbe	-0.13762566
164	0x3d8d4f05	0.068998374
165	0xbe745474	-0.23860341
166	0xbf28836c	-0.65825534
167	0x3d3bfab3	0.045893382
168	0x3e1abe86	0.15111741
169	0x3e89443f	0.2680988
170	0x3e026959	0.127355
171	0xbda0a375	-0.07843677
172	0xbe595b03	-0.21226124
173	0x3ef3377e	0.47503275
174	0xbebb2181	-0.36549
175	0xbf047c81	-0.5175248
176	0xbe1fa748	-0.15591156
177	0xbf1ff42d	-0.6248196
178	0xbdfe59d3	-0.12419476
179	0x3e78a4a8	0.24281561
180	0x3e8cb595	0.27482286
181	0x3eaa97a9	0.33318833
182	0xbd4914ca	-0.04909209
183	0xbea60687	-0.32426855
184	0xbf290626	-0.66025007
185	0x3da14a96	0.07875554
186	0x3eae0657	0.33989212
187	0xbdfe5ec3	-0.12420418
188	0xbe08886d	-0.13333292
189	0x3e6b7233	0.22992782
190	0x3e8fbaea	0.28072292
191	0xbd891e2d	-0.06695209
192	0xbd004de8	-0.031324297
193	0xbca0bbff	-0.019620894
194	0xbe499c8b	-0.19688623
195	0x3dafd4c5	0.085855044
196	0x3d61d418	0.05513391
197	0x3ebac6b0	0.36479712
198	0x3ea12034	0.31469882
199	0x3d8151b7	0.06314414
200	0x3d2d3755	0.042289097
201	0x3d32a783	0.043616783
202	0xbe39bfef	-0.18139623
203	0xbe81e27c	-0.25368106
204	0x3ecc91c4	0.3995496
205	0xbdc45c85	-0.09587959
206	0xbd7e7ede	-0.06213271
207	0x3e4203e7	0.18946801
208	0xbae4550b	-0.0017420364
209	0xbc4c16a7	-0.012456573
210	0xbdbcfd19	-0.09227962
211	0xbd11c405	-0.03558733
212	0x3dcb2f8f	0.099211805
213	0xbecc2479	-0.39871576
214	0xbe41ff0f	-0.18944953
215	0x3d4aba9c	0.04949437
216	0xbcde926b	-0.027169427
217	0xbe0a3be0	-0.13499403
218	0x3e8b2ae6	0.27181166
219	0x3e94fb42	0.29097944
220	0xbde315fe	-0.11088179
221	0xbe794151	-0.24341322
222	0x3d4a130a	0.049334563
223	0x3e03d808	0.12875378
224	0x3ea14b76	0.31502885
225	0x3e90e8ee	0.2830271
226	0xbd7ec6ec	-0.062201425
227	0xbe305465	-0.17219694
228	0xbe4d7694	-0.20064765
229	0xbdc8c63d	-0.09803436
230	0x3e48406b	0.19555824
231	0x3ecbcef5	0.39806333
232	0x3efefde8	0.4980309
233	0x3f2e0fdf	0.6799297
234	0x3d04dc2c	0.032436535
235	0x3b53a41c	0.0032293862
236	0x3daaecdf	0.08345961
237	0xbe72ab0e	-0.23698065
238	0xbe4c13f6	-0.1992949
239	0x3ec6828c	0.38771474
240	0xbe037ef5	-0.12841399
241	0x3ef0ef35	0.470575
242	0x3d6deb4c	0.058085725
243	0xbdd9723b	-0.10617491
244	0x3e6d580f	0.23178123
245	0xbd7c5f8a	-0.06161455
246	0x3dd72b56	0.105063125
247	0x3cc79f6c	0.02436801
248	0xbb49fd3d	-0.0030821108
249	0xbf403d07	-0.7509312
250	0xbf04c6df	-0.51865953
251	0xbd92372c	-0.071394295
252	0x3dcc1b13	0.099661015
253	0x3e37bdbd	0.17943473
254	0x3e1c453c	0.15260786
255	0x3e8359f3	0.25654563

fcn_2.bias f4 [64]
0	0x3f7b611b	0.98195046
1	0xbf0448b4	-0.51673436
2	0xbc7227c9	-0.014779993
3	0xbf40e81b	-0.75354165
4	0xbedad6cb	-0.42742
5	0xbf1efdc9	-0.62105995
6	0xbf320898	-0.69544363
7	0xbea789cf	-0.32722327
8	0xbf0aa1b5	-0.54152995
9	0xbf2a8e6c	-0.6662357
10	0xbed42ad8	-0.41438937
11	0xbf05636e	-0.5210484
12	0xbe519c1e	-0.2046971
13	0xbdeec53d	-0.11658714
14	0xbd28b66d	-0.0411896
15	0xbf626c8b	-0.88446873
16	0xbece31a0	-0.40272236
17	0xbe7b103a	-0.24517909
18	0xbeea07dc	-0.4570912
19	0xbf1455ed	-0.5794361
20	0xbf0fbef0	-0.5615072
21	0xbf330257	-0.69925445
22	0xbcd38258	-0.025818989
23	0xbd633aa7	-0.055475857
24	0xbeaf0b78	-0.34188437
25	0xbf8b83d7	-1.0899609
26	0xbed42f7e	-0.41442484
27	0xbeb52929	-0.35382965
28	0xbdf57690	-0.119855046
29	0xbf261ea3	-0.648905
30	0xbede3bdc	-0.43405044
31	0xbec45f02	-0.38353735
32	0xbed5e39d	-0.41775218
33	0xbe2da0f5	-0.16955931
34	0xbe8c9c0f	-0.27462813
35	0x3dbbdfe3	0.091735624
36	0x3dc5856c	0.09644589
37	0xbe8e2a29	-0.2776654
38	0xbf11c476	-0.569404
39	0xbe1dc449	-0.15406908
40	0xbf4fb17b	-0.8113019
41	0xbd25e97f	-0.040505882
42	0x3c88e316	0.016709846
43	0xbe89ad4c	-0.26890028
44	0xbedc08a7	-0.4297535
45	0x3e49e59a	0.19716492
46	0xbf2d8747	-0.6778454
47	0xbebe0acd	-0.37117615
48	0xbee2fcf0	-0.443336
49	0xbf3234a4	-0.69611573
50	0xbf57035f	-0.8398952
51	0xbf30ccbc	-0.690624
52	0xbf0d01cd	-0.5508087
53	0xbf62c5e7	-0.88583225
54	0xbd9da318	-0.07697123
55	0xc00a2f60	-2.1591415
56	0xbf064f2d	-0.5246456
57	0xbecceda8	-0.40025067
58	0xbf54ee98	-0.83176565
59	0x3e3064a5	0.17225893
60	0xbfb1a7ab	-1.3879293
61	0x3d2b1b14	0.04177387
62	0xbea0edab	-0.31431326
63	0xc01812ee	-2.3761554

fcn_3.weight f4 [32, 64]
0	0xbd7e982b	-0.062156837
1	0x3f995965	1.1980406
2	0x3fb449e1	1.4085046
3	0x3f5ceade	0.8629588
4	0x3f962dde	1.1732748
5	0x3fa1dd5d	1.264568
6	0x3f7f2925	0.99672157
7	0x3fb552b7	1.4165868
8	0x3f9e5ced	1.2372109
9	0x3fa2d962	1.272259
10	0x3faad8da	1.3347428
11	0x3e859ca6	0.26096076
12	0x3f934649	1.1505824
13	0x3f8bb3f1	1.0914289
14	0x3f971e75	1.180617
15	0x3fbabf8c	1.4589705
16	0x3faae074	1.3349748
17	0x3f9f0d84	1.2426
18	0x3fa6b1f8	1.3023062
19	0x3f890176	1.0703571
20	0x3fa58ce7	1.2933625
21	0x3f8a0c53	1.0785011
22	0x3f9dc07f	1.232437
23	0x3f8e6948	1.1125879
24	0x3fa8b00c	1.3178725
25	0xbe50ed35	-0.20402987
26	0x3f8dc658	1.1076155
27	0x3fac4a9e	1.3460271
28	0x3fa4f497	1.2887143
29	0x3f946610	1.1593647
30	0x3f9f5bfc	1.2449946
31	0x3fa78013	1.308596
32	0x3f88c5ee	1.0685403
33	0x3f915271	1.1353284
34	0x3fb7f1b9	1.4370643
35	0x3f392d7f	0.72335047
36	0x3f9c3124	1.2202497
37	0x3f571ecf	0.84031385
38	0x3fae3e3b	1.3612741
39	0x3f989439	1.1920234
40	0x3f5de687	0.8667988
41	0x3f88fbdc	1.0701861
42	0x3f84451f	1.0333594
43	0x3f91489c	1.1350284
44	0x3f96eaba	1.1790383
45	0x3f64f9c9	0.8944364
46	0x3fa3d3ef	1.2799052
47	0x3f4e4393	0.8057186
48	0x3f81bf8f	1.0136584
49	0x3fae8585	1.3634497
50	0x3f818358	1.0118208
51	0x3f895296	1.0728328
52	0x3fac2217	1.3447903
53	0x3fb743d5	1.4317576
54	0x3fc038e2	1.5017359
55	0x3ef5cd66	0.4800827
56	0x3f2504f5	0.6446069
57	0x3fd2ddce	1.647394
58	0x3f87fcf2	1.0624068
59	0x3e2fcae3	0.17167239
60	0x3f8c3456	1.0953472
61	0x3f9b9d95	1.2157465
62	0x3f9acd4a	1.2093899
63	0x3f52e300	0.82377625
64	0xbd8933b7	-0.06699317
65	0x3fc738d4	1.5564218
66	0x3fa59089	1.2934734
67	0x3f751a1d	0.9574297
68	0x3fbc50a0	1.4712105
69	0x3fd5ef3f	1.6713637
70	0x3fa059bf	1.2527388
71	0x3fcc942d	1.598272
72	0x3fbf3fb0	1.4941311
73	0x3fdc6775	1.7219073
74	0x3fdab7bd	1.7087322
75	0x3e7d65bd	0.24745841
76	0x3fc44b7e	1.5335538
77	0x3fa97d01	1.3241273
78	0x3fc368c8	1.5266352
79	0x3fc58c14	1.5433373
80	0x3feab7ba	1.8337319
81	0x3fa45547	1.2838525
82	0x3fc19f5c	1.5126758
83	0x3f9d29e3	1.2278408
84	0x3fa799c9	1.3093807
85	0x3faf787e	1.3708646
86	0x3fbc0e66	1.4691894
87	0x3fb54d2d	1.4164177
88	0x3fd7f315	1.6871058
89	0xbe5a11a9	-0.212958
90	0x3fcec486	1.6153724
91	0x3fc342d7	1.5254773
92	0x3fd3491e	1.6506689
93	0x3f8901ed	1.0703713
94	0x3fc8be7f	1.5683135
95	0x3fe748a9	1.8069049
96	0x3fa7315f	1.3061942
97	0x3fd25108	1.6430979
98	0x3fc2a09f	1.5205268
99	0x3f66a9a1	0.90102583
100	0x3fb1d0db	1.3891863
101	0x3fb04602	1.3771365
102	0x3fc3150c	1.5240798
103	0x3fc5af7a	1.5444176
104	0x3f858c57	1.0433453
105	0x3fb9eabe	1.4524763
106	0x3fabc70d	1.342012
107	0x3fa35d8d	1.2762924
108	0x3fb3c05c	1.4043078
109	0x3f7ec295	0.9951566
110	0x3fc751b7	1.5571812
111	0x3f4d5751	0.8021136
112	0x3f874e5c	1.0570788
113	0x3fcfa4d4	1.6222177
114	0x3fabe569	1.3429385
115	0x3fb270b8	1.3940649
116	0x3fc50fd8	1.539546
117	0x3fe7abf0	1.8099346
118	0x3fbd12ec	1.47714
119	0x3f36d88b	0.7142417
120	0x3f60afdf	0.8776836
121	0x3fe87c7f	1.8162993
122	0x3fa23ff0	1.2675762
123	0x3e2c446c	0.16822976
124	0x3f83124d	1.023996
125	0x3fc5721a	1.5425446
126	0x3fb4e776	1.4133136
127	0x3f4f375e	0.8094386
128	0x3d818a5e	0.063252196
129	0xbf6b0ac6	-0.91813314
130	0xbf3f0640	-0.7461891
131	0xbf2a779f	-0.6658878
132	0xbf8a65ac	-1.0812278
133	0xbf8b5861	-1.0886346
134	0xbf74276e	-0.95372665
135	0xbf659f44	-0.89696145
136	0xbf716019	-0.9428726
137	0xbf7360f1	-0.95069796
138	0xbf8bd023	-1.0922893
139	0xbea4e855	-0.32208505
140	0xbf30bac2	-0.6903497
141	0xbf4f8b28	-0.8107171
142	0xbf6dd209	-0.92898613
143	0xbf9e02e4	-1.2344632
144	0xbf6e24c8	-0.93024874
145	0xbf691aae	-0.91056335
146	0xbf5acc33	-0.85467833
147	0xbf42effc	-0.7614744
148	0xbf7b7166	-0.9821991
149	0xbf804692	-1.0021536
150	0xbf61f47d	-0.88263685
151	0xbf4c8141	-0.79884726
152	0xbf678fda	-0.90453875
153	0xbd62ea1c	-0.055399045
154	0xbf562cef	-0.83662313
155	0xbf71b03c	-0.9440954
156	0xbf649488	-0.8928914
157	0xbf3e0391	-0.7422419
158	0xbf73fd6d	-0.9530857
159	0xbf89b676	-1.0758808
160	0xbf52d600	-0.8235779
161	0xbf530e65	-0.8244384
162	0xbf654fdc	-0.8957498
163	0xbf2dd596	-0.6790403
164	0xbf5a57d3	-0.8529026
165	0xbf377fbf	-0.716793
166	0xbf9d7235	-1.2300478
167	0xbf655880	-0.89588165
168	0xbf4264ff	-0.7593536
169	0xbf6374a1	-0.88849837
170	0xbf484d0d	-0.7824257
171	0xbf54a9cc	-0.8307159
172	0xbf58acba	-0.8463856
173	0xbf3e75db	-0.74398583
174	0xbf5cd325	-0.8625968
175	0xbf3f9457	-0.74835724
176	0xbf44abc7	-0.7682461
177	0xbf768c55	-0.9630788
178	0xbf6a7b86	-0.9159473
179	0xbf434b6d	-0.76286966
180	0xbf5de6e3	-0.8668043
181	0xbfb7f70f	-1.4372271
182	0xbf5bf805	-0.8592532
183	0xbf03ae09	-0.5143743
184	0xbf401c24	-0.7504294
185	0xbfa36ba7	-1.2767228
186	0xbf84a43a	-1.0362618
187	0xbb3244c7	-0.002720164
188	0xbf2f27f1	-0.6842032
189	0xbf4ae709	-0.7925878
190	0xbf3d5d84	-0.7397082
191	0xbf2537ef	-0.6453847
192	0xbdbcece8	-0.09224874
193	0x3feab629	1.8336841
194	0x3fd039ac	1.62676
195	0x3f87b6f2	1.0602705
196	0x3ff29a3d	1.895332
197	0x3ff5ea18	1.9212065
198	0x3fd43901	1.6579896
199	0x3ff6ec47	1.9290856
200	0x3fdce7a8	1.7258196
201	0x3fdad1e5	1.7095305
202	0x40058618	2.0863094
203	0x3eaf7100	0.342659
204	0x3ffa9a12	1.9578269
205	0x3fe5b766	1.7946594
206	0x3fe57b71	1.7928296
207	0x3ff8fa48	1.945138
208	0x3ff39b85	1.9031836
209	0x3fdb9b98	1.7156858
210	0x3ff75f37	1.9325932
211	0x3fc74910	1.5569172
212	0x3fe0087c	1.7502589
213	0x3fef71ee	1.8706644
214	0x3fec50ba	1.8462136
215	0x3ff2c616	1.8966701
216	0x3fe15196	1.7603023
217	0xbead8706	-0.33892077
218	0x3febc211	1.8418599
219	0x3ff01f22	1.8759501
220	0x3fd5aa4c	1.6692595
221	0x3fc5bc09	1.5448009
222	0x3fe63383	1.798447
223	0x3fdf8367	1.7461976
224	0x3fee9bbf	1.864128
225	0x3fd4098c	1.6565413
226	0x3ffdfd47	1.9842919
227	0x3f79e80c	0.976197
228	0x3fd7828c	1.6836715
229	0x3fda673b	1.7062753
230	0x40028dbe	2.0399013
231	0x3ff35581	1.9010469
232	0x3f94061f	1.1564368
233	0x3fefaa84	1.8723912
234	0x3fd807de	1.6877401
235	0x3fe36fc1	1.776848
236	0x3fe8b394	1.8179803
237	0x3f9c6cfd	1.222076
238	0x3fe5fadd	1.7967182
239	0x3f8b8bbf	1.0902022
240	0x3fb9399f	1.447071
241	0x3fedc068	1.8574343
242	0x3fce48b7	1.6115941
243	0x3fd950dc	1.6977801
244	0x3ff55737	1.9167241
245	0x400b3352	2.1750073
246	0x3ffd4330	1.9786129
247	0x3f34d14b	0.70631856
248	0x3f46b3bb	0.77617997
249	0x3fff20a6	1.9931839
250	0x3fa143cf	1.2598819
251	0x3e38d654	0.1805051
252	0x3fa80176	1.3125446
253	0x3fcaf2a0	1.5855293
254	0x3fe139b4	1.7595735
255	0x3f767120	0.96266365

fcn_3.bias f4 [32]
0	0xbfc52966	-1.5403259
1	0xbfd1ae8a	-1.638139
2	0x3f9b83e0	1.214962
3	0xc0041d26	-2.064279
4	0xbf9c7df0	-1.2225933
5	0xc01653fc	-2.348876
6	0xbfc5e67a	-1.5460961
7	0xbf576692	-0.84140885
8	0xc0070e4b	-2.1102474
9	0xbf80ae88	-1.0053263
10	0xbfed210a	-1.8525708
11	0xc08a3b21	-4.319718
12	0xbf8229bf	-1.016899
13	0xc0921651	-4.565224
14	0xbf6ba3ea	-0.9204699
15	0xbf6def94	-0.9294369
16	0xbfe333f6	-1.7750232
17	0xbf193866	-0.5985168
18	0xc02c4f32	-2.6923337
19	0xc093e424	-4.621599
20	0xbffe0b1a	-1.9847138
21	0xbfaa8944	-1.332314
22	0xc0f49301	-7.642945
23	0xbf56593d	-0.83729917
24	0xc068a7fa	-3.6352525
25	0xc0af903f	-5.486358
26	0xbf260026	-0.64843976
27	0xc02bc7de	-2.684074
28	0xc0b05b34	-5.511133
29	0xbf9b6ce4	-1.2142606
30	0xbf411bd0	-0.75433064
31	0xbf14764d	-0.5799301

fcn_4.weight f4 [16, 32]
0	0x3d035c9a	0.032070734
1	0x3d0f9025	0.035049576
2	0xbc6c248b	-0.014413009
3	0xbda812b9	-0.08206696
4	0x3cc2bed8	0.023772642
5	0xbdbfa11c	-0.09356901
6	0xbbcf32cd	-0.0063231946
7	0x3be5bd5e	0.0070110997
8	0xbdab698f	-0.08369743
9	0x3d7a697e	0.06113576
10	0xbda10f19	-0.07864208
11	0xbdb45f78	-0.08807272
12	0xbdb413bd	-0.08792827
13	0x3cae019c	0.021241002
14	0xbdd364b7	-0.10321944
15	0xbce3c5b0	-0.027804226
16	0xbe2e09f5	-0.16995986
17	0x3c7dac0b	0.015482913
18	0xbe79839c	-0.24366611
19	0xbeb03340	-0.344141
20	0xbda8afc7	-0.08236652
21	0x3e0163db	0.12635748
22	0x3d6dfd7e	0.058103077
23	0x3d99da91	0.07512391
24	0xbe24d072	-0.1609514
25	0xbda115af	-0.07865464
26	0xbba7c1ba	-0.0051195296
27	0xbe294646	-0.16530713
28	0xbcfd1a69	-0.030896382
29	0x3da0480a	0.0782624
30	0xbe2d4f88	-0.1692487
31	0xbc18b3f9	-0.009320253
32	0xbde6f06a	-0.11276324
33	0x3d5f44e0	0.054509044
34	0xbc8a7821	-0.016902985
35	0x3d19d61a	0.0375577
36	0xbd2e6087	-0.042572524
37	0xbda67aa5	-0.08128861
38	0xbbc8da72	-0.0061295563
39	0xbe0f5917	-0.13998829
40	0xbdc1e908	-0.09468275
41	0xbbdd098c	-0.006745523
42	0xbd30e624	-0.04318823
43	0xbe48703d	-0.19574066
44	0xbdc29a50	-0.09502089
45	0xbd149d42	-0.036282785
46	0x3ddd7738	0.10813755
47	0xbd850d0f	-0.06496631
48	0xbd6556e9	-0.055991087
49	0xbd395e76	-0.0452561
50	0xbe31ba64	-0.17356259
51	0xbcb81965	-0.022473047
52	0xbdcbe656	-0.099560425
53	0x3dda0c52	0.10646881
54	0x3c3a85e1	0.011384458
55	0x3dcb1829	0.099167176
56	0xbd87272e	-0.0659927
57	0xbd06883b	-0.032844763
58	0xbd101836	-0.03517934
59	0x3ccec3cd	0.02523985
60	0x3d0e665d	0.03476559
61	0xbbcb579d	-0.0062055127
62	0xbe4911a7	-0.1963564
63	0x3b45b78a	0.0030169212
64	0x3ea7ffbe	0.32812303
65	0x3eddc49c	0.43314064
66	0xbdb95605	-0.0904961
67	0x3ec72be8	0.38900685
68	0x3f004ca7	0.5011696
69	0x3e869f09	0.2629321
70	0xbeed84cf	-0.46390387
71	0x3ed433e5	0.41445842
72	0x3e524fbb	0.20538227
73	0x3ecf711f	0.40515992
74	0x3e3b1061	0.18267967
75	0x3e10f2db	0.14155142
76	0x3ee34dd0	0.44395304
77	0x3f1861ef	0.59524435
78	0x3f3fdd5f	0.7494716
79	0x3e8b263f	0.27177617
80	0x3dd6b6e5	0.10484103
81	0x3eca8856	0.3955714
82	0x3e1ceed9	0.15325488
83	0x3e9c8e60	0.30577374
84	0x3e8bc0b1	0.2729545
85	0x3ef1324b	0.47108683
86	0x3ec1f26a	0.3788026
87	0x3f12934e	0.5725602
88	0x3e8fdc89	0.28097942
89	0x3f091ee3	0.53562754
90	0x3eb735ee	0.35783333
91	0x3e53c0f7	0.20679079
92	0x3ecac416	0.39602727
93	0x3ef3703a	0.4754656
94	0x3e0ebc02	0.13938907
95	0x3ea7e4f4	0.32791865
96	0xbf6620a9	-0.89893585
97	0xbf9ea26c	-1.2393317
98	0x3d991f49	0.0747667
99	0xbf9db265	-1.2320067
100	0xbf67ec0a	-0.9059454
101	0xbf40e22e	-0.7534512
102	0xbd4322ac	-0.047640488
103	0xbf663199	-0.8991943
104	0xbfb31c78	-1.3993063
105	0xbf78aa6e	-0.97135055
106	0xbf701edc	-0.9379709
107	0xbfa4fd94	-1.2889886
108	0xbf6435d4	-0.89144635
109	0xc015efca	-2.3427606
110	0xbf389926	-0.72108686
111	0xbf964559	-1.1739913
112	0xbf8fee88	-1.1244669
113	0xbf5b87bf	-0.8575401
114	0xbf951a89	-1.1648723
115	0xbfb50c79	-1.4144431
116	0xbf9673b5	-1.1754061
117	0xbf8603d2	-1.0469916
118	0xc013733b	-2.303908
119	0xbf91bf48	-1.13865
120	0xbfe09c2c	-1.754766
121	0xbfffa265	-1.9971434
122	0xbf5ce3c9	-0.8628507
123	0xbfbd1253	-1.4771217
124	0xc0156789	-2.3344443
125	0xbf585025	-0.8449729
126	0xbf6fc0f1	-0.9365378
127	0xbf7a25c8	-0.977139
128	0x3dd68f0f	0.10476505
129	0x3d9504ec	0.072763294
130	0xbc86da5f	-0.01646155
131	0xbe7d2f39	-0.24725045
132	0x3d50bfb6	0.05096408
133	0x3d5d52d4	0.05403407
134	0xbbdf1f7e	-0.006809174
135	0x3dc42e67	0.09579163
136	0xbeac92d6	-0.33705777
137	0xbe88f0da	-0.26746255
138	0xbe817967	-0.25287935
139	0x3e60a6b7	0.21938597
140	0x3e986197	0.29761955
141	0x3d85a4ca	0.06525572
142	0xbd261250	-0.040544808
143	0x3c9061a3	0.017624682
144	0xbecc8870	-0.39947844
145	0x3d7a5cec	0.061123773
146	0xbef9d417	-0.48794624
147	0xbd4fc1de	-0.050721996
148	0xbec041c8	-0.37550187
149	0xbe26dec8	-0.16295922
150	0xbd9c751a	-0.07639523
151	0x3cd9424f	0.026520876
152	0xbf3cacc1	-0.737011
153	0x3f275148	0.653584
154	0x3dd83b3f	0.10558175
155	0xbc2a0134	-0.010376263
156	0xbe32684f	-0.17422603
157	0x3d901cc8	0.070367396
158	0xbea172ed	-0.31532994
159	0x3d218751	0.03943569
160	0xbe138cc7	-0.14409171
161	0xbdb90125	-0.090334214
162	0xbe4c8f77	-0.19976602
163	0xbe4ab534	-0.19795686
164	0xbd78d075	-0.060745675
165	0xbe7b6b33	-0.24552612
166	0xbd6d53c4	-0.057941213
167	0xbe839c5d	-0.25705233
168	0xbe4ae9bc	-0.19815725
169	0xbde7c62d	-0.11317096
170	0xbde56331	-0.1120056
171	0xbe992304	-0.29909527
172	0xbe8d1408	-0.27554345
173	0xbd93d202	-0.0721779
174	0xbe4da122	-0.20080999
175	0xbe2d7781	-0.16940118
176	0xbe2b4dd2	-0.16728905
177	0xbe37c721	-0.17947055
178	0xbedfd972	-0.43720585
179	0xbe64eee1	-0.2235675
180	0xbea3b9b0	-0.31977606
181	0xbdb2d82f	-0.0873264
182	0xbe6296e1	-0.22127868
183	0xbda616b3	-0.08109798
184	0xbe8e662d	-0.2781233
185	0xbd86f226	-0.06589155
186	0xbdcb95b0	-0.0994066
187	0xbe943690	-0.28947878
188	0xbe02faf0	-0.12791038
189	0xbde76404	-0.11298373
190	0xbebf0fea	-0.3731683
191	0xbdbd4001	-0.092407234
192	0xbf0dcecb	-0.55393666
193	0xbe5844f8	-0.2112006
194	0xbccc1932	-0.024914358
195	0x3d8c820d	0.06860743
196	0xbf5ca5d8	-0.8619056
197	0xbedaa903	-0.4270707
198	0xbf81e75c	-1.014873
199	0xbfd78ff2	-1.6840804
200	0x3e6e4906	0.23270044
201	0xbf289c51	-0.6586352
202	0xbe842c26	-0.25814933
203	0x3fe70e19	1.8051177
204	0xbf2933b1	-0.660945
205	0x3f9f6403	1.2452396
206	0xbfb52645	-1.4152304
207	0x3e303a73	0.17209797
208	0xbed53022	-0.41638285
209	0xbeaa64e7	-0.33280107
210	0xbf27211f	-0.65284914
211	0x3ba87160	0.0051404685
212	0x3f064013	0.5244152
213	0x3e33a1ed	0.17542239
214	0x3f9c451f	1.2208594
215	0x3daa12c9	0.08304364
216	0xbf026485	-0.5093463
217	0x4016d179	2.3565352
218	0xbf6d77ef	-0.9276113
219	0xbed28f82	-0.41125113
220	0x3f4f6eef	0.81028646
221	0xbf5d2627	-0.8638634
222	0xbfc378cb	-1.5271238
223	0xbfae115b	-1.3599046
224	0x3e104226	0.14087734
225	0x3e5bd096	0.21466288
226	0xbe0ea74e	-0.13931009
227	0x3cdd1a34	0.026990034
228	0xbd2cc985	-0.04218437
229	0x3e5c6b8f	0.21525405
230	0xbfad42a4	-1.3535962
231	0x3d85ac5b	0.06527015
232	0x3e612ec0	0.2199049
233	0xbe3de70a	-0.18545166
234	0x3e4d978d	0.20077343
235	0x3f5d5a44	0.8646586
236	0xbebfff86	-0.37499636
237	0xbeaff6e5	-0.34368053
238	0x3e0f0e20	0.13970232
239	0x3d07c886	0.03315022
240	0x3f8365cd	1.0265442
241	0xbe30089a	-0.17190781
242	0x3e8d4799	0.27593687
243	0xbf0163bb	-0.505428
244	0x3f65bd08	0.89741564
245	0x3eec03bb	0.46096596
246	0x3d84cea9	0.0648473
247	0xbe388817	-0.18020664
248	0xbda35a4c	-0.07976207
249	0x3dae1a29	0.085010834
250	0xbdc7f55e	-0.09763597
251	0x3f0520ae	0.5200299
252	0xbe21c4d9	-0.15797748
253	0xbba5d415	-0.0050606825
254	0x3e94052f	0.28910205
255	0x3e7e38c8	0.24826348

fcn_4.bias f4 [16]
0	0xbef8ebd0	-0.4861741
1	0xbe631d0a	-0.22179046
2	0xbef342bb	-0.4751185
3	0x40087bcb	2.1325557
4	0xbf4b6ad9	-0.7945991
5	0x3c08a5c3	0.008340302
6	0xc024a95a	-2.5728364
7	0x3f0fa3a4	0.5610907
8	0x3d839ac9	0.06426007
9	0x3f6e79f9	0.93154866
10	0xc0d63cfe	-6.6949453
11	0xbdadd90a	-0.084886625
12	0xbd7e0d61	-0.062024478
13	0xbe07bc42	-0.13255408
14	0x3f3a57a7	0.72789997
15	0xbc4e9d24	-0.012610707

fcn_5.weight f4 [1, 16]
0	0x3a36826f	0.0006962185
1	0x3ad7d4ca	0.0016466614
2	0x3e92f7c0	0.28704643
3	0x3e5496d1	0.20760657
4	0x3a978999	0.0011561393
5	0x3cd731a6	0.026268791
6	0xbbc4a40a	-0.0060010003
7	0x3eb6409c	0.35596168
8	0x3a36ed70	0.000697813
9	0x3a423d90	0.0007409686
10	0xbcdd89bb	-0.027043214
11	0x3a4223cb	0.0007405846
12	0x3a41b59b	0.0007389427
13	0x3a38d4cf	0.0007050754
14	0x3a3e7124	0.0007264784
15	0x3a0ec107	0.00054456334

fcn_1.weight f4 [128, 140]
0	0x3ffa7dd9	1.9569656
1	0xbf0db7ef	-0.55358785
2	0x3f2f29ce	0.68423164
3	0x3ee36304	0.4441148
4	0xbf1fe310	-0.62455845
5	0x3d9fa820	0.07795739
6	0xbfcfc9b3	-1.6233429
7	0x3eab3e51	0.3344598
8	0xbe577ea1	-0.21044399
9	0x3ccf68a9	0.02531846
10	0x3e93da13	0.28877315
11	0x3eb4f3d9	0.3534229
12	0xbf060fad	-0.5236767
13	0x3f192a5a	0.5983025
14	0xbd6117c3	-0.0549543
15	0x3eddf4cb	0.43350825
16	0x3f937e35	1.152289
17	0x3e85610b	0.260506
18	0xbde5129c	-0.1118519
19	0xbf3033e4	-0.6882918
20	0xbef75886	-0.48309726
21	0x3dc9873b	0.09840246
22	0xbd074465	-0.03302421
23	0xbf7d25f3	-0.9888603
24	0xbfa4bc83	-1.2870029
25	0x3fa715de	1.3053548
26	0xbfba1909	-1.453889
27	0xbe909cb4	-0.28244555
28	0xc001ba85	-2.0270092
29	0x3fcfa0d1	1.6220952
30	0xbec87f81	-0.39159778
31	0x3e84cbcd	0.25936738
32	0x3fcfef5b	1.624492
33	0x3ff2a70c	1.8957229
34	0x3d956f5f	0.07296633
35	0x3d45b36f	0.048266824
36	0xbfd72823	-1.6809124
37	0xbeedf070	-0.46472502
38	0x3fd600a9	1.6718951
39	0x3ee7d19e	0.45277113
40	0x3ed13d54	0.40867102
41	0xbd64eb8f	-0.05588871
42	0x3ed15203	0.40882882
43	0x3e45ee10	0.19329095
44	0xbf25dfbd	-0.6479452
45	0xbfcb3072	-1.5874159
46	0x3ed78453	0.42093143
47	0xbeaa7d19	-0.33298567
48	0x3d19f346	0.03758552
49	0x3f164b11	0.5870829
50	0xbdb3ca59	-0.08778829
51	0xbf90b578	-1.130538
52	0x3e07db62	0.13267282
53	0x3ef0a0af	0.46997592
54	0x3ff118a0	1.883564
55	0xbe309758	-0.17245233
56	0x3ee46e6c	0.44615495
57	0x3fb61551	1.4225255
58	0x3c3eee9b	0.011653568
59	0x3f48dc52	0.7846118
60	0xbe103bec	-0.14085358
61	0xc00bb065	-2.1826413
62	0x3f868074	1.0507951
63	0xbf2dbbd6	-0.6786474
64	0x3f579f10	0.84227085
65	0xbf26e20e	-0.6518868
66	0xbc87f52a	-0.016596396
67	0xbee8b1b6	-0.45448083
68	0xbd7233a9	-0.0591313
69	0x3ec4cc27	0.38437006
70	0xbeaea0f9	-0.34107187
71	0x3f362f0c	0.7116554
72	0xbca28383	-0.0198381
73	0x4009adc1	2.15123
74	0x3e87e2b9	0.26540163
75	0xbddc6135	-0.10760728
76	0xbf19b5ab	-0.6004283
77	0x3f2daef4	0.6784508
78	0x3e149bb6	0.14512524
79	0x3ee094fb	0.43863663
80	0xbfcc51a2	-1.5962412
81	0xbd3a5aee	-0.045496874
82	0xbf03387b	-0.5125806
83	0xbf71738d	-0.9431694
84	0xbf90e398	-1.1319456
85	0xbe0a2036	-0.1348885
86	0xbe89b34b	-0.26894602
87	0xbc463c3a	-0.01209932
88	0x3fcca7ff	1.5988768
89	0xbeb1e84e	-0.34747547
90	0xbf942cf9	-1.1576225
91	0x3f370e37	0.71506065
92	0xbf9e9ac7	-1.2390984
93	0xc01805b7	-2.3753488
94	0x3f2028f6	0.625625
95	0x3f1e9ac5	0.6195491
96	0xbf7c0ba0	-0.9845524
97	0xbf918773	-1.1369461
98	0x3ebb15f2	0.3654018
99	0xbf3a447b	-0.7276074
100	0xbe621b1a	-0.22080651
101	0xbdfef3a3	-0.12448814
102	0xbe703015	-0.23455842
103	0xbf007917	-0.5018477
104	0x3e2c4109	0.16821684
105	0xbef93e8d	-0.48680535
106	0xbfe5607d	-1.7920071
107	0xbfd56c89	-1.6673747
108	0x3f1dd511	0.6165324
109	0xbefe43c4	-0.49661076
110	0xbf2c912a	-0.67409
111	0x3e4cfc58	0.20018137
112	0xbf0f618a	-0.5600821
113	0xbd586121	-0.052827004
114	0x3fc1ae5c	1.5131335
115	0x3c0e893b	0.0086997105
116	0xbf527650	-0.8221178
117	0xc005fab2	-2.0934262
118	0xbf846be0	-1.0345421
119	0x3f38fd31	0.7226134
120	0xbf8c9c9d	-1.0985295
121	0xbf11c921	-0.56947523
122	0x3e3bd50f	0.18342994
123	0xbf6d4000	-0.9267578
124	0xbec62b08	-0.38704705
125	0xbf81da03	-1.0144657
126	0xbe6b33f6	-0.2296904
127	0x3d64c383	0.055850517
128	0xbc1cb92f	-0.009565636
129	0xbf2a63e4	-0.6655867
130	0x3e53d3d9	0.20686282
131	0x3f6fb4d5	0.936353
132	0xbe4e681d	-0.20156904
133	0xbf8abed0	-1.0839481
134	0xbeeed44c	-0.46646345
135	0x3fb78910	1.4338703
136	0xbef8cb1f	-0.4859247
137	0x3f43a0da	0.76417315
138	0xbdf33f3a	-0.11877294
139	0xbf1ce4f4	-0.61286855
140	0x3dd6956d	0.104777195
141	0xbed86acf	-0.42268988
142	0xc00d2523	-2.2053916
143	0x3f1067fa	0.56408656
144	0x3da65591	0.08121789
145	0x3e0edff7	0.13952623
146	0x3f6213df	0.8831157
147	0x3f6fed0a	0.9372107
148	0xbe10dbb0	-0.14146304
149	0x3c5d98df	0.013525217
150	0xbc361df2	-0.011115538
151	0x3ee62ce0	0.44956112
152	0xbfc2670c	-1.5187697
153	0xbf096357	-0.53667206
154	0xbf286689	-0.65781456
155	0xbe987164	-0.2977401
156	0xbf0fb195	-0.56130344
157	0xbeae6829	-0.34063843
158	0xbd9e6fae	-0.07736145
159	0xbd935274	-0.07193461
160	0x3fb3c034	1.4043031
161	0xbe67365f	-0.22579335
162	0xbef06ac4	-0.46956456
163	0x3d96e561	0.07367969
164	0xbfec1965	-1.844525
165	0xbfce32d3	-1.610926
166	0x3fb58a6f	1.4182872
167	0xbd57039b	-0.052493673
168	0xbd98f51c	-0.07468626
169	0xbea67151	-0.3250833
170	0xbf2a4a25	-0.66519386
171	0xbf2422ce	-0.6411561
172	0x400beeca	2.1864495
173	0xbf63f2d0	-0.8904238
174	0x3dad3c1c	0.084587306
175	0xbf3e53ba	-0.74346507
176	0xc05b6bd3	-3.428456
177	0xbec78a69	-0.38972786
178	0x3e79bb00	0.24387741
179	0x3e95bd7c	0.29246128
180	0x3f36468d	0.712014
181	0xbdc70493	-0.09717669
182	0x3ef96652	0.48710877
183	0xbfe678f9	-1.8005668
184	0xbfef1fb9	-1.8681556
185	0x3fa1deef	1.2646159
186	0xbf705cc2	-0.9389154
187	0xbd934c96	-0.07192342
188	0xbf9c6574	-1.2218461
189	0x3e9c31a4	0.30506623
190	0xbf594cf7	-0.84883064
191	0xc0631b8a	-3.5485559
192	0xbd66721d	-0.05626117
193	0xbf23f35a	-0.640432
194	0xbef0f9c3	-0.47065553
195	0xbe073f2a	-0.13207689
196	0xc0109650	-2.2591743
197	0x3f371896	0.7152189
198	0x3dd841e8	0.105594456
199	0xbf0be328	-0.5464349
200	0xc039f367	-2.905481
201	0xbf462160	-0.77394676
202	0x3f5f6dab	0.87276715
203	0xbf7c642e	-0.9859036
204	0x3ea38120	0.31934452
205	0xbd82b58b	-0.06382283
206	0xbe0e13a5	-0.13874681
207	0xbf4f74d9	-0.8103767
208	0x3daadb38	0.08342594
209	0xbf1c0838	-0.6095004
210	0xbfa6acb3	-1.3021454
211	0x3f34698c	0.7047355
212	0xbdc3317f	-0.09530925
213	0xbeb3be1f	-0.35105988
214	0xbece27b0	-0.40264654
215	0xbf121e24	-0.5707724
216	0xbf2bf3e3	-0.67169017
217	0x3f3971c4	0.7243922
218	0xbfdfab2b	-1.7474111
219	0x3f8ce29c	1.1006656
220	0x3f226d54	0.6344807
221	0x3de38c0e	0.11110698
222	0xbfed5d10	-1.8544025
223	0xbca0ee27	-0.01964481
224	0x3f9061d8	1.127986
225	0xbe6ff3f3	-0.23432903
226	0xbf3927a5	-0.7232612
227	0x3f01e6f7	0.5074305
228	0xbf6fafcd	-0.93627626
229	0xbbb5f379	-0.005552706
230	0x3dcb28a6	0.099198624
231	0xbe93387f	-0.2875404
232	0x3fabea17	1.3430814
233	0x3bbaf1db	0.005705101
234	0xbf2c37b2	-0.67272484
235	0x3d9a014a	0.07519777
236	0x3fac2639	1.3449165
237	0xbf781509	-0.969071
238	0x3f1899d3	0.5960972
239	0x3f860d98	1.0472898
240	0x3fbe5974	1.4871049
241	0x3fac1ab4	1.3445649
242	0xbeddd55b	-0.4332684
243	0x3e91031b	0.28322682
244	0x3ef05e2d	0.4694685
245	0x3d087707	0.03331664
246	0xbeb4d37c	-0.353176
247	0x3f13990a	0.57655394
248	0xbe6146af	-0.2199962
249	0x3f2f123a	0.68387187
250	0xbf942fbd	-1.1577069
251	0xc005d5c5	-2.0911725
252	0xbe876d96	-0.26450795
253	0x3fb76718	1.4328337
254	0xbf26ccd7	-0.6515631
255	0x3f19d390	0.60088444

fcn_1.bias f4 [128]
0	0x3ebf3f77	0.37353107
1	0x3dfa3372	0.12216844
2	0x3e138f03	0.14410023
3	0xbf66b620	-0.9012165
4	0xbe391dae	-0.18077728
5	0xbe7b7cf4	-0.24559385
6	0x3fbee7a4	1.4914441
7	0xbf029ff2	-0.5102531
8	0xbfa39350	-1.2779331
9	0x3e216e66	0.1576477
10	0x3da19bb7	0.078910284
11	0x3d4a11b3	0.049333286
12	0xbdd34ca6	-0.10317354
13	0xbf334e18	-0.70041037
14	0xbe445dfc	-0.19176477
15	0x3f6d25b4	0.92635655
16	0x3ea3f1e8	0.32020497
17	0x3fbbb53a	1.4664681
18	0xbf848ec6	-1.0356071
19	0xbf758809	-0.959107
20	0x3dcdbfda	0.100463584
21	0x3d2bfbf5	0.04198833
22	0xbe8f1fa5	-0.2795383
23	0x3f92b961	1.1462823
24	0xbfb7f514	-1.4371667
25	0xbf39d319	-0.72587734
26	0xbfbe80f0	-1.4883099
27	0xbe4c9892	-0.19980076
28	0xc019f618	-2.4056454
29	0xbe59c878	-0.21267879
30	0xbeebfef1	-0.46092942
31	0xbeec314a	-0.46131355
32	0xbfaae509	-1.3351146
33	0xbfc6f8dc	-1.5544696
34	0xbf8498f2	-1.0359175
35	0x3d6cd93d	0.057824362
36	0xbf57a5af	-0.8423719
37	0xbe05ee31	-0.13079144
38	0x3f6c516a	0.9231173
39	0xbdc9004f	-0.09814512
40	0xbe9b0eac	-0.3028463
41	0x3e72b5f5	0.23702224
42	0x3ea0ea69	0.3142884
43	0x3e8ffa97	0.28120872
44	0x3eeaa0f8	0.45825934
45	0x3f792579	0.97322804
46	0xbdc576fb	-0.09641834
47	0xbd91c607	-0.07117849
48	0xbf741ecc	-0.9535949
49	0x3f323523	0.6961233
50	0xbe54fc97	-0.2079948
51	0xbf6d76b2	-0.9275924
52	0xbf908003	-1.1289066
53	0xbe606b93	-0.21916036
54	0x3d75a81f	0.059974786
55	0xbec4d7f1	-0.38446
56	0x3fbcccc1	1.4749986
57	0xbfcf1baf	-1.6180323
58	0xbeea49a3	-0.45759305
59	0x3eee72cf	0.46571967
60	0x4027e42f	2.6233022
61	0x3ef163f9	0.47146586
62	0xbf078d46	-0.5294994
63	0xbd3a248c	-0.04544501
64	0xbf3d11c9	-0.73855263
65	0xbc2e6652	-0.010644512
66	0xbe7e8eff	-0.24859236
67	0x3de33e46	0.11095862
68	0x3e21f1f6	0.15814957
69	0xbf773a48	-0.96573305
70	0xbf2054ca	-0.6262938
71	0xbf209090	-0.62720585
72	0xbf26af27	-0.6511101
73	0xbf3eb40b	-0.74493474
74	0xbf872eae	-1.056112
75	0x3afb51f4	0.0019174204
76	0x3ee8519f	0.45374772
77	0xbedea2d4	-0.43483603
78	0xbef5c483	-0.4800149
79	0xbf114c93	-0.5675747
80	0xbefb6d87	-0.49107
81	0xbefd7a08	-0.49507165
82	0xbf605d1b	-0.8764207
83	0xbf1a037f	-0.60161585
84	0xbe073f2a	-0.13207689
85	0xc002f071	-2.0459254
86	0xbecdac69	-0.401706
87	0xbf88e685	-1.0695349
88	0x3eddf261	0.43348983
89	0x3ce4b77f	0.027919529
90	0x3decabf5	0.11556236
91	0x3e3cc505	0.18434532
92	0xbedd5dc3	-0.43235597
93	0xbf52eaf3	-0.82389754
94	0x3e65d68a	0.22445121
95	0xbe9e4954	-0.3091532
96	0x3e927cd5	0.28610864
97	0xbf3d7177	-0.7400126
98	0xbd4529aa	-0.048135437
99	0x3e8bcb0b	0.27303347
100	0xbcddd4b6	-0.027078968
101	0xbeab2d51	-0.3343301
102	0xbf6cc52f	-0.9248838
103	0xbf2a1fd3	-0.6645481
104	0x3d74a5d3	0.059728455
105	0xbfc815f9	-1.5631706
106	0xbfb9bb94	-1.4510369
107	0xbf0d8989	-0.55287987
108	0xbeb79f0d	-0.35863534
109	0xbdac51c7	-0.08414035
110	0xbf1dadfd	-0.6159361
111	0xbe614b70	-0.22001433
112	0x3cacf287	0.02111174
113	0xbeb09842	-0.34491163
114	0xbef5302f	-0.47888324
115	0xbef4c71a	-0.47808152
116	0xbf8ce199	-1.1006347
117	0x3dc3fdd0	0.09569895
118	0x3d901869	0.07035906
119	0xbff23b1d	-1.892429
120	0xbf00fdde	-0.5038737
121	0xbdf899c8	-0.121387064
122	0xbf502bf1	-0.8131705
123	0x3f611657	0.8792471
124	0xbefe65ea	-0.4968713
125	0xbd22f2be	-0.03978228
126	0xbe28cf7d	-0.164854
127	0xbf12ddbe	-0.573696

fcn_2.weight f4 [64, 128]
0	0x3e80f01f	0.25183198
1	0x3f6e49da	0.9308144
2	0x3ed01eda	0.40648538
3	0x3e3280c2	0.1743193
4	0xbecf061b	-0.40434346
5	0x3f6f0c3e	0.93378055
6	0x3e3f1407	0.18659984
7	0x3f61a82a	0.88147223
8	0x3f396979	0.72426564
9	0xbf9737ed	-1.1813942
10	0x3e7c1a94	0.24619514
11	0xbf0dbeb4	-0.55369115
12	0xbea2a106	-0.31763476
13	0x3f36adfb	0.71359223
14	0x3ee2688e	0.44220394
15	0x3eb01643	0.34391984
16	0x3f10c381	0.56548315
17	0x3ecc734a	0.3993171
18	0x3eab5413	0.3346258
19	0x3f1f2766	0.6216949
20	0xbe939739	-0.2882631
21	0x3f409ca4	0.75239015
22	0xbf4cd3ac	-0.80010486
23	0xbf9e3de6	-1.236264
24	0xbcff2b7a	-0.03114866
25	0xbf47ebd2	-0.7809421
26	0xbf5387e3	-0.8262922
27	0xbf00f698	-0.5037627
28	0x3e89a94f	0.26886985
29	0xbf8304ab	-1.02358
30	0x3fe40325	1.781346
31	0x3f5a652a	0.85310614
32	0xbf4273ef	-0.7595815
33	0x3f06ea07	0.5270085
34	0xbf233e7b	-0.6376721
35	0x3df1b614	0.11802307
36	0xbf50500d	-0.8137215
37	0xbeca1756	-0.3947093
38	0xbfbb4bd0	-1.4632511
39	0xbf1ef4b3	-0.6209213
40	0xbf5a9537	-0.85383934
41	0x3ebca396	0.36843556
42	0x3ec8558f	0.39127776
43	0xbc7acd10	-0.01530768
44	0x3eb348b6	0.35016412
45	0x3f4a84da	0.79108965
46	0x3f22e9c2	0.63637936
47	0xbf9ee22d	-1.2412773
48	0xbf99a5e1	-1.2003747
49	0x3e67d776	0.22640786
50	0xbf47ae7e	-0.7800063
51	0xbf594ad9	-0.84879833
52	0x3e81c30a	0.25344115
53	0xbf70e425	-0.9409812
54	0xbecbe144	-0.39820302
55	0x3f2150f1	0.6301413
56	0x3ea1b007	0.3157961
57	0x3e054695	0.13015206
58	0x3ea72f50	0.32653284
59	0xbdcc3c7f	-0.09972476
60	0xbe9c708e	-0.30554622
61	0x3dea088c	0.114274114
62	0xbf1b6f9a	-0.60717165
63	0xbf0649a4	-0.52456117
64	0x3e8299f5	0.25508085
65	0xbf79130b	-0.9729468
66	0xbf42b0ec	-0.7605121
67	0x3f1752c7	0.59110683
68	0xbf450e1c	-0.76974654
69	0xbf279d7d	-0.65474683
70	0x3f277c5d	0.6542414
71	0x3ef129ec	0.47102296
72	0xbf0e60f5	-0.55616695
73	0xbf674d59	-0.903524
74	0xbf13a7ef	-0.5767812
75	0xbf2ea2f7	-0.68217415
76	0x3f8b8ec8	1.0902948
77	0x3db27da4	0.0871537
78	0xbeb9179c	-0.36150825
79	0x3e8229ae	0.25422424
80	0x3f42909f	0.76001924
81	0xbefc86bf	-0.49321553
82	0xbf2d97d3	-0.6780979
83	0xbfc02f31	-1.5014402
84	0xbef9c450	-0.48782587
85	0x3e8bc879	0.27301386
86	0x3e92aea5	0.28648868
87	0xbf1cb3e9	-0.6121202
88	0x3ee3687f	0.44415662
89	0xbf96a99d	-1.1770512
90	0xbe7f6fbf	-0.24944972
91	0xbf3190a1	-0.6936131
92	0x3effed18	0.49985576
93	0xbe85ea6d	-0.26155415
94	0x3eb0aed8	0.34508395
95	0xbeee2424	-0.46511948
96	0xbf11b925	-0.56923133
97	0x3f34850b	0.7051551
98	0xbf98c423	-1.1934856
99	0xbf86dcb3	-1.0536102
100	0xbf9f4447	-1.2442712
101	0x3ef79bf7	0.4836118
102	0xbed5c08b	-0.4174846
103	0xbfbbee6f	-1.4682139
104	0x3eedd635	0.4645249
105	0xbf17c9c7	-0.5929226
106	0x3e017bb9	0.12644853
107	0xbddac09e	-0.1068127
108	0xbf8262f8	-1.0186453
109	0xbe67e7a6	-0.2264696
110	0x3e9b95e1	0.30387786
111	0x3d6a3a40	0.057184458
112	0xbeb9a05b	-0.36255154
113	0x3f379cd3	0.7172367
114	0x3f3982e9	0.7246538
115	0xbf2cc20e	-0.67483604
116	0x3e9b73ee	0.30361885
117	0xbf6875d1	-0.90804774
118	0xbf85cd7b	-1.0453333
119	0x3ef4d15c	0.4781598
120	0xbf429d00	-0.76020813
121	0xbd99adbf	-0.075038426
122	0x3e387ea6	0.18017063
123	0x3db30c4b	0.08742579
124	0xbf270689	-0.65244347
125	0x3e369014	0.17828399
126	0xbf871ca7	-1.0555619
127	0x3ed509f8	0.41609168
128	0xbe6f726c	-0.23383492
129	0x3e076638	0.13222587
130	0xbe374dcf	-0.17900775
131	0xbd876637	-0.06611293
132	0x3e4cd0b5	0.2000149
133	0x3ca79709	0.020457761
134	0xbe0a9a65	-0.1353546
135	0x3ea4d807	0.32196066
136	0x3ef73a48	0.48286653
137	0x3d045919	0.032311533
138	0x3e49eaa5	0.19718416
139	0xbd65d5e4	-0.056112185
140	0xbebc088b	-0.36725268
141	0x3e2489eb	0.16068237
142	0xbe86a2ef	-0.26296183
143	0x3d5b4f08	0.053542167
144	0xbe332f4b	-0.1749851
145	0xbf7083d1	-0.93951136
146	0xbda6107a	-0.081086114
147	0x3e7c1c12	0.24620083
148	0xbebbba6e	-0.36665672
149	0x3cf84bac	0.03030952
150	0x3e6fe798	0.2342819
151	0xbe6009c3	-0.21878724
152	0xbe9d102c	-0.306764
153	0xbd49004f	-0.04907256
154	0xbf08297f	-0.5318832
155	0x3ebd19f0	0.3693385
156	0xbe52009c	-0.20508045
157	0x3df58caa	0.1198972
158	0x3ebc7db7	0.36814663
159	0x3d080271	0.033205453
160	0x3c4c5b8a	0.0124729965
161	0xbdd42364	-0.10358313
162	0x3e3d680d	0.18496723
163	0xbe0d0b4a	-0.13773838
164	0x3d8d3259	0.06894369
165	0xbe745436	-0.23860249
166	0xbf28815f	-0.65822405
167	0x3d3be17d	0.04586934
168	0x3e1a9f47	0.15099822
169	0x3e893ae4	0.26802742
170	0x3e025d5f	0.12730931
171	0xbda0b984	-0.07847884
172	0xbe59534c	-0.21223181
173	0x3ef31bc5	0.47482124
174	0xbebb1e35	-0.36546484
175	0xbf048027	-0.51758045
176	0xbe1fa81f	-0.15591477
177	0xbf1ff63c	-0.624851
178	0xbdfe65e9	-0.124217816
179	0x3e7899c9	0.24277414
180	0x3e8c9620	0.27458286
181	0x3eaaa428	0.33328366
182	0xbd49275c	-0.0491098
183	0xbea5e96c	-0.3240465
184	0xbf291d98	-0.6606078
185	0x3da12eb0	0.07870233
186	0x3eadd856	0.33954114
187	0xbdfe65e9	-0.124217816
188	0xbe08779c	-0.13326877
189	0x3e6b53e9	0.22981228
190	0x3e8fa33e	0.2805423
191	0xbd893ae3	-0.06700685
192	0xbd0061a3	-0.031343114
193	0xbca0b984	-0.01961971
194	0xbe499c87	-0.19688617
195	0x3dafad02	0.085779205
196	0x3d61b762	0.055106528
197	0x3ebaa90b	0.36457095
198	0x3ea12eaf	0.3148093
199	0x3d814bfa	0.063133195
200	0x3d2d3c1c	0.042293653
201	0x3d329313	0.043597292
202	0xbe39beb4	-0.18139154
203	0xbe81e833	-0.25372466
204	0x3ecc8298	0.39943385
205	0xbdc46c9f	-0.0959103
206	0xbd7e8cf7	-0.062146153
207	0x3e41d4ad	0.18928786
208	0xbae44f55	-0.0017418662
209	0xbc4c347b	-0.012463684
210	0xbdbd19ef	-0.09233462
211	0xbd119ef9	-0.035552
212	0x3dcb2317	0.09918802
213	0xbecc347b	-0.3988379
214	0xbe41fbba	-0.18943682
215	0x3d4aadec	0.04948227
216	0xbcdeaa42	-0.027180795
217	0xbe0a253a	-0.13490763
218	0x3e8b0f90	0.2716031
219	0x3e94d326	0.29067343
220	0xbde316e2	-0.11088349
221	0xbe795d10	-0.24351907
222	0x3d49eaa5	0.04929604
223	0x3e03bce0	0.12865019
224	0x3ea12eb0	0.31480932
225	0x3e9102bf	0.28322408
226	0xbd7edb14	-0.062220648
227	0xbe307049	-0.17230333
228	0xbe4d93fc	-0.20075983
229	0xbdc8d93f	-0.098070614
230	0x3e4815f9	0.19539632
231	0x3ecbbf51	0.397944
232	0x3eff0222	0.49806315
233	0x3f2dff64	0.6796782
234	0x3d04ce44	0.032423273
235	0x3b53872c	0.0032276614
236	0x3daacb37	0.083395414
237	0xbe72a699	-0.23696364
238	0xbe4c0d6c	-0.19926995
239	0x3ec68f68	0.38781285
240	0xbe036ec3	-0.12835221
241	0x3ef0d1ee	0.47035164
242	0x3d6dc4cf	0.05804902
243	0xbdd97a5a	-0.1061904
244	0x3e6d2895	0.23160012
245	0xbd7c6a2e	-0.0616247
246	0x3dd70976	0.104998514
247	0x3cc779bf	0.024350045
248	0xbb4a11b2	-0.00308333
249	0xbf404e1c	-0.75119185
250	0xbf04ce43	-0.5187723
251	0xbd921424	-0.07132748
252	0x3dcc0d6d	0.09963498
253	0x3e37c2f9	0.1794547
254	0x3e1c25d6	0.15248808
255	0x3e8347b5	0.25640646
