model.pt (torch, 246214 bytes, 51 tensors)

weight f4 [84, 105]
0	0xbe340803	-0.17581181
1	0x3d9094b8	0.07059616
2	0xbc0d2200	-0.008614063
3	0x3e05e234	0.13074571
4	0x3dde5104	0.10855296
5	0xbe2ee9fb	-0.17081444
6	0xbd9662e2	-0.07343079
7	0x3a65da00	0.0008768141
8	0xbdd14655	-0.10218493
9	0xbe15e544	-0.14638239
10	0x3dfda428	0.12384826
11	0x3d5cf444	0.053943887
12	0x3b4e1300	0.003144443
13	0x3dc53434	0.096290976
14	0xbd5a28ac	-0.053261444
15	0x3da1def4	0.07903853
16	0xbd677170	-0.056504667
17	0x3d83213c	0.06402823
18	0x3cb4bed0	0.022063643
19	0xbe007091	-0.1254294
20	0x3d30ee88	0.04319623
21	0x3da988a0	0.08278012
22	0xbd2fcf44	-0.042922273
23	0x3d76ab3c	0.060221896
24	0xbde9394c	-0.11387882
25	0x3d460970	0.048348844
26	0x3e0ec110	0.13940835
27	0x3e009240	0.1255579
28	0x3dda5e90	0.106625676
29	0xbdaa1a47	-0.08305793
30	0x3e0e780e	0.13912985
31	0xbbbed180	-0.005823314
32	0x3d6d0654	0.057867363
33	0x3adde200	0.0016928315
34	0xbde8dcb9	-0.113702245
35	0xbd6415fe	-0.055685036
36	0xbe3044c8	-0.17213738
37	0x3d28c5f8	0.041204423
38	0x3cc6a3d8	0.024248049
39	0x3d439b18	0.04775533
40	0x3df1df7c	0.118102044
41	0xbc87c5e8	-0.016573861
42	0x3e1eb070	0.15496993
43	0x3cbe0dc0	0.023199916
44	0xbe150365	-0.14552076
45	0xbde26d95	-0.11056057
46	0xbdb03371	-0.08603562
47	0xbe23534f	-0.15949748
48	0xbda012ef	-0.07816111
49	0x3d6efd44	0.058347
50	0x3deb3794	0.1148521
51	0xbe19d85a	-0.15023938
52	0xbc2ba660	-0.010476679
53	0x3e24b9b6	0.16086468
54	0xbc058c20	-0.008151084
55	0xbd270a1c	-0.040781125
56	0x3c9dc600	0.019259453
57	0x3d2c31e0	0.042039752
58	0x3c882190	0.016617566
59	0xbd88cde2	-0.06679894
60	0xbdd0de8f	-0.101987
61	0x3d31f5dc	0.04344736
62	0xbe2110d5	-0.15729077
63	0x3df60e58	0.120144546
64	0x3d637b7c	0.055537686
65	0xbc111f40	-0.008857548
66	0x3dcabb28	0.098989785
67	0x3d5fdd24	0.054654256
68	0xbde8b96f	-0.11363494
69	0xbded792e	-0.11595379
70	0xbda00705	-0.07813839
71	0xbd47532c	-0.048663303
72	0xbda507d9	-0.080581374
73	0xbd6e18a6	-0.058128975
74	0x3d986ba0	0.07442403
75	0x3db57a38	0.08861202
76	0x3db2d220	0.087314844
77	0x3dcbcfc4	0.099517375
78	0x3d092fac	0.03349273
79	0x3d248d30	0.04017371
80	0xbe1e8cde	-0.15483424
81	0xbd956d6a	-0.0729626
82	0xbe0f2e20	-0.13982439
83	0xbe2d8a45	-0.16947277
84	0xbe1764ea	-0.1478459
85	0x3dc89b1c	0.0979521
86	0xbdd42bd9	-0.10359926
87	0x3cced948	0.025250092
88	0xbc662420	-0.014046699
89	0x3e2f1c1a	0.17100564
90	0xbc8cfc48	-0.01721014
91	0xbe0a784a	-0.13522449
92	0x3deb05a0	0.11475682
93	0xbd5bd4f0	-0.05366987
94	0x3de45378	0.11148733
95	0x3df60ce8	0.120141804
96	0xbe2733de	-0.1632838
97	0xbdaa0a27	-0.08302718
98	0x3e063942	0.1310778
99	0x3e20788c	0.15670985
100	0xbe1f127f	-0.155344
101	0xbdbf8e63	-0.0935333
102	0xbe2e07c3	-0.16995148
103	0xbdd2af92	-0.10287394
104	0x3e2b29ea	0.16715208
105	0xbdf1ad2d	-0.11800609
106	0x3d1b2e08	0.037885696
107	0x3bc2e120	0.005947247
108	0x3e348d98	0.17632139
109	0x3b9bace0	0.004750833
110	0xbd08d240	-0.033403635
111	0x3d1871fc	0.03721808
112	0xbe0f4dda	-0.13994542
113	0x3e06cffa	0.13165274
114	0x3df73644	0.12070897
115	0x3e2f038a	0.17091194
116	0x3e042f24	0.12908608
117	0xbde396f4	-0.111127764
118	0x3ce811f0	0.028328866
119	0xbd3006e4	-0.04297532
120	0xbdcafc13	-0.099113606
121	0x3db72d60	0.089442015
122	0xbc6626c0	-0.014047325
123	0x3d147498	0.036244005
124	0xbda19a4b	-0.07890757
125	0xbe139748	-0.14413178
126	0x3d23d0a0	0.039993882
127	0xbdb7890d	-0.08961687
128	0xbd8ff0de	-0.07028364
129	0xbe011a72	-0.12607744
130	0x3dd2c0e8	0.102907
131	0xbdd5dbfa	-0.10442348
132	0xbe25d740	-0.16195393
133	0x3ca9b760	0.020717323
134	0x3d8803d8	0.06641358
135	0xbe033b08	-0.12815487
136	0xbdacf3fb	-0.08444973
137	0xbd91e386	-0.07123475
138	0x3d93748c	0.07199964
139	0x3d9c0588	0.076182425
140	0xbe2a4275	-0.16626914
141	0x3e16d532	0.14729765
142	0x3d9d6f64	0.07687262
143	0xbda7b9a6	-0.081897065
144	0x3c656e60	0.014003366
145	0xbe32a9c0	-0.17447567
146	0xbdcc500a	-0.09976204
147	0xbe032517	-0.12807117
148	0x3e15dc2c	0.1463477
149	0xbdaf3e29	-0.08556778
150	0x3e1d3e5a	0.15355816
151	0xbe0604fc	-0.13087839
152	0xbc9ecd48	-0.019384995
153	0xbe215b1f	-0.15757416
154	0x3dabb2bc	0.083837
155	0xbb15d040	-0.0022859722
156	0xbe09eae2	-0.13468507
157	0x3e0b1a3e	0.1358423
158	0xbdfca7f4	-0.12336722
159	0xbdd24427	-0.10266905
160	0xbcbaac00	-0.022787094
161	0xbe074a7a	-0.13212004
162	0xbe2eefa2	-0.170836
163	0xbcf66620	-0.030077994
164	0xbdff6d7f	-0.124720566
165	0x3deb0bc0	0.114768505
166	0xbadebc80	-0.0016993433
167	0x3e227942	0.15866569
168	0xbd736360	-0.059420943
169	0xbcbf8460	-0.023378551
170	0xbd035de4	-0.032071963
171	0xbe29542a	-0.16536012
172	0x3c1a38e0	0.009412974
173	0xbd2d0f40	-0.04225087
174	0xbdc5bbdc	-0.09654972
175	0xbdc73a64	-0.09727934
176	0x3e1792da	0.14802113
177	0x3dd609d4	0.10451093
178	0x3dc6d584	0.097086936
179	0x3d61b8e8	0.05510798
180	0xbd9d002f	-0.07666051
181	0x3dd60a08	0.10451132
182	0x3d381464	0.04494132
183	0xbdb44b18	-0.088033855
184	0x3bcba100	0.006214261
185	0xbd41e40c	-0.047336623
186	0x3db443ec	0.088020176
187	0x3dae2a90	0.08504212
188	0xbe13a746	-0.14419279
189	0xbd3e5510	-0.04646784
190	0xbe19eb17	-0.15031086
191	0x3df45d64	0.11931875
192	0x3e25fc3e	0.16209504
193	0x3c6206e0	0.013795584
194	0xbe2758db	-0.1634249
195	0xbdbeff36	-0.093260214
196	0xbbfed780	-0.0077771544
197	0xbe2101aa	-0.15723291
198	0xbd30def4	-0.043181375
199	0x3c92a668	0.017901614
200	0x3e199152	0.14996842
201	0x3d941670	0.07230842
202	0xbd6ef880	-0.058342457
203	0xbd6d7934	-0.057976916
204	0x3c552410	0.013009086
205	0x3e1bdab6	0.1522015
206	0xbc2b38b0	-0.010450527
207	0xbe1c3481	-0.15254404
208	0xbcf2c3e0	-0.029634416
209	0xbdfd7585	-0.12375931
210	0xbe0f06c6	-0.13967428
211	0x3dda7eb4	0.10668698
212	0xbd4a484c	-0.049385354
213	0x3c1394f0	0.009007677
214	0x3d5b0d04	0.05347921
215	0xbdfee872	-0.12446679
216	0xbe188ab6	-0.14896664
217	0x3d5abaf8	0.053400964
218	0xbddf7ddd	-0.109126784
219	0xbe1ba794	-0.15200645
220	0x3e1a05f6	0.15041336
221	0x3d10da14	0.035364226
222	0x3dbe3f3c	0.09289405
223	0xbdb9988f	-0.09062301
224	0xbe0d4421	-0.1379552
225	0x3d01ea54	0.031717613
226	0xbe1ceb6a	-0.15324178
227	0x3c8b6fe8	0.017021134
228	0xbd4bd84c	-0.049766824
229	0x3e352c44	0.17692667
230	0x3e0e65f2	0.13906077
231	0xbe04aff4	-0.12957746
232	0xbdd883a5	-0.10571984
233	0x3dbb157c	0.09134957
234	0x3e16a78a	0.14712349
235	0xbd926df4	-0.07149878
236	0xbe23ab54	-0.15983325
237	0x3e105642	0.14095405
238	0x3def4a0c	0.11684045
239	0xbd189464	-0.03725089
240	0x3b854ae0	0.0040677637
241	0xbdba943b	-0.09110304
242	0xbda8e5ed	-0.0824698
243	0x3d87ade0	0.06624961
244	0x3e0d4a90	0.13797975
245	0xbc5fe120	-0.013664514
246	0x3d166418	0.03671655
247	0xbe2084e3	-0.15675692
248	0xbe2292c9	-0.15876307
249	0xbe278629	-0.16359772
250	0xbd49c08c	-0.049255893
251	0xbe1ed551	-0.15511061
252	0x3e19b252	0.1500943
253	0xbe20714a	-0.15668216
254	0xbe29d4a1	-0.16585018
255	0xbe1aab07	-0.15104304

bias f4 [84]
0	0x3d0af6da	0.033926822
1	0x3d959aa7	0.07304888
2	0x3d4b0cea	0.049572863
3	0xbd8aeaa6	-0.06783037
4	0xbd53530b	-0.051592868
5	0x3c0b5c90	0.008505955
6	0x3c5efd18	0.013610147
7	0xbc9e586c	-0.019329272
8	0x3c87be64	0.016570278
9	0xbccfeb1c	-0.025380664
10	0x3d89e291	0.06732667
11	0xbdaf6a64	-0.08565214
12	0x3cd18098	0.025574014
13	0xbd6602f5	-0.056155164
14	0x3c6103e0	0.013733834
15	0x3cb80b38	0.022466287
16	0x3d2b5572	0.041829534
17	0xbd2a012e	-0.04150503
18	0xbd85ce1c	-0.06533453
19	0x3d99c73b	0.07508703
20	0x3d0e203e	0.034698717
21	0xbd8bda2e	-0.06828724
22	0x3d96313f	0.07333612
23	0xbdc0d34e	-0.09415303
24	0xbd0f6e88	-0.03501752
25	0xbce28e10	-0.027655631
26	0xbabc9380	-0.001438722
27	0xbcdb1958	-0.026745483
28	0x3c458028	0.012054481
29	0xbc131f38	-0.008979611
30	0x3d8dfa8d	0.069325544
31	0xbdbce394	-0.092230946
32	0x3ba2f320	0.0049728304
33	0xbc9d4678	-0.019198641
34	0x3d72181a	0.059105016
35	0xbced929c	-0.029000573
36	0xbd9ff7b2	-0.07810916
37	0xbd9b6086	-0.0758677
38	0xbc8745b0	-0.016512722
39	0xbda8c392	-0.08240427
40	0xbda19a28	-0.07890731
41	0x3bb3de60	0.0054891557
42	0x3d941e6b	0.07232364
43	0x3d814325	0.06311635
44	0x3d033c3a	0.03203986
45	0x3d114d06	0.035473846
46	0xbd2e67a9	-0.042579327
47	0x3d67cc22	0.05659116
48	0x3d03ebd6	0.032207333
49	0xbd05d55c	-0.03267418
50	0x3d279a06	0.040918373
51	0x3d28e18a	0.041230716
52	0x3d84ddf7	0.06487649
53	0x3d58038e	0.052737765
54	0x3c95fbdc	0.018308572
55	0xbce3e4a4	-0.027818985
56	0xbd0ec16e	-0.034852438
57	0x3ca780c0	0.020447135
58	0xbd79938b	-0.060931724
59	0xbd3b91d2	-0.045793362
60	0x3cfbe3f4	0.030748345
61	0xbc216ef0	-0.00985311
62	0xbbb76350	-0.005596556
63	0x3b579e80	0.003290087
64	0x3cfd6994	0.030934133
65	0xbdaae299	-0.08344001
66	0x3d5f2506	0.054478668
67	0x3d466252	0.04843361
68	0x3d5de25e	0.05417096
69	0x3ca192f0	0.019723386
70	0x3cef7ba4	0.029233761
71	0x3cbd48c8	0.023105994
72	0xbdb81976	-0.08989231
73	0x3d920205	0.071292914
74	0xbc9ec568	-0.01938124
75	0xbc830aa4	-0.015996285
76	0xbc1a3b58	-0.009413563
77	0xbd8ac988	-0.0677672
78	0xbd0fdfd9	-0.035125587
79	0xbd0b4950	-0.034005463
80	0x3caa2a84	0.020772226
81	0x3d321dbe	0.043485396
82	0xbd2f977f	-0.042869087
83	0xbdb7513f	-0.08951043

weight f4 [42, 84]
0	0xbe0858a2	-0.1331506
1	0x3d93b262	0.07211758
2	0xbe2218be	-0.15829751
3	0xbce3e968	-0.027821258
4	0xbdf973c0	-0.12180281
5	0x3bb629e0	0.005559191
6	0xbd7c8080	-0.061645985
7	0x3cd36a10	0.02580741
8	0x3bfb92a0	0.007677391
9	0xbcc0f130	-0.023552507
10	0xbe060230	-0.13086772
11	0xbd959222	-0.07303263
12	0xbe06c6f3	-0.1316183
13	0xbd430234	-0.047609523
14	0x3e0e7243	0.13910775
15	0x3d92b4aa	0.07163365
16	0x3d03507c	0.032059178
17	0xbdd26cc7	-0.10274654
18	0xbe453527	-0.19258557
19	0x3e0693a5	0.1314226
20	0xbe06062c	-0.13088292
21	0xbc2efab0	-0.010679886
22	0xbdf31d37	-0.11870807
23	0xbcab4e80	-0.020911455
24	0x3ddf8aaa	0.1091512
25	0xbcd13b00	-0.025540829
26	0xbdd58f89	-0.10427768
27	0xbb353ec0	-0.002765581
28	0x3c1ae2a0	0.009453446
29	0xbd80af36	-0.06283419
30	0x3e3925db	0.18080847
31	0x3e1767ff	0.14785765
32	0xbdbafb2c	-0.091299385
33	0x3b81d2c0	0.003961891
34	0xbdd7592a	-0.105150536
35	0x3e0dadc5	0.13835819
36	0x3d8a3b2e	0.06749569
37	0x3dcefd5a	0.10106917
38	0x3e58d393	0.21174459
39	0x3dd18a2e	0.10231434
40	0x3e28db79	0.16489972
41	0x3e4cd6d9	0.20003833
42	0x3e55e04d	0.20886345
43	0xbc9bf260	-0.019036472
44	0xbe38c35d	-0.18043275
45	0xbd840b42	-0.0644746
46	0xbe38c8e8	-0.1804539
47	0xbdc8f805	-0.09812931
48	0x3dbb8a1a	0.091572
49	0x3d6ca99c	0.05777894
50	0x3d7a398c	0.061090037
51	0xbddefdae	-0.10888229
52	0x3e07fcb9	0.1328
53	0xbd8ccb02	-0.06874658
54	0xbe3d635c	-0.18494934
55	0x3dddff8e	0.10839759
56	0xbdef378d	-0.11680517
57	0x3e472d81	0.19450952
58	0x3cea22f0	0.028581113
59	0x3d2d6bac	0.042339012
60	0x3e3d853f	0.1850786
61	0x3d8e26da	0.06941004
62	0x3e42df53	0.19030504
63	0x3e06b4b7	0.13154875
64	0xbe194414	-0.14967376
65	0xbe0875e0	-0.13326216
66	0x3e4d1aad	0.20029707
67	0xbc643c60	-0.01393041
68	0xbd2a495c	-0.041573867
69	0x3dfcda36	0.12346308
70	0xbe2baab6	-0.1676434
71	0xbdeaf4bc	-0.11472461
72	0xbe38c900	-0.18045425
73	0xbda4e9e4	-0.080524236
74	0x3cc0df78	0.023544058
75	0x3e1d8d49	0.15385927
76	0xbe23568d	-0.15950985
77	0x3dd2e39e	0.10297321
78	0xbd8f13e4	-0.06986216
79	0x3d97b726	0.0740798
80	0xbe2c5d09	-0.16832365
81	0x3dc32dbe	0.09530209
82	0xbe4b8522	-0.19875005
83	0x3d7283b4	0.059207633
84	0x3da9c02a	0.082886055
85	0xbe5701df	-0.20996808
86	0xbe35c55f	-0.17751072
87	0xbc4a12c0	-0.012333572
88	0xbc9bceb0	-0.019019455
89	0x3dcc910e	0.099886045
90	0x3e5361af	0.20642732
91	0xbe57eb4c	-0.21085852
92	0x3e3ab685	0.18233688
93	0xbe48bb8a	-0.1960279
94	0x3e183e63	0.14867549
95	0xbe258de6	-0.16167411
96	0x3e0288db	0.12747519
97	0x3d084af4	0.033274606
98	0x3db555aa	0.0885423
99	0x3de02bee	0.10945879
100	0x3d2a090c	0.041512534
101	0xbdc9b082	-0.09848119
102	0xbdf5147b	-0.11966797
103	0xbda3a442	-0.07990314
104	0xbde14a10	-0.110004544
105	0x3db99892	0.090623036
106	0x3dcd0116	0.10009973
107	0xbe4c893f	-0.1997423
108	0xbe5b986c	-0.21444863
109	0x3e49e215	0.1971515
110	0x3dc54c16	0.09633653
111	0xbdf2d5dc	-0.11857197
112	0x3d9d952e	0.076944694
113	0x3e208543	0.15675835
114	0xbdada1a0	-0.08478093
115	0x3d85dbc2	0.06536056
116	0xbb89f120	-0.0042096525
117	0x3cfbd878	0.030742869
118	0x3dc7b9f6	0.09752266
119	0xbdab6220	-0.08368325
120	0x3e5bb387	0.21455203
121	0x3e532581	0.20619775
122	0x3dceae4e	0.1009184
123	0xbe330bf9	-0.17485036
124	0x3e50f3b3	0.20405464
125	0xbc963608	-0.018336311
126	0xbe5b5794	-0.21420127
127	0x3ca6ea30	0.020375341
128	0xbdee9480	-0.11649418
129	0x3e3a2ced	0.181812
130	0x3d7d4144	0.06182982
131	0x3e51ca63	0.2048736
132	0xbdb79f38	-0.089659154
133	0xbe16ee31	-0.147393
134	0xbdb75046	-0.08950858
135	0xbdb9da5c	-0.09074852
136	0x3e1655d9	0.14681186
137	0x3bf3b3e0	0.0074372143
138	0xbe46a4e1	-0.19398834
139	0xbe24a5aa	-0.16078821
140	0xbde7fdfa	-0.11327739
141	0xbde548f2	-0.11195554
142	0x3e2cf639	0.16890801
143	0x3be6b780	0.007040918
144	0x3d0d63f4	0.03451915
145	0xbe501a1f	-0.20322464
146	0xbe2e3f0c	-0.17016238
147	0x3c85c090	0.016327173
148	0xbd83e556	-0.06440227
149	0x3d7a08fc	0.061043724
150	0xbbf824c0	-0.0075727403
151	0xbe08bfab	-0.13354366
152	0xbe40ab50	-0.1881535
153	0xbcd2ade0	-0.025717676
154	0xbc39f570	-0.011350021
155	0xbe500246	-0.20313367
156	0x3cadaa10	0.021199256
157	0x3c917038	0.017753705
158	0x3d9c734a	0.07639177
159	0x3d90e6e6	0.070752904
160	0x3e0d4345	0.13795193
161	0x3e52b45b	0.20576613
162	0xbe33bc00	-0.17552185
163	0x3cb9f888	0.022701517
164	0xbe28e3a9	-0.16493095
165	0xbcf77da8	-0.030211285
166	0xbc941358	-0.01807563
167	0x3d8c77ce	0.068587884
168	0xbcc65ad0	-0.024213225
169	0xbe338c36	-0.17533955
170	0xbda0ddb6	-0.07854788
171	0x3ce6ce38	0.028174505
172	0x3e28483f	0.1643381
173	0x3e308be7	0.17240869
174	0x3dc68aae	0.0969442
175	0x3e34e827	0.17666684
176	0xbcb9c7e0	-0.022678316
177	0x3da6e162	0.08148457
178	0x3d3f9ddc	0.046781406
179	0x3bc6fcc0	0.0060726106
180	0xbde23d78	-0.110468805
181	0x3dc27e72	0.09496774
182	0x3dafcd4a	0.08584078
183	0x3d936e46	0.07198767
184	0xbda392e2	-0.07987
185	0xbe5d944f	-0.21638606
186	0xbdd08dd1	-0.10183299
187	0xbe043ddc	-0.12914222
188	0x3e3f6a61	0.18692924
189	0xbcafaf88	-0.021446005
190	0x3dc90c52	0.09816803
191	0x3d6882a4	0.056765214
192	0xbd180f3c	-0.037123904
193	0x3dac9bc6	0.08428149
194	0x3e1a34c5	0.15059192
195	0xbd2b8654	-0.041876152
196	0xbda1bd4e	-0.07897435
197	0xbe4ef044	-0.20208842
198	0xbdb013c2	-0.085975185
199	0xbe1e3d6c	-0.15453118
200	0xbdbfc6ad	-0.09364066
201	0x3d9b604a	0.07586725
202	0xbcfd6100	-0.030930042
203	0x3d340794	0.04395254
204	0xbe5a4ef0	-0.21319175
205	0xbc026960	-0.007959694
206	0x3dbcfe8e	0.0922824
207	0xbe06d2f4	-0.1316641
208	0xbe4f306e	-0.20233318
209	0x3d21c3bc	0.039493307
210	0x3e4a31db	0.19745581
211	0x3dcf96c6	0.101361796
212	0x3df2c86e	0.11854635
213	0xbdf0fbb3	-0.11766758
214	0x3de05396	0.10953443
215	0xbd97a890	-0.074051976
216	0xbd3f396c	-0.04668562
217	0x3dcc50ca	0.09976347
218	0x3dfdb456	0.12387912
219	0x3bb30080	0.005462706
220	0xbe5e03c5	-0.21681125
221	0xbe57688e	-0.21035978
222	0xbe435bef	-0.19078039
223	0xbdf79d73	-0.12090578
224	0x3df4d1b2	0.11954059
225	0xbdb4e5f2	-0.08832921
226	0x3e009b61	0.12559272
227	0x3e01c315	0.12672074
228	0x3bdd6380	0.006756246
229	0x3e13b4d1	0.14424445
230	0x3d613b04	0.054987922
231	0xbd913796	-0.0709068
232	0x3e5c6b7f	0.21525382
233	0x3e3c931d	0.18415494
234	0xbdf0aa24	-0.11751202
235	0x3e4494f5	0.19197448
236	0xbc3ba450	-0.011452749
237	0x3a637400	0.0008676648
238	0xbda9843e	-0.08277176
239	0xbdb2107e	-0.08694552
240	0xbe1a484e	-0.15066645
241	0x3dfdc146	0.123903796
242	0x3da6bbbe	0.08141278
243	0x3c9314d8	0.017954275
244	0x3e5f1e63	0.21788935
245	0x3e03bc53	0.12864809
246	0xbd9fe20e	-0.078067884
247	0xbdbfbbbd	-0.0936198
248	0xbcb97fb8	-0.022643909
249	0x3da91842	0.0825658
250	0xbd02051c	-0.031743154
251	0xbda719cc	-0.08159217
252	0x3e538a21	0.20658161
253	0x3d4b83c4	0.04968621
254	0xbda0785a	-0.07835455
255	0xbdf9cf28	-0.12197715

bias f4 [42]
0	0x39018000	0.00012350082
1	0xbd3e4c50	-0.046459496
2	0xbd961e82	-0.07330038
3	0x3daf0b7f	0.085471146
4	0x3dace7d1	0.08442653
5	0x3d4334ce	0.04765778
6	0xbdc19a4f	-0.0945326
7	0xbd006d40	-0.03135419
8	0xbd6b639a	-0.057468034
9	0x3dcfedd1	0.10152782
10	0x3da450ef	0.08023249
11	0xbdc3a7b6	-0.09553473
12	0xbc906084	-0.017624147
13	0xbcd24ae8	-0.025670484
14	0x3d32e6e2	0.04367722
15	0xbdddd19f	-0.10830998
16	0xbdada359	-0.08478422
17	0x3ca48cec	0.020086728
18	0x3d2c6a66	0.042093657
19	0xbc46c188	-0.012131102
20	0x3ce960cc	0.02848854
21	0xbc9c0c94	-0.019048966
22	0xbdc894d5	-0.097940125
23	0x3ce7a4e4	0.028276868
24	0xbd2abdee	-0.041685037
25	0x3d5ac1f2	0.053407617
26	0x3c2bbcb0	0.010481998
27	0xbd92c04e	-0.071655855
28	0x3d89270d	0.066969015
29	0x3d9da7ef	0.076980464
30	0x3c85c53c	0.0163294
31	0xbcf434d0	-0.02981034
32	0xbdcf33d4	-0.10117307
33	0xbdb15e27	-0.08660536
34	0xbbe24f50	-0.0069064274
35	0x3d435802	0.047691353
36	0xbdad8b3c	-0.084738225
37	0xbcf3a82c	-0.029743277
38	0x3da0fda1	0.07860876
39	0x3ddc7475	0.107644
40	0x3dcadf17	0.09905832
41	0xbdb18209	-0.0866738

weight f4 [21, 42]
0	0xbe278635	-0.1635979
1	0xbc8fcb50	-0.017553002
2	0xbd269450	-0.040668786
3	0x3e515cea	0.204456
4	0x3e5ec0f6	0.21753296
5	0xbe6f8248	-0.23389542
6	0x3e4b0026	0.19824275
7	0xbd287b30	-0.041133106
8	0x3e05b0e6	0.13055763
9	0xbd8a8864	-0.06764296
10	0x3bca6280	0.006176293
11	0x3d9b13b4	0.075721174
12	0x3dc959ec	0.09831604
13	0xbe3a990d	-0.18222447
14	0xbe8c5bb6	-0.2741372
15	0xbe318921	-0.17337467
16	0x3e850483	0.25980005
17	0x3de6d1fc	0.1127052
18	0xbe5a7de8	-0.21337092
19	0xbda53ba0	-0.08068013
20	0xbe761ace	-0.24033663
21	0x3dcd30b0	0.10019052
22	0xbe637b72	-0.2221506
23	0xbe95ce29	-0.2925885
24	0x3dfd31c4	0.12363008
25	0x3e2bc358	0.16773736
26	0x3d83bda8	0.064326584
27	0x3e47dec6	0.19518575
28	0x3e2558ae	0.1614711
29	0x3d6f8760	0.058478713
30	0xbe85a1a4	-0.26099885
31	0xbe12bfc2	-0.14330962
32	0x3e847299	0.2586868
33	0xbe0d7a9d	-0.13816305
34	0x3decc668	0.115612805
35	0xbe99fab9	-0.300741
36	0xbd9ae17c	-0.07562539
37	0xbda977a4	-0.08274773
38	0xbdfb055e	-0.12256883
39	0x3e77a1be	0.24182793
40	0x3e8f2f13	0.27965602
41	0xbe6fedda	-0.23430577
42	0x3d0ef9c0	0.03490615
43	0xbd786c20	-0.06064999
44	0xbdb305e4	-0.08741358
45	0x3d6a0280	0.05713129
46	0xbe09f677	-0.13472925
47	0xbe50157e	-0.20320699
48	0x3d7fbd38	0.062436312
49	0x3da35f24	0.07977131
50	0x3e9710a1	0.29504874
51	0xbd6e9b08	-0.058253318
52	0xbdf2de2a	-0.11858781
53	0xbe1da740	-0.15395832
54	0x3d93701c	0.071991175
55	0x3dbf4c24	0.093406945
56	0xbdc79926	-0.097460076
57	0x3d979820	0.074020624
58	0xbd193dd8	-0.037412494
59	0xbe518ee6	-0.20464668
60	0xbbad89c0	-0.005295962
61	0xbe8065e1	-0.25077727
62	0xbb5c4c80	-0.0033614933
63	0xbde6e1c4	-0.1127353
64	0xbe1b16fd	-0.15145488
65	0x3e27f882	0.16403392
66	0xbe28c374	-0.1648081
67	0xbe2ed317	-0.17072712
68	0x3e0019fc	0.12509912
69	0xbe07f8e9	-0.13278545
70	0xbc1cf6c0	-0.009580314
71	0xbdeae514	-0.114694744
72	0x3e8f209f	0.27954575
73	0xbe31fbf8	-0.17381275
74	0x3e5c77d6	0.21530089
75	0xbdd3553a	-0.1031899
76	0x3ca3cd90	0.01999548
77	0x3e8528ad	0.26007596
78	0xbe8f1e62	-0.27952868
79	0x3e1364b4	0.14393884
80	0x3da52344	0.08063367
81	0xbe8e348d	-0.27774468
82	0x3cab51e0	0.020913064
83	0x3da27b9c	0.07933733
84	0x3e866203	0.26246652
85	0xbe61570e	-0.22005865
86	0x3e97581d	0.29559413
87	0xbd8403ee	-0.06446062
88	0xbdd6fea4	-0.104977876
89	0xbd912ea0	-0.07088971
90	0x3e0e104a	0.13873401
91	0xbe43ad8e	-0.19109175
92	0x3d844be8	0.064597905
93	0xbe6554c3	-0.22395615
94	0x3d1f38a0	0.03887236
95	0x3df5a9d8	0.11995286
96	0xbe46553b	-0.1936845
97	0x3e952e01	0.2913666
98	0x3dc274c0	0.094949245
99	0xbe7c9112	-0.24664715
100	0xbcfeaa20	-0.031086981
101	0x3e96dc65	0.29465023
102	0x3d25b810	0.04045874
103	0x3e59340e	0.21211264
104	0xbd2e96f8	-0.042624444
105	0xbe361e33	-0.17784958
106	0x3de49118	0.11160487
107	0x3e9155ff	0.28385922
108	0x3e1873e4	0.14887959
109	0xbe582675	-0.2110842
110	0xbe070d74	-0.13188726
111	0xbe37a6ce	-0.17934725
112	0x3dfaba04	0.12242511
113	0x3ce69230	0.02814588
114	0x3e8e6de7	0.27818224
115	0xbe876932	-0.26447445
116	0xbe887682	-0.26652914
117	0x3e7e0c0e	0.24809286
118	0x3e9bc5b3	0.3042427
119	0xbdfa290c	-0.1221486
120	0xbe9cd526	-0.3063137
121	0xbe101fd3	-0.1407464
122	0x3d87abd4	0.066245705
123	0x3d9ab038	0.07553142
124	0x3e465a96	0.19370493
125	0x3e79cb62	0.2439399
126	0xbd5b9f70	-0.05361885
127	0xbe219b84	-0.15781981
128	0xbd8f9b32	-0.07012023
129	0x3db4f3f4	0.08835593
130	0x3e1cb9d0	0.15305257
131	0x3d401f30	0.046904743
132	0xbcbc68d0	-0.022999197
133	0x3c790c40	0.0152006745
134	0xbe3e85e7	-0.18605767
135	0x3c6048c0	0.01368922
136	0x3e894aa9	0.26814774
137	0xbe908430	-0.2822585
138	0xbe364a50	-0.17801785
139	0x3e90fa9d	0.28316203
140	0x3b5eb880	0.0033984482
141	0xbe279923	-0.16367011
142	0xbe80fdbc	-0.25193584
143	0xbe7cf599	-0.24703063
144	0x3d84ce3c	0.064846486
145	0x3e7e34b6	0.24824795
146	0xbe3a1bd3	-0.18174677
147	0xbe684038	-0.22680748
148	0xbe95c638	-0.2925279
149	0x3e3974ac	0.18110913
150	0x3e4a25da	0.19741002
151	0x3d72fa70	0.059320867
152	0x3d9f4234	0.07776299
153	0x3ce337c0	0.027736545
154	0x3e693746	0.22774991
155	0xbe537d6a	-0.2065331
156	0x3e2682cc	0.16260833
157	0xbe8ff0b4	-0.2811333
158	0xbe19c947	-0.15018187
159	0xbcb8b190	-0.022545606
160	0xbdc3a8b4	-0.09553662
161	0x3e642fca	0.22283855
162	0x3e92e5ef	0.2869105
163	0xbe3aafa0	-0.18231058
164	0xbddb65d2	-0.1071278
165	0x3e039ac0	0.12852001
166	0xbe86c11d	-0.2631921
167	0x3e96b8a7	0.29437754
168	0x3e205a36	0.15659413
169	0xbdba228a	-0.09088619
170	0x3e0959fe	0.13413236
171	0x3cc08b60	0.02350396
172	0x3e4e18be	0.20126626
173	0x3e44ab8a	0.19206062
174	0xbe577466	-0.21040496
175	0x3c3ff740	0.011716664
176	0x3e5ad56a	0.21370474
177	0xbe6d4ea2	-0.23174527
178	0xbdefd710	-0.11710942
179	0xbe372ad0	-0.17887425
180	0xbe7f6bf2	-0.24943522
181	0x3d4dce50	0.050245583
182	0xbe9dc743	-0.30816087
183	0x3d216e88	0.03941205
184	0xbd26d1b0	-0.040727317
185	0xbcd31220	-0.025765479
186	0xbe2f9b00	-0.17148972
187	0x3e3e5958	0.1858877
188	0xbe9d4b7b	-0.3072165
189	0x3ce79a00	0.028271675
190	0xbbbe4e80	-0.005807698
191	0x3e4ca3de	0.19984385
192	0xbe85a590	-0.26102877
193	0xbe0081b8	-0.12549484
194	0xbe64c76c	-0.22341698
195	0xbe37d597	-0.17952572
196	0xbe2a97e9	-0.16659512
197	0x3af7a200	0.0018892884
198	0xbe2b3c8b	-0.16722314
199	0x3e795742	0.24349692
200	0x3dfa6f94	0.12228313
201	0x3daa6248	0.08319527
202	0xbe3c3234	-0.18378526
203	0xbe5ef763	-0.21774058
204	0x3e7c933e	0.24665543
205	0x3e92cf11	0.28673604
206	0x3e0cd3a4	0.1375261
207	0xbe596ac6	-0.21232137
208	0x3d3976b0	0.045279205
209	0x3d016ff0	0.031600893
210	0xbe1960c4	-0.1497832
211	0x3c7bc440	0.015366614
212	0x3e6288be	0.22122476
213	0x3e783d86	0.2424222
214	0xbe8d7877	-0.2763097
215	0x3e15c408	0.14625561
216	0xbd8e06c6	-0.06934886
217	0x3e429556	0.1900228
218	0xbe175888	-0.14779866
219	0x3d81712c	0.06320414
220	0x3e8ea6f7	0.2786176
221	0xbdbdce9c	-0.09267923
222	0xbe7ce2df	-0.2469592
223	0x3c806690	0.015673906
224	0xbe859ff9	-0.26098612
225	0x3e87a49b	0.26492772
226	0xbe2dcd3a	-0.16972819
227	0x3e8743e7	0.26418993
228	0xbe53f7ff	-0.20700072
229	0x3e241b2c	0.1602599
230	0xbe5c892e	-0.21536705
231	0xbe37e787	-0.17959414
232	0xbe8d4971	-0.27595094
233	0xbe89887d	-0.26861945
234	0x3e3c5892	0.18393162
235	0xbd7cf388	-0.061755687
236	0x3e8df75b	0.2772778
237	0x3ca02a90	0.019551545
238	0x3c0bda60	0.008535951
239	0xbe777990	-0.24167466
240	0xbe19750e	-0.14986059
241	0x3dad9bec	0.08477005
242	0x3e95705f	0.29187295
243	0xbe9b56e9	-0.30339745
244	0xbe5f7db5	-0.21825297
245	0x3e96638b	0.2937282
246	0xbe7b2e2a	-0.24529329
247	0xbd9ecbd2	-0.077537194
248	0xbe3756b4	-0.17904168
249	0xbe2a04ed	-0.16603442
250	0x3e1f554e	0.15559885
251	0xbcaad6d0	-0.020854384
252	0x3ce3c540	0.027804017
253	0x3bafe9c0	0.0053684413
254	0xbe7e45a7	-0.24831258
255	0xbe1df196	-0.15424189

bias f4 [21]
0	0xbc663680	-0.01405108
1	0xbd2c97ce	-0.04213696
2	0xbe006f06	-0.12542352
3	0xbe09a443	-0.13441567
4	0x3dd78a2a	0.105243996
5	0xbd709e94	-0.058744982
6	0x3db5992a	0.08867104
7	0xbddb3190	-0.10702813
8	0xbe0aeb84	-0.13566405
9	0x3da63342	0.081152454
10	0x3dcc897e	0.09987162
11	0x3d880f5e	0.06643556
12	0x3db0a4f4	0.08625212
13	0xbd64237e	-0.05569791
14	0x3c89cab0	0.016820282
15	0x3c67aa10	0.014139667
16	0x3d73b6b0	0.059500396
17	0x3dfecf5a	0.12441893
18	0xbc2940b0	-0.010330364
19	0x3d30fe60	0.04321134
20	0xbd92fc0f	-0.071769826

weight f4 [10, 21]
0	0xbe965bc8	-0.293669
1	0xbe8d047b	-0.2754248
2	0x3ee0f7da	0.43939096
3	0x3eca44d2	0.3950563
4	0xbd9e0bf4	-0.07717124
5	0xbed87749	-0.42278507
6	0x3e159b04	0.14609915
7	0x3e84acea	0.25913173
8	0xbe642bc8	-0.22282326
9	0x3e455c58	0.19273508
10	0xbeb27cba	-0.34860784
11	0xbd0ac880	-0.033882618
12	0x3e963fc4	0.29345524
13	0x3eb82c12	0.35971123
14	0x3e4490c0	0.19195843
15	0x3ec37906	0.3817827
16	0x3e6d4ae8	0.23173106
17	0x3caf4c20	0.021398604
18	0xbe6301c0	-0.22168636
19	0x3e99e220	0.30055332
20	0xbeddef37	-0.4334657
21	0xbd516550	-0.05112201
22	0xbd9f023c	-0.07764098
23	0x3e69b094	0.22821265
24	0x3e9ba240	0.30397224
25	0x3b8a8640	0.0042274296
26	0xbe5acd1d	-0.21367307
27	0xbc998450	-0.01873985
28	0xbe978f60	-0.29601574
29	0xbea63e6a	-0.32469493
30	0xbec55c5f	-0.38547036
31	0x3e37e968	0.17960131
32	0xbe07b518	-0.13252676
33	0x3e0629d8	0.131019
34	0xbe43a212	-0.19104794
35	0x3ea63c28	0.3246777
36	0x3ea5f5ae	0.32414
37	0xbd5b3f48	-0.053527147
38	0xbe250d22	-0.16118291
39	0x3eae6b88	0.34066415
40	0xbe0337dc	-0.12814277
41	0x3dcadf60	0.09905887
42	0x3e5f559c	0.21810001
43	0xbe3209ca	-0.17386547
44	0x3ea27d46	0.317362
45	0x3dee0df8	0.11623758
46	0x3d9e88a8	0.07740909
47	0xbe785914	-0.2425273
48	0xbdeadd68	-0.11468011
49	0x3e7f98d0	0.24960637
50	0x3eb566f6	0.35430115
51	0x3e1fb504	0.15596396
52	0xbe446c0b	-0.1918184
53	0xbe9bcfc4	-0.3043195
54	0xbe745b38	-0.23862922
55	0x3ed51276	0.41615647
56	0x3e527ca0	0.20555353
57	0x3e67d994	0.22641593
58	0x3e089da8	0.13341391
59	0x3e92266a	0.28544933
60	0x3e2a7608	0.16646588
61	0x3e9b241e	0.30300993
62	0xbec6aa7e	-0.3880195
63	0x3e207e44	0.15673167
64	0xbdf1b310	-0.118017316
65	0x3e4c3850	0.19943357
66	0x3e9153c8	0.28384233
67	0xbde0ab44	-0.10970166
68	0xbea4d140	-0.32190895
69	0xbe9956ce	-0.2994904
70	0x3e2c3520	0.1681714
71	0x3dda3bd8	0.106559455
72	0xbd974c98	-0.07387656
73	0xbda6f2d0	-0.081517816
74	0xbdfffa5c	-0.12498924
75	0xbe61112e	-0.2197921
76	0xbe9f9f7a	-0.31176358
77	0xbd6798d0	-0.056542218
78	0xbecb7646	-0.39738673
79	0xbd8294c0	-0.06376028
80	0x3ecc2d7e	0.39878458
81	0xbe8dfc28	-0.27731442
82	0xbed65f80	-0.41869736
83	0x3e813ca8	0.2524159
84	0xbc982bd0	-0.018575579
85	0xbde957e0	-0.11393714
86	0x3c969490	0.018381387
87	0x3e48fe78	0.19628322
88	0xbecc1f30	-0.39867544
89	0x3dd73b80	0.105093956
90	0x3eae2ae0	0.34017086
91	0x3e88eb56	0.26742047
92	0x3e88534e	0.26626056
93	0x3e217ea8	0.15770972
94	0xbcd2df50	-0.02574125
95	0x3eaef466	0.34170836
96	0xbeb7af19	-0.35875776
97	0xbe6ba22c	-0.23011082
98	0x3d87b658	0.06626576
99	0x3daaffe8	0.083495915
100	0x3e38a880	0.18033028
101	0x3e43a194	0.19104606
102	0x3e9b7be4	0.3036796
103	0xbd84df24	-0.06487873
104	0x3e048f9c	0.12945408
105	0xbecd27fa	-0.40069562
106	0x3d71f640	0.059072733
107	0x3ede6042	0.43432814
108	0xbc782dc0	-0.015147626
109	0x3e938358	0.28811145
110	0x3e3b5ad8	0.18296373
111	0xbe2bf2de	-0.16791865
112	0x3d8277b8	0.06370491
113	0xbe238ede	-0.15972468
114	0xbed0049c	-0.40628517
115	0x3e078da0	0.1323762
116	0xbedd83e6	-0.43264693
117	0x3e0df4b0	0.13862872
118	0xbe59a331	-0.21253659
119	0x3e7d9a9c	0.2476601
120	0xbec72fa3	-0.3890353
121	0xbd7d1580	-0.061788082
122	0xbedc6830	-0.4304824
123	0xbda4cde8	-0.08047086
124	0x3eb68172	0.35645634
125	0xbdbe691c	-0.09297392
126	0x3e67aa4c	0.22623557
127	0x3eb12cb8	0.3460443
128	0x3ebcb82a	0.36859256
129	0x3ea1a516	0.31571263
130	0x3ea23cc2	0.3168698
131	0xbcca33d0	-0.02468291
132	0x3e3f2d20	0.18669558
133	0x3eb9fa0c	0.36323583
134	0x3ebb15a6	0.36539954
135	0x3e390e80	0.18071938
136	0x3c646160	0.013939232
137	0xbe60e93a	-0.21963969
138	0xbc398e00	-0.011325359
139	0xbe3014b4	-0.17195398
140	0x3e0c91ac	0.13727444
141	0x3e93ba1e	0.28852934
142	0x3e969642	0.29411513
143	0x3e976ab4	0.29573596
144	0x3ed820a2	0.42212397
145	0xbb7b1280	-0.0038310587
146	0xbe059188	-0.13043797
147	0x3e3d47b0	0.18484378
148	0xbd92dd94	-0.07171169
149	0xbe0b5e88	-0.1361028
150	0x3e93108c	0.28723562
151	0xbedd7c01	-0.4325867
152	0xbd35eb30	-0.044413745
153	0x3e90236c	0.28152025
154	0xbcac6de0	-0.021048486
155	0xbe3a2178	-0.1817683
156	0x3e3ba7cc	0.18325728
157	0x3dd0a050	0.10186827
158	0xbe8422a0	-0.25807667
159	0xbc8d9b10	-0.017285854
160	0xbebba02c	-0.3664564
161	0xbe40a72c	-0.18813771
162	0xbdf47570	-0.11936462
163	0x3df28290	0.11841309
164	0xbe35348e	-0.1769583
165	0x3ed4e21a	0.41578752
166	0xbe963614	-0.29338133
167	0x3ed5f65a	0.41789514
168	0x3e36c3e8	0.1784817
169	0x3d56b6c8	0.052420408
170	0x3e772b44	0.24137598
171	0xbec9ad1c	-0.39389884
172	0xbea82000	-0.32836914
173	0xbdc56c0c	-0.09639749
174	0xbe7f3ffe	-0.24926755
175	0x3d0ac588	0.033879787
176	0xbec07217	-0.37587044
177	0x3e59780c	0.212372
178	0xbe1c2898	-0.1524986
179	0x3e3cc1a8	0.18433249
180	0xbe4d952e	-0.20076439
181	0x3d911cc0	0.07085562
182	0x3e8fb330	0.28066397
183	0xbe1a8232	-0.15088728
184	0x3e836f54	0.25670874
185	0x3e975e96	0.2956435
186	0xbd652520	-0.05594361
187	0x3d1bb768	0.038016707
188	0x3ec9b1e4	0.39393532
189	0xbe8c7faa	-0.2744115
190	0x3e256424	0.16151482
191	0x3e1e03bc	0.15431112
192	0xbe8df3d6	-0.27725095
193	0xbe9eba27	-0.31001398
194	0x3ed1f1c8	0.41004777
195	0xbed562f8	-0.4167707
196	0xbec3a590	-0.38212252
197	0xbd11c020	-0.035583615
198	0x3e656d18	0.22404897
199	0xbeb6b490	-0.35684633
200	0x3e3662dc	0.1781115
201	0x3d941550	0.072306275
202	0x3e483e5c	0.19555038
203	0xbe030268	-0.12793887
204	0x3e8e53bc	0.2779826
205	0xbecd4db4	-0.40098345
206	0x3db69de8	0.08916837
207	0xbedd099b	-0.4317139
208	0x3e6c0a40	0.23050785
209	0x3ecdb008	0.40173364

bias f4 [10]
0	0x3e245ab1	0.16050221
1	0xbd22b4e8	-0.039723307
2	0xbdc12e0e	-0.09432612
3	0xbe24f4dc	-0.16109031
4	0xbce7a1e0	-0.02827543
5	0xbe43c2c0	-0.1911726
6	0xbe300a88	-0.17191517
7	0xbd4a469c	-0.049383745
8	0xbd017d3c	-0.031613573
9	0xbe2f3ffd	-0.17114253

weight f4 [1, 10]
0	0x3e68bdac	0.22728604
1	0xbef8580f	-0.48504683
2	0x3d9b4d78	0.07583135
3	0x3e86264e	0.262011
4	0x3eb1f242	0.3475514
5	0x3f39df3d	0.7260626
6	0x3f231cab	0.6371562
7	0xbe492c54	-0.19645816
8	0xbbf97b00	-0.0076135397
9	0xbe8e15ea	-0.27751094

weight f4 [84, 105]
0	0xbe340803	-0.17581181
1	0x3d9094b8	0.07059616
2	0xbc0d2200	-0.008614063
3	0x3e05e234	0.13074571
4	0x3dde5104	0.10855296
5	0xbe2ee9fb	-0.17081444
6	0xbd9662e2	-0.07343079
7	0x3a65da00	0.0008768141
8	0xbdd14655	-0.10218493
9	0xbe15e544	-0.14638239
10	0x3dfda428	0.12384826
11	0x3d5cf444	0.053943887
12	0x3b4e1300	0.003144443
13	0x3dc53434	0.096290976
14	0xbd5a28ac	-0.053261444
15	0x3da1def4	0.07903853
16	0xbd677170	-0.056504667
17	0x3d83213c	0.06402823
18	0x3cb4bed0	0.022063643
19	0xbe007091	-0.1254294
20	0x3d30ee88	0.04319623
21	0x3da988a0	0.08278012
22	0xbd2fcf44	-0.042922273
23	0x3d76ab3c	0.060221896
24	0xbde9394c	-0.11387882
25	0x3d460970	0.048348844
26	0x3e0ec110	0.13940835
27	0x3e009240	0.1255579
28	0x3dda5e90	0.106625676
29	0xbdaa1a47	-0.08305793
30	0x3e0e780e	0.13912985
31	0xbbbed180	-0.005823314
32	0x3d6d0654	0.057867363
33	0x3adde200	0.0016928315
34	0xbde8dcb9	-0.113702245
35	0xbd6415fe	-0.055685036
36	0xbe3044c8	-0.17213738
37	0x3d28c5f8	0.041204423
38	0x3cc6a3d8	0.024248049
39	0x3d439b18	0.04775533
40	0x3df1df7c	0.118102044
41	0xbc87c5e8	-0.016573861
42	0x3e1eb070	0.15496993
43	0x3cbe0dc0	0.023199916
44	0xbe150365	-0.14552076
45	0xbde26d95	-0.11056057
46	0xbdb03371	-0.08603562
47	0xbe23534f	-0.15949748
48	0xbda012ef	-0.07816111
49	0x3d6efd44	0.058347
50	0x3deb3794	0.1148521
51	0xbe19d85a	-0.15023938
52	0xbc2ba660	-0.010476679
53	0x3e24b9b6	0.16086468
54	0xbc058c20	-0.008151084
55	0xbd270a1c	-0.040781125
56	0x3c9dc600	0.019259453
57	0x3d2c31e0	0.042039752
58	0x3c882190	0.016617566
59	0xbd88cde2	-0.06679894
60	0xbdd0de8f	-0.101987
61	0x3d31f5dc	0.04344736
62	0xbe2110d5	-0.15729077
63	0x3df60e58	0.120144546
64	0x3d637b7c	0.055537686
65	0xbc111f40	-0.008857548
66	0x3dcabb28	0.098989785
67	0x3d5fdd24	0.054654256
68	0xbde8b96f	-0.11363494
69	0xbded792e	-0.11595379
70	0xbda00705	-0.07813839
71	0xbd47532c	-0.048663303
72	0xbda507d9	-0.080581374
73	0xbd6e18a6	-0.058128975
74	0x3d986ba0	0.07442403
75	0x3db57a38	0.08861202
76	0x3db2d220	0.087314844
77	0x3dcbcfc4	0.099517375
78	0x3d092fac	0.03349273
79	0x3d248d30	0.04017371
80	0xbe1e8cde	-0.15483424
81	0xbd956d6a	-0.0729626
82	0xbe0f2e20	-0.13982439
83	0xbe2d8a45	-0.16947277
84	0xbe1764ea	-0.1478459
85	0x3dc89b1c	0.0979521
86	0xbdd42bd9	-0.10359926
87	0x3cced948	0.025250092
88	0xbc662420	-0.014046699
89	0x3e2f1c1a	0.17100564
90	0xbc8cfc48	-0.01721014
91	0xbe0a784a	-0.13522449
92	0x3deb05a0	0.11475682
93	0xbd5bd4f0	-0.05366987
94	0x3de45378	0.11148733
95	0x3df60ce8	0.120141804
96	0xbe2733de	-0.1632838
97	0xbdaa0a27	-0.08302718
98	0x3e063942	0.1310778
99	0x3e20788c	0.15670985
100	0xbe1f127f	-0.155344
101	0xbdbf8e63	-0.0935333
102	0xbe2e07c3	-0.16995148
103	0xbdd2af92	-0.10287394
104	0x3e2b29ea	0.16715208
105	0xbdf1ad2d	-0.11800609
106	0x3d1b2e08	0.037885696
107	0x3bc2e120	0.005947247
108	0x3e348d98	0.17632139
109	0x3b9bace0	0.004750833
110	0xbd08d240	-0.033403635
111	0x3d1871fc	0.03721808
112	0xbe0f4dda	-0.13994542
113	0x3e06cffa	0.13165274
114	0x3df73644	0.12070897
115	0x3e2f038a	0.17091194
116	0x3e042f24	0.12908608
117	0xbde396f4	-0.111127764
118	0x3ce811f0	0.028328866
119	0xbd3006e4	-0.04297532
120	0xbdcafc13	-0.099113606
121	0x3db72d60	0.089442015
122	0xbc6626c0	-0.014047325
123	0x3d147498	0.036244005
124	0xbda19a4b	-0.07890757
125	0xbe139748	-0.14413178
126	0x3d23d0a0	0.039993882
127	0xbdb7890d	-0.08961687
128	0xbd8ff0de	-0.07028364
129	0xbe011a72	-0.12607744
130	0x3dd2c0e8	0.102907
131	0xbdd5dbfa	-0.10442348
132	0xbe25d740	-0.16195393
133	0x3ca9b760	0.020717323
134	0x3d8803d8	0.06641358
135	0xbe033b08	-0.12815487
136	0xbdacf3fb	-0.08444973
137	0xbd91e386	-0.07123475
138	0x3d93748c	0.07199964
139	0x3d9c0588	0.076182425
140	0xbe2a4275	-0.16626914
141	0x3e16d532	0.14729765
142	0x3d9d6f64	0.07687262
143	0xbda7b9a6	-0.081897065
144	0x3c656e60	0.014003366
145	0xbe32a9c0	-0.17447567
146	0xbdcc500a	-0.09976204
147	0xbe032517	-0.12807117
148	0x3e15dc2c	0.1463477
149	0xbdaf3e29	-0.08556778
150	0x3e1d3e5a	0.15355816
151	0xbe0604fc	-0.13087839
152	0xbc9ecd48	-0.019384995
153	0xbe215b1f	-0.15757416
154	0x3dabb2bc	0.083837
155	0xbb15d040	-0.0022859722
156	0xbe09eae2	-0.13468507
157	0x3e0b1a3e	0.1358423
158	0xbdfca7f4	-0.12336722
159	0xbdd24427	-0.10266905
160	0xbcbaac00	-0.022787094
161	0xbe074a7a	-0.13212004
162	0xbe2eefa2	-0.170836
163	0xbcf66620	-0.030077994
164	0xbdff6d7f	-0.124720566
165	0x3deb0bc0	0.114768505
166	0xbadebc80	-0.0016993433
167	0x3e227942	0.15866569
168	0xbd736360	-0.059420943
169	0xbcbf8460	-0.023378551
170	0xbd035de4	-0.032071963
171	0xbe29542a	-0.16536012
172	0x3c1a38e0	0.009412974
173	0xbd2d0f40	-0.04225087
174	0xbdc5bbdc	-0.09654972
175	0xbdc73a64	-0.09727934
176	0x3e1792da	0.14802113
177	0x3dd609d4	0.10451093
178	0x3dc6d584	0.097086936
179	0x3d61b8e8	0.05510798
180	0xbd9d002f	-0.07666051
181	0x3dd60a08	0.10451132
182	0x3d381464	0.04494132
183	0xbdb44b18	-0.088033855
184	0x3bcba100	0.006214261
185	0xbd41e40c	-0.047336623
186	0x3db443ec	0.088020176
187	0x3dae2a90	0.08504212
188	0xbe13a746	-0.14419279
189	0xbd3e5510	-0.04646784
190	0xbe19eb17	-0.15031086
191	0x3df45d64	0.11931875
192	0x3e25fc3e	0.16209504
193	0x3c6206e0	0.013795584
194	0xbe2758db	-0.1634249
195	0xbdbeff36	-0.093260214
196	0xbbfed780	-0.0077771544
197	0xbe2101aa	-0.15723291
198	0xbd30def4	-0.043181375
199	0x3c92a668	0.017901614
200	0x3e199152	0.14996842
201	0x3d941670	0.07230842
202	0xbd6ef880	-0.058342457
203	0xbd6d7934	-0.057976916
204	0x3c552410	0.013009086
205	0x3e1bdab6	0.1522015
206	0xbc2b38b0	-0.010450527
207	0xbe1c3481	-0.15254404
208	0xbcf2c3e0	-0.029634416
209	0xbdfd7585	-0.12375931
210	0xbe0f06c6	-0.13967428
211	0x3dda7eb4	0.10668698
212	0xbd4a484c	-0.049385354
213	0x3c1394f0	0.009007677
214	0x3d5b0d04	0.05347921
215	0xbdfee872	-0.12446679
216	0xbe188ab6	-0.14896664
217	0x3d5abaf8	0.053400964
218	0xbddf7ddd	-0.109126784
219	0xbe1ba794	-0.15200645
220	0x3e1a05f6	0.15041336
221	0x3d10da14	0.035364226
222	0x3dbe3f3c	0.09289405
223	0xbdb9988f	-0.09062301
224	0xbe0d4421	-0.1379552
225	0x3d01ea54	0.031717613
226	0xbe1ceb6a	-0.15324178
227	0x3c8b6fe8	0.017021134
228	0xbd4bd84c	-0.049766824
229	0x3e352c44	0.17692667
230	0x3e0e65f2	0.13906077
231	0xbe04aff4	-0.12957746
232	0xbdd883a5	-0.10571984
233	0x3dbb157c	0.09134957
234	0x3e16a78a	0.14712349
235	0xbd926df4	-0.07149878
236	0xbe23ab54	-0.15983325
237	0x3e105642	0.14095405
238	0x3def4a0c	0.11684045
239	0xbd189464	-0.03725089
240	0x3b854ae0	0.0040677637
241	0xbdba943b	-0.09110304
242	0xbda8e5ed	-0.0824698
243	0x3d87ade0	0.06624961
244	0x3e0d4a90	0.13797975
245	0xbc5fe120	-0.013664514
246	0x3d166418	0.03671655
247	0xbe2084e3	-0.15675692
248	0xbe2292c9	-0.15876307
249	0xbe278629	-0.16359772
250	0xbd49c08c	-0.049255893
251	0xbe1ed551	-0.15511061
252	0x3e19b252	0.1500943
253	0xbe20714a	-0.15668216
254	0xbe29d4a1	-0.16585018
255	0xbe1aab07	-0.15104304

bias f4 [84]
0	0x3d0af6da	0.033926822
1	0x3d959aa7	0.07304888
2	0x3d4b0cea	0.049572863
3	0xbd8aeaa6	-0.06783037
4	0xbd53530b	-0.051592868
5	0x3c0b5c90	0.008505955
6	0x3c5efd18	0.013610147
7	0xbc9e586c	-0.019329272
8	0x3c87be64	0.016570278
9	0xbccfeb1c	-0.025380664
10	0x3d89e291	0.06732667
11	0xbdaf6a64	-0.08565214
12	0x3cd18098	0.025574014
13	0xbd6602f5	-0.056155164
14	0x3c6103e0	0.013733834
15	0x3cb80b38	0.022466287
16	0x3d2b5572	0.041829534
17	0xbd2a012e	-0.04150503
18	0xbd85ce1c	-0.06533453
19	0x3d99c73b	0.07508703
20	0x3d0e203e	0.034698717
21	0xbd8bda2e	-0.06828724
22	0x3d96313f	0.07333612
23	0xbdc0d34e	-0.09415303
24	0xbd0f6e88	-0.03501752
25	0xbce28e10	-0.027655631
26	0xbabc9380	-0.001438722
27	0xbcdb1958	-0.026745483
28	0x3c458028	0.012054481
29	0xbc131f38	-0.008979611
30	0x3d8dfa8d	0.069325544
31	0xbdbce394	-0.092230946
32	0x3ba2f320	0.0049728304
33	0xbc9d4678	-0.019198641
34	0x3d72181a	0.059105016
35	0xbced929c	-0.029000573
36	0xbd9ff7b2	-0.07810916
37	0xbd9b6086	-0.0758677
38	0xbc8745b0	-0.016512722
39	0xbda8c392	-0.08240427
40	0xbda19a28	-0.07890731
41	0x3bb3de60	0.0054891557
42	0x3d941e6b	0.07232364
43	0x3d814325	0.06311635
44	0x3d033c3a	0.03203986
45	0x3d114d06	0.035473846
46	0xbd2e67a9	-0.042579327
47	0x3d67cc22	0.05659116
48	0x3d03ebd6	0.032207333
49	0xbd05d55c	-0.03267418
50	0x3d279a06	0.040918373
51	0x3d28e18a	0.041230716
52	0x3d84ddf7	0.06487649
53	0x3d58038e	0.052737765
54	0x3c95fbdc	0.018308572
55	0xbce3e4a4	-0.027818985
56	0xbd0ec16e	-0.034852438
57	0x3ca780c0	0.020447135
58	0xbd79938b	-0.060931724
59	0xbd3b91d2	-0.045793362
60	0x3cfbe3f4	0.030748345
61	0xbc216ef0	-0.00985311
62	0xbbb76350	-0.005596556
63	0x3b579e80	0.003290087
64	0x3cfd6994	0.030934133
65	0xbdaae299	-0.08344001
66	0x3d5f2506	0.054478668
67	0x3d466252	0.04843361
68	0x3d5de25e	0.05417096
69	0x3ca192f0	0.019723386
70	0x3cef7ba4	0.029233761
71	0x3cbd48c8	0.023105994
72	0xbdb81976	-0.08989231
73	0x3d920205	0.071292914
74	0xbc9ec568	-0.01938124
75	0xbc830aa4	-0.015996285
76	0xbc1a3b58	-0.009413563
77	0xbd8ac988	-0.0677672
78	0xbd0fdfd9	-0.035125587
79	0xbd0b4950	-0.034005463
80	0x3caa2a84	0.020772226
81	0x3d321dbe	0.043485396
82	0xbd2f977f	-0.042869087
83	0xbdb7513f	-0.08951043

weight f4 [42, 84]
0	0xbe0858a2	-0.1331506
1	0x3d93b262	0.07211758
2	0xbe2218be	-0.15829751
3	0xbce3e968	-0.027821258
4	0xbdf973c0	-0.12180281
5	0x3bb629e0	0.005559191
6	0xbd7c8080	-0.061645985
7	0x3cd36a10	0.02580741
8	0x3bfb92a0	0.007677391
9	0xbcc0f130	-0.023552507
10	0xbe060230	-0.13086772
11	0xbd959222	-0.07303263
12	0xbe06c6f3	-0.1316183
13	0xbd430234	-0.047609523
14	0x3e0e7243	0.13910775
15	0x3d92b4aa	0.07163365
16	0x3d03507c	0.032059178
17	0xbdd26cc7	-0.10274654
18	0xbe453527	-0.19258557
19	0x3e0693a5	0.1314226
20	0xbe06062c	-0.13088292
21	0xbc2efab0	-0.010679886
22	0xbdf31d37	-0.11870807
23	0xbcab4e80	-0.020911455
24	0x3ddf8aaa	0.1091512
25	0xbcd13b00	-0.025540829
26	0xbdd58f89	-0.10427768
27	0xbb353ec0	-0.002765581
28	0x3c1ae2a0	0.009453446
29	0xbd80af36	-0.06283419
30	0x3e3925db	0.18080847
31	0x3e1767ff	0.14785765
32	0xbdbafb2c	-0.091299385
33	0x3b81d2c0	0.003961891
34	0xbdd7592a	-0.105150536
35	0x3e0dadc5	0.13835819
36	0x3d8a3b2e	0.06749569
37	0x3dcefd5a	0.10106917
38	0x3e58d393	0.21174459
39	0x3dd18a2e	0.10231434
40	0x3e28db79	0.16489972
41	0x3e4cd6d9	0.20003833
42	0x3e55e04d	0.20886345
43	0xbc9bf260	-0.019036472
44	0xbe38c35d	-0.18043275
45	0xbd840b42	-0.0644746
46	0xbe38c8e8	-0.1804539
47	0xbdc8f805	-0.09812931
48	0x3dbb8a1a	0.091572
49	0x3d6ca99c	0.05777894
50	0x3d7a398c	0.061090037
51	0xbddefdae	-0.10888229
52	0x3e07fcb9	0.1328
53	0xbd8ccb02	-0.06874658
54	0xbe3d635c	-0.18494934
55	0x3dddff8e	0.10839759
56	0xbdef378d	-0.11680517
57	0x3e472d81	0.19450952
58	0x3cea22f0	0.028581113
59	0x3d2d6bac	0.042339012
60	0x3e3d853f	0.1850786
61	0x3d8e26da	0.06941004
62	0x3e42df53	0.19030504
63	0x3e06b4b7	0.13154875
64	0xbe194414	-0.14967376
65	0xbe0875e0	-0.13326216
66	0x3e4d1aad	0.20029707
67	0xbc643c60	-0.01393041
68	0xbd2a495c	-0.041573867
69	0x3dfcda36	0.12346308
70	0xbe2baab6	-0.1676434
71	0xbdeaf4bc	-0.11472461
72	0xbe38c900	-0.18045425
73	0xbda4e9e4	-0.080524236
74	0x3cc0df78	0.023544058
75	0x3e1d8d49	0.15385927
76	0xbe23568d	-0.15950985
77	0x3dd2e39e	0.10297321
78	0xbd8f13e4	-0.06986216
79	0x3d97b726	0.0740798
80	0xbe2c5d09	-0.16832365
81	0x3dc32dbe	0.09530209
82	0xbe4b8522	-0.19875005
83	0x3d7283b4	0.059207633
84	0x3da9c02a	0.082886055
85	0xbe5701df	-0.20996808
86	0xbe35c55f	-0.17751072
87	0xbc4a12c0	-0.012333572
88	0xbc9bceb0	-0.019019455
89	0x3dcc910e	0.099886045
90	0x3e5361af	0.20642732
91	0xbe57eb4c	-0.21085852
92	0x3e3ab685	0.18233688
93	0xbe48bb8a	-0.1960279
94	0x3e183e63	0.14867549
95	0xbe258de6	-0.16167411
96	0x3e0288db	0.12747519
97	0x3d084af4	0.033274606
98	0x3db555aa	0.0885423
99	0x3de02bee	0.10945879
100	0x3d2a090c	0.041512534
101	0xbdc9b082	-0.09848119
102	0xbdf5147b	-0.11966797
103	0xbda3a442	-0.07990314
104	0xbde14a10	-0.110004544
105	0x3db99892	0.090623036
106	0x3dcd0116	0.10009973
107	0xbe4c893f	-0.1997423
108	0xbe5b986c	-0.21444863
109	0x3e49e215	0.1971515
110	0x3dc54c16	0.09633653
111	0xbdf2d5dc	-0.11857197
112	0x3d9d952e	0.076944694
113	0x3e208543	0.15675835
114	0xbdada1a0	-0.08478093
115	0x3d85dbc2	0.06536056
116	0xbb89f120	-0.0042096525
117	0x3cfbd878	0.030742869
118	0x3dc7b9f6	0.09752266
119	0xbdab6220	-0.08368325
120	0x3e5bb387	0.21455203
121	0x3e532581	0.20619775
122	0x3dceae4e	0.1009184
123	0xbe330bf9	-0.17485036
124	0x3e50f3b3	0.20405464
125	0xbc963608	-0.018336311
126	0xbe5b5794	-0.21420127
127	0x3ca6ea30	0.020375341
128	0xbdee9480	-0.11649418
129	0x3e3a2ced	0.181812
130	0x3d7d4144	0.06182982
131	0x3e51ca63	0.2048736
132	0xbdb79f38	-0.089659154
133	0xbe16ee31	-0.147393
134	0xbdb75046	-0.08950858
135	0xbdb9da5c	-0.09074852
136	0x3e1655d9	0.14681186
137	0x3bf3b3e0	0.0074372143
138	0xbe46a4e1	-0.19398834
139	0xbe24a5aa	-0.16078821
140	0xbde7fdfa	-0.11327739
141	0xbde548f2	-0.11195554
142	0x3e2cf639	0.16890801
143	0x3be6b780	0.007040918
144	0x3d0d63f4	0.03451915
145	0xbe501a1f	-0.20322464
146	0xbe2e3f0c	-0.17016238
147	0x3c85c090	0.016327173
148	0xbd83e556	-0.06440227
149	0x3d7a08fc	0.061043724
150	0xbbf824c0	-0.0075727403
151	0xbe08bfab	-0.13354366
152	0xbe40ab50	-0.1881535
153	0xbcd2ade0	-0.025717676
154	0xbc39f570	-0.011350021
155	0xbe500246	-0.20313367
156	0x3cadaa10	0.021199256
157	0x3c917038	0.017753705
158	0x3d9c734a	0.07639177
159	0x3d90e6e6	0.070752904
160	0x3e0d4345	0.13795193
161	0x3e52b45b	0.20576613
162	0xbe33bc00	-0.17552185
163	0x3cb9f888	0.022701517
164	0xbe28e3a9	-0.16493095
165	0xbcf77da8	-0.030211285
166	0xbc941358	-0.01807563
167	0x3d8c77ce	0.068587884
168	0xbcc65ad0	-0.024213225
169	0xbe338c36	-0.17533955
170	0xbda0ddb6	-0.07854788
171	0x3ce6ce38	0.028174505
172	0x3e28483f	0.1643381
173	0x3e308be7	0.17240869
174	0x3dc68aae	0.0969442
175	0x3e34e827	0.17666684
176	0xbcb9c7e0	-0.022678316
177	0x3da6e162	0.08148457
178	0x3d3f9ddc	0.046781406
179	0x3bc6fcc0	0.0060726106
180	0xbde23d78	-0.110468805
181	0x3dc27e72	0.09496774
182	0x3dafcd4a	0.08584078
183	0x3d936e46	0.07198767
184	0xbda392e2	-0.07987
185	0xbe5d944f	-0.21638606
186	0xbdd08dd1	-0.10183299
187	0xbe043ddc	-0.12914222
188	0x3e3f6a61	0.18692924
189	0xbcafaf88	-0.021446005
190	0x3dc90c52	0.09816803
191	0x3d6882a4	0.056765214
192	0xbd180f3c	-0.037123904
193	0x3dac9bc6	0.08428149
194	0x3e1a34c5	0.15059192
195	0xbd2b8654	-0.041876152
196	0xbda1bd4e	-0.07897435
197	0xbe4ef044	-0.20208842
198	0xbdb013c2	-0.085975185
199	0xbe1e3d6c	-0.15453118
200	0xbdbfc6ad	-0.09364066
201	0x3d9b604a	0.07586725
202	0xbcfd6100	-0.030930042
203	0x3d340794	0.04395254
204	0xbe5a4ef0	-0.21319175
205	0xbc026960	-0.007959694
206	0x3dbcfe8e	0.0922824
207	0xbe06d2f4	-0.1316641
208	0xbe4f306e	-0.20233318
209	0x3d21c3bc	0.039493307
210	0x3e4a31db	0.19745581
211	0x3dcf96c6	0.101361796
212	0x3df2c86e	0.11854635
213	0xbdf0fbb3	-0.11766758
214	0x3de05396	0.10953443
215	0xbd97a890	-0.074051976
216	0xbd3f396c	-0.04668562
217	0x3dcc50ca	0.09976347
218	0x3dfdb456	0.12387912
219	0x3bb30080	0.005462706
220	0xbe5e03c5	-0.21681125
221	0xbe57688e	-0.21035978
222	0xbe435bef	-0.19078039
223	0xbdf79d73	-0.12090578
224	0x3df4d1b2	0.11954059
225	0xbdb4e5f2	-0.08832921
226	0x3e009b61	0.12559272
227	0x3e01c315	0.12672074
228	0x3bdd6380	0.006756246
229	0x3e13b4d1	0.14424445
230	0x3d613b04	0.054987922
231	0xbd913796	-0.0709068
232	0x3e5c6b7f	0.21525382
233	0x3e3c931d	0.18415494
234	0xbdf0aa24	-0.11751202
235	0x3e4494f5	0.19197448
236	0xbc3ba450	-0.011452749
237	0x3a637400	0.0008676648
238	0xbda9843e	-0.08277176
239	0xbdb2107e	-0.08694552
240	0xbe1a484e	-0.15066645
241	0x3dfdc146	0.123903796
242	0x3da6bbbe	0.08141278
243	0x3c9314d8	0.017954275
244	0x3e5f1e63	0.21788935
245	0x3e03bc53	0.12864809
246	0xbd9fe20e	-0.078067884
247	0xbdbfbbbd	-0.0936198
248	0xbcb97fb8	-0.022643909
249	0x3da91842	0.0825658
250	0xbd02051c	-0.031743154
251	0xbda719cc	-0.08159217
252	0x3e538a21	0.20658161
253	0x3d4b83c4	0.04968621
254	0xbda0785a	-0.07835455
255	0xbdf9cf28	-0.12197715

bias f4 [42]
0	0x39018000	0.00012350082
1	0xbd3e4c50	-0.046459496
2	0xbd961e82	-0.07330038
3	0x3daf0b7f	0.085471146
4	0x3dace7d1	0.08442653
5	0x3d4334ce	0.04765778
6	0xbdc19a4f	-0.0945326
7	0xbd006d40	-0.03135419
8	0xbd6b639a	-0.057468034
9	0x3dcfedd1	0.10152782
10	0x3da450ef	0.08023249
11	0xbdc3a7b6	-0.09553473
12	0xbc906084	-0.017624147
13	0xbcd24ae8	-0.025670484
14	0x3d32e6e2	0.04367722
15	0xbdddd19f	-0.10830998
16	0xbdada359	-0.08478422
17	0x3ca48cec	0.020086728
18	0x3d2c6a66	0.042093657
19	0xbc46c188	-0.012131102
20	0x3ce960cc	0.02848854
21	0xbc9c0c94	-0.019048966
22	0xbdc894d5	-0.097940125
23	0x3ce7a4e4	0.028276868
24	0xbd2abdee	-0.041685037
25	0x3d5ac1f2	0.053407617
26	0x3c2bbcb0	0.010481998
27	0xbd92c04e	-0.071655855
28	0x3d89270d	0.066969015
29	0x3d9da7ef	0.076980464
30	0x3c85c53c	0.0163294
31	0xbcf434d0	-0.02981034
32	0xbdcf33d4	-0.10117307
33	0xbdb15e27	-0.08660536
34	0xbbe24f50	-0.0069064274
35	0x3d435802	0.047691353
36	0xbdad8b3c	-0.084738225
37	0xbcf3a82c	-0.029743277
38	0x3da0fda1	0.07860876
39	0x3ddc7475	0.107644
40	0x3dcadf17	0.09905832
41	0xbdb18209	-0.0866738
